temp/pre_mixture/resnet_8_mixture_0/optimizer_weights.npz (npz, 959838 bytes, 42 tensors)

arr_23 f4 [3, 3, 32, 64]
00000000: 7e59 0f39 58d5 03b8 f2f3 3d38 cc0c 37b7
00000010: a4b9 1838 90c7 89b8 b62f afb9 35a0 22b8
00000020: 2f9f cbb9 2811 19b9 5820 c236 68db 0cb9
00000030: 6b39 b9b8 f230 29ba 060b 06b8 87b7 48b8
00000040: c25b ecb8 baae bab8 104f 23ba 7e94 4cb9
00000050: 156d 82b9 ccd3 b8b9 0014 bf33 083a 58b8
00000060: 5d4b 2ab9 0c03 c138 43b7 a538 7f83 0fba
00000070: 8269 edb9 b8a6 8a39 03b8 29b8 9630 d438
00000080: fda0 2939 b2e1 7f39 b18a 9cb8 3ce5 0839
00000090: d63a 0838 4a4b ae39 2901 47b9 4730 95b9
000000a0: b691 a938 8c09 6e39 96dd 15b8 bb5f 80b8
000000b0: 6038 3b37 7022 0bb7 8cd1 5fb9 9dfd fab9
000000c0: 84db ed39 73ba dd38 1029 9eb8 dab2 18b7
000000d0: 76e2 8438 4831 56b9 b7fb 37b9 e522 beb9
000000e0: 5588 57b9 114e 1638 ceff 7039 116f 83b9
000000f0: e739 88b9 7499 80b9 15fd 84b9 c4b7 c6b8
00000100: e44a 4739 f0b9 9538 e222 7237 60df 91b6
00000110: a415 cab8 e5a9 feb8 9ec0 95b8 b3d4 5f39
00000120: 6868 feb8 dcee 4e37 78c4 6bb8 f564 133a
00000130: 0097 2e36 4d31 b338 b8b4 a7b8 a28b 18b9
00000140: 4cf1 6eb8 588d 14b9 5468 4639 26e1 b738
00000150: 0664 28b9 7c56 b039 bba3 9338 12c2 b8b8
00000160: 9259 68b9 e436 6cb7 9cc2 1e39 9246 0439
00000170: 3efb 2439 aacd 5239 2b81 aab8 5d68 2cb9
00000180: 816c 4bb8 8889 a639 4a10 b138 c64e 37b8
00000190: 9f9f bf37 c518 e638 5b59 7a38 9668 2d39
000001a0: 99c4 04b9 2c75 74b9 4c27 7738 a470 cc36
000001b0: cca0 84b8 0371 c5b8 a405 5437 2626 123a
000001c0: 6071 9f34 cce5 0639 4bbd 9c38 8cc4 9338
000001d0: 47fb 0539 1c89 f138 2e39 11b9 42ee 5c39
000001e0: 124f b739 5a6a 8439 0e4f b737 c3ef 45b8
000001f0: b407 7438 24e5 90b9 c2ef f8b8 60aa 8cb8
00000200: 78fd 3439 e7c8 2db9 1dcf 3038 94b6 ffb7
00000210: fb25 8a39 5958 94b9 f385 28b9 c0d6 4339
00000220: 82c4 83b9 e4f9 53b9 58bb f736 3499 0f3a
00000230: 9ff5 bbb7 bf4c 9fb9 ef6c fbb8 9bc3 7139
00000240: f054 acb8 2ec0 aeb8 1088 5c39 5927 ccb9
00000250: 03ee 56b9 ceda 58b8 b0ff d3b8 18fc af39
00000260: 74ae 3b38 c6ad 75b9 b8b8 51b6 8441 83b8
00000270: 0694 1bba d422 5a39 ec12 c839 ea3b a138
00000280: 11c5 1b39 bb6c 85b9 edbc 5bb9 3338 3b38
00000290: 48a7 bd36 c4e8 2039 d4f8 fa39 1f60 68b9
000002a0: 8fb1 abb8 0b7b c539 1a3c 5439 8bd7 e7b9
000002b0: 76e1 41b9 e25e 5cb9 2508 c938 533a 3cb9
000002c0: 2dd6 cc39 d0b5 b837 e00f fcb8 c373 90b8
000002d0: 0a1d aa38 bf50 7cb8 1287 fc38 3279 3fb9
000002e0: a034 f3b9 fda0 7737 9b96 0a3a a212 d139
000002f0: d4a1 9c39 2da4 8cb9 6bf2 8139 0aa0 efb9
00000300: 3470 7439 0ae2 4e39 7df9 b839 9c08 9f37
00000310: 2e98 d439 1967 23b9 dc61 093a 6dfb d0b6
00000320: 9b80 593a c753 ae38 37fb d1b8 408f 7e36
00000330: 512c 89b7 4e43 cd38 327d f039 4878 87b9
00000340: dcae 0539 2c81 c3b8 3eba 2639 da00 4839
00000350: 78c7 c739 deca 4f39 7ebe 9138 93c1 3fb9
00000360: b877 b839 68f4 c238 17f9 e3b7 5d01 ec39
00000370: 5c06 9339 04fd 9637 db8a 89b8 e69a 9338
00000380: b41a 08b9 f67d b1b8 510c dfb8 0eb2 10b9
00000390: ac54 6939 6ec0 4bb8 939d f4b8 6c1c ae39
000003a0: ba58 efb8 6fd6 a737 832f 6539 48fd 8937
000003b0: 1c3b 1f39 2af0 01b9 ae55 083a 834e 5939
000003c0: fc36 e9b8 21b9 9cb8 826b dc38 b25c d5b8
000003d0: d408 47b9 3a23 50b9 aa51 9039 fb80 cab8
000003e0: 7d13 d939 365c 0c39 604b ab39 3857 bf39
000003f0: 806a d338 ca05 1339 94ec c639 bafa 5438
0.00013670881 -3.1431526e-05 4.5288303e-05 -1.09106295e-05 3.6412515e-05 -6.5698405e-05 -0.00033414148 -3.8773014e-05
-0.00038837778 -0.00014597608 5.785416e-06 -0.00013433176 -8.832182e-05 -0.0006454132 -3.1958356e-05 -4.785464e-05
-0.00011270448 -8.9017165e-05 -0.0006229738 -0.00019510274 -0.00024876805 -0.00035253016 8.8977686e-08 -5.155246e-05
-0.00016240538 9.203525e-05 7.901948e-05 -0.00054746115 -0.00045282772 0.00026445626 -4.0464114e-05 0.000101179976
0.00016177069 0.00024402773 -7.464493e-05 0.00013055367 3.2479722e-05 0.0003324396 -0.00018978551 -0.00028455464
8.085689e-05 0.00022701005 -3.5730736e-05 -6.121347e-05 1.1159194e-05 -8.293064e-06 -0.00021345 -0.00047872672
0.00045367714 0.0001057283 -7.5416756e-05 -9.101548e-06 6.336432e-05 -0.00020426989 -0.00017546011 -0.00036265622
-0.00020554785 3.5835492e-05 0.00022983478 -0.00025069018 -0.00025983082 -0.00024528394 -0.00025365563 -9.475605e-05
0.00019006018 7.139507e-05 1.4432446e-05 -4.347341e-06 -9.6361415e-05 -0.00012143309 -7.1407514e-05 0.00021346174
-0.00012131111 1.2334171e-05 -5.6211342e-05 0.0005622649 2.6015914e-06 8.544568e-05 -7.996842e-05 -0.00014547867
-5.6968347e-05 -0.00014167035 0.00018921617 8.768057e-05 -0.0001605899 0.00033633772 7.0400034e-05 -8.809952e-05
-0.00022158612 -1.4079476e-05 0.00015140552 0.0001261479 0.00015733854 0.00020103776 -8.130291e-05 -0.00016442077
-4.8500024e-05 0.00031764456 8.443052e-05 -4.3703963e-05 2.2843304e-05 0.00010971868 5.9687864e-05 0.00016537527
-0.0001266174 -0.00023313303 5.8925987e-05 6.092787e-06 -6.324201e-05 -9.414742e-05 1.2637498e-05 0.00055751426
2.969855e-07 0.00012864842 7.473918e-05 7.046116e-05 0.00012777477 0.00011517314 -0.00013849579 0.00021069593
0.00034963392 0.0002525624 2.1852113e-05 -4.7191756e-05 5.8181307e-05 -0.00027636543 -0.0001187022 -6.707455e-05
0.00017260562 -0.00016573408 4.215456e-05 -3.0483388e-05 0.0002634971 -0.00028294584 -0.00016071628 0.0001867665
-0.00025132677 -0.0002021562 7.3829833e-06 0.0005477846 -2.2406513e-05 -0.00030384024 -0.00011988903 0.0002305642
-8.21742e-05 -8.332763e-05 0.00021031522 -0.00038939228 -0.00020497297 -5.170219e-05 -0.000101088895 0.00033566426
4.4746746e-05 -0.00023429756 -3.1250947e-06 -6.25877e-05 -0.0005934838 0.00020803075 0.0003816107 7.688238e-05
0.00014855365 -0.00025448747 -0.00020955848 4.4636614e-05 5.652113e-06 0.00015345501 0.00047869107 -0.00022161052
-8.186988e-05 0.00037666442 0.00020240285 -0.00044220345 -0.00018489905 -0.00021016182 9.585944e-05 -0.00017950805
0.00039069486 2.2019172e-05 -0.00012019253 -6.8880174e-05 8.111641e-05 -6.0156683e-05 0.00012041455 -0.00018260328
-0.0004638778 1.475983e-05 0.0005286724 0.0003987747 0.0002987521 -0.000268252 0.00024785413 -0.0004570487
0.00023311452 0.00019729897 0.00035281098 1.8958286e-05 0.00040549174 -0.00015583298 0.00052407174 -6.228153e-06
0.0008297057 8.312571e-05 -0.00010012689 3.7932332e-06 -1.635231e-05 9.787698e-05 0.00045869645 -0.00025838823
0.00012749009 -9.322385e-05 0.00015900374 0.00019073804 0.00038104854 0.00019816632 6.949621e-05 -0.00018287291
0.00035184412 9.296165e-05 -2.71765e-05 0.00045014443 0.00028042763 1.7999213e-05 -6.558533e-05 7.038358e-05
-0.00012979918 -8.46348e-05 -0.00010635763 -0.0001379924 0.00022252154 -4.8578186e-05 -0.00011664177 0.00033209042
-0.00011412935 2.0007805e-05 0.00021856841 1.6449616e-05 0.00015185442 -0.00012391867 0.00052007555 0.0002072398
-0.000111205474 -7.4731426e-05 0.000105104424 -0.00010173897 -0.00018981408 -0.00019849549 0.00027526665 -9.656135e-05
0.00041403985 0.00013385792 0.0003267182 0.00036495342 0.00010081101 0.00014021169 0.00037941767 5.0778246e-05

arr_45 f4 [256, 1]
00000000: 6e70 6cb8 bfdd f635 83cf eb37 744a 7538
00000010: 20fa 00ba ed5e e736 2d78 87b9 0d43 42ba
00000020: 22a5 b2b8 5a87 9ab8 df17 aab8 ac59 4aba
00000030: cb91 8637 0b14 afb5 3cc5 b0b9 fb3a a439
00000040: 57dc c0b8 53b0 7535 1519 17b8 95f3 5a2b
00000050: c1a1 ccb7 7c88 24b9 f44c 49b8 d278 dbb9
00000060: 3703 9e38 3ae3 a22f 63ce 9638 b0b1 0339
00000070: 53bb 7337 9bff a534 25a9 1739 5971 acba
00000080: 9742 6834 61ee ddb8 4cba 8339 e3d3 5eba
00000090: c2d5 95b8 fac6 a038 4a57 b038 1528 29b8
000000a0: 82f2 1fb5 bd9b 5cb9 66c3 8839 5977 f3b9
000000b0: ed20 dcb8 71d8 c5b9 b473 56b8 5e2f e6b9
000000c0: d233 2339 175a e337 e112 85ba bf60 4a37
000000d0: 3977 7eb8 0f23 333a a291 55b9 cf4f b2b9
000000e0: 610a aaba 33ba a2b9 d894 06ba 612e 62b8
000000f0: 52a9 c2b8 eba5 bcb9 f665 5b37 80d7 c037
00000100: 8bfd 13ba 722d 52b7 8c5b 16ba 0882 02b9
00000110: eae2 12b7 7a07 e8b6 0054 e6b8 c953 89b6
00000120: 00c9 abb9 8daa b4b7 3ac0 54b8 6816 ca35
00000130: 1584 81b9 bd5a 91b8 e784 99b5 1db1 afb9
00000140: 2fdb 6939 25b4 7cb8 acc8 5eb7 5f2d 01b9
00000150: c4fe 4cb8 7203 b2ba 115c 6ab9 1430 acb9
00000160: dc98 7c38 6c79 c037 585f 2f39 d959 b1b9
00000170: 3098 0c38 d433 e5b8 0527 6036 7c5d 29ba
00000180: 52a6 0334 0cf4 13ba bc96 7e38 38fe 2a39
00000190: 4b86 a4b3 344e 1639 013a b0b9 43bf f9b7
000001a0: 3590 fbb8 2c7b 00b7 b939 69b9 603f bbb6
000001b0: e25a 9b38 2728 2fba f30e c637 0a4d e938
000001c0: f1cf 6439 0802 a7b9 204a 6eb9 a54a ccb8
000001d0: 48db 72b9 4c45 26b9 dd28 4c39 459a 1438
000001e0: 3fa8 99b8 a510 db33 645e d737 90d3 d539
000001f0: 74af b8b9 eaa3 c837 b78e 2cb8 55e4 29b9
00000200: 9847 38b8 d6bd acb8 0e7d 9db9 d5c7 26ba
00000210: 2f65 5a38 8835 5b39 ec44 ffb9 7b46 0537
00000220: d8d3 1aaf 5db6 32b9 837e a3b7 dab2 79b9
00000230: 6b0c 77ba bdd8 9938 dbb6 4036 874e b030
00000240: 6f04 8fb6 3752 17b9 8af6 09b8 71ef 95b7
00000250: 7376 1d39 7f0d c3b7 261c 9cba 2f06 57ba
00000260: 0d16 9037 c346 28ba 6033 9639 4d4c 03ba
00000270: 0d03 7e35 678a 30b8 54ea 8fb9 f6c9 40b9
00000280: 3a2d c0b8 b9ec a3b9 06bc 19b7 3103 23ba
00000290: 7a57 26b6 5d4c 08b8 c051 20b6 f57a ffb8
000002a0: aeaf b3b9 ef3a 15ba 22a8 3eb8 9408 a7b8
000002b0: e6ae 67ba 3f47 1bba 4665 0aba 4471 e4b8
000002c0: fe75 2fb6 a1ed 99b8 1dc7 cab5 cf89 c2b9
000002d0: 8365 66ba 3c40 1f38 4d12 d8b7 2952 abb9
000002e0: 082a 24ba a81d 09ba 9c56 29ba 6c8a 42b8
000002f0: 344f 23ba 1c08 8ab9 a159 dab7 2572 6d36
00000300: 9c2e 2835 b56f b5b7 f65a 2238 0da8 64b9
00000310: e34e 26b3 345c 6eb8 6782 03ba 906b dd36
00000320: 0cf5 0bb9 059a 97b5 e4a5 0e99 a1f4 de35
00000330: 71e1 55ba d786 cbb7 60c4 0eb9 e8a2 3eba
00000340: 06ff 77b9 fe6f 7bb9 6b1b b2b8 d11c 1a39
00000350: e599 8eb9 a38d 14b9 9ab4 d4b3 778b 33ba
00000360: 1831 f5b9 77ea 45b9 0bd2 75b7 6409 54ba
00000370: 721b 9138 2a41 51b9 ea5c 8036 56e8 edb8
00000380: 79df 00b8 d423 04ba 121f 03b1 8e91 4838
00000390: 37bf 4ab8 0b15 07ba 9400 b2a8 b078 78b9
000003a0: cd5a 4839 2ae6 81b9 82b3 afb9 6701 ccb9
000003b0: 1723 d2b9 8f36 a8b6 dd13 8635 e97e 1eb8
000003c0: 6f2f a5b9 14c3 ce38 8ddf 24ba 3e87 37ba
000003d0: 4ddd 7c23 ff0c 22ba a1ae d634 5263 7ab8
000003e0: 0909 98b8 01f9 4bba f187 eb38 88e5 3aba
000003f0: bc90 3b38 b915 a537 22d9 1bba b30c 56b9
-5.6371493e-05 1.8392965e-06 2.8110813e-05 5.848189e-05 -0.0004920084 6.8953873e-06 -0.00025838744 -0.0007410504
-8.51846e-05 -7.3685034e-05 -8.110678e-05 -0.00077190506 1.6041935e-05 -1.3044349e-06 -0.00033716287 0.0003132446
-9.196315e-05 9.15262e-07 -3.6024565e-05 7.7787196e-13 -2.4394018e-05 -0.00015691103 -4.7993803e-05 -0.00041860953
7.534626e-05 2.9629083e-10 7.191e-05 0.00012559327 1.45275435e-05 3.0919622e-07 0.00014463493 -0.0013156339
2.1630909e-07 -0.00010582503 0.0002512507 -0.00085002015 -7.144689e-05 7.666457e-05 8.408593e-05 -4.033007e-05
-5.958501e-07 -0.00021038852 0.00026085525 -0.00046437493 -0.000104965504 -0.0003773603 -5.1129333e-05 -0.0004390431
0.00015564196 2.710246e-05 -0.0010152721 1.2062664e-05 -6.0669354e-05 0.0006833532 -0.00020367515 -0.00034010268
-0.0012973064 -0.00031037777 -0.0005133874 -5.3925793e-05 -9.282179e-05 -0.00035981773 1.3077157e-05 2.2988534e-05
-0.0005645386 -1.25275565e-05 -0.00057356874 -0.00012446207 -8.755111e-06 -6.915009e-06 -0.00010982901 -4.092672e-06
-0.00032765418 -2.1537091e-05 -5.0723764e-05 1.5056694e-06 -0.00024703206 -6.93104e-05 -1.1438068e-06 -0.0003351056
0.00022302264 -6.0249255e-05 -1.3278954e-05 -0.00012319301 -4.887466e-05 -0.0013581349 -0.00022350276 -0.00032842217
6.0223843e-05 2.2944725e-05 0.00016724819 -0.00033827013 3.3520337e-05 -0.00010929225 3.3401313e-06 -0.00064607686
1.2260833e-07 -0.0005643971 6.06987e-05 0.00016307167 -7.661273e-08 0.00014334248 -0.00033612552 -2.9772176e-05
-0.00011995473 -7.658073e-06 -0.00022242115 -5.580412e-06 7.407904e-05 -0.00066817034 2.36104e-05 0.000111246554
0.00021821239 -0.00031854236 -0.00022725062 -9.741382e-05 -0.00023160607 -0.00015856809 0.00019470179 3.5429624e-05
-7.326947e-05 1.020101e-07 2.5673951e-05 0.00040784152 -0.00035225938 2.3918186e-05 -4.114091e-05 -0.00016202156
-4.3935695e-05 -8.236959e-05 -0.00030038547 -0.0006362175 5.2069485e-05 0.0002090541 -0.0004868874 7.943828e-06
-1.408148e-10 -0.00017043338 -1.9490026e-05 -0.00023813118 -0.00094241527 7.335979e-05 2.8716665e-06 1.2828004e-09
-4.2622482e-06 -0.0001443111 -3.2892953e-05 -1.7873683e-05 0.00015016813 -2.3252096e-05 -0.0011910244 -0.00082025205
1.7176406e-05 -0.0006419236 0.00028648507 -0.0005008623 9.4626813e-07 -4.2090567e-05 -0.00027449674 -0.00018385783
-9.1636975e-05 -0.00031266155 -9.163288e-06 -0.0006218432 -2.4786846e-06 -3.2496046e-05 -2.3889443e-06 -0.0001218225
-0.00034272432 -0.0005692681 -4.5456116e-05 -7.964778e-05 -0.00088380126 -0.0005923397 -0.0005279373 -0.000108929846
-2.6145713e-06 -7.33987e-05 -1.5108122e-06 -0.0003710524 -0.000878893 3.7968377e-05 -2.5757729e-05 -0.00032676876
-0.00062623667 -0.00052305544 -0.0006459744 -4.638212e-05 -0.0006229759 -0.00026327453 -2.6029362e-05 3.5382193e-06
6.26527e-07 -2.1628899e-05 3.8708524e-05 -0.00021806378 -3.8721634e-08 -5.6829493e-05 -0.0005016685 6.598835e-06
-0.0001334736 -1.1295202e-06 -7.374729e-24 1.6611485e-06 -0.00081588986 -2.4262275e-05 -0.0001361533 -0.00072722
-0.00023650759 -0.00023978946 -8.4928084e-05 0.0001469732 -0.0002719901 -0.00014167144 -9.9048705e-08 -0.000684909
-0.0004676662 -0.00018874729 -1.4652042e-05 -0.00080885575 6.919251e-05 -0.00019956069 3.825514e-06 -0.000113443166
-3.0725703e-05 -0.0005040739 -1.908067e-09 4.7819274e-05 -4.8338636e-05 -0.0005152977 -1.976222e-14 -0.00023696083
0.00019107312 -0.00024776283 -0.00033512345 -0.00038910957 -0.00040080465 -5.0131416e-06 9.989559e-07 -3.778833e-05
-0.00031506593 9.8591816e-05 -0.0006289415 -0.00070010487 1.370781e-17 -0.0006181746 3.9987665e-07 -5.9697144e-05
-7.249608e-05 -0.000778094 0.00011230994 -0.000712954 4.471907e-05 1.9679648e-05 -0.0005945136 -0.00020413361

arr_11 f4 [16]
00000000: 4046 bf39 08ce abba e296 de3a fedf d038
00000010: fe7e 08ba 04e1 073b 46f1 ec39 5987 473a
00000020: 3005 a4bb b4e7 f6ba 78ec 3c3b b6de b63a
00000030: c335 1d3b b8a8 ff39 d575 9c39 ec31 12bb
0.000364827 -0.0013107667 0.0016982222 9.959935e-05 -0.00052069116 0.0020733485 0.0004519319 0.0007611416
-0.005005501 -0.0018837363 0.002882747 0.0013951871 0.0023988343 0.00048763095 0.0002984243 -0.0022307588

arr_5 f4 [3, 3, 16, 16]
00000000: dc71 3cb9 a574 b9b8 180f e6ba 2646 d3ba
00000010: ec59 2639 5040 23b8 2596 0d3a 8a37 81ba
00000020: 9b48 393a ede0 b4b8 0839 bfb8 39dd b9ba
00000030: 401c 9539 4287 283b f4c1 c239 4f41 f5b9
00000040: 2e59 d0b8 0095 c636 cf4d 353a f124 dd3a
00000050: 9774 aab9 9440 bfb8 3278 8a39 91f6 32ba
00000060: 1af1 5139 ec56 e239 620a d6b7 a22f bd39
00000070: 6e46 25b8 520b 0a3a 3cea 5ab9 378d 0539
00000080: c16d d439 75c4 71b8 a1f2 3bbb 7e26 1fbb
00000090: 658f 6039 b60f 3c38 24a8 6239 e040 57b7
000000a0: 5fe1 acba 2763 a7ba 6f90 f737 07dc b9ba
000000b0: de6d d238 752a 5a3a 6650 ab3a 3d38 f5b8
000000c0: 6f09 d239 1847 8438 3285 c3b9 b13d 7fbb
000000d0: 00d7 1636 f4c7 7a38 4d21 5939 b822 76b8
000000e0: f676 0ebb 4565 afba d037 e0b8 2476 0abb
000000f0: 2878 443a c48b e43a c421 1e3b 45a7 9a39
00000100: 4ebd 9fb7 e804 16b9 19a5 2439 4e75 58b9
00000110: 11d2 87b9 bfe7 9139 106e 6939 3fa4 76ba
00000120: 6b80 ee37 58c9 ed39 b7e2 4938 0a19 23b8
00000130: 85ec 48b9 1263 12ba fa4b 53ba 2c91 9639
00000140: 3e8f 5d3a 11cb 44b8 7d75 6cbb 1f6f ffba
00000150: fc8e 5238 6224 8539 8632 4ab7 3a2f 5eb9
00000160: aec3 08bb 7fe7 b9ba 0ca7 eab8 3768 e4ba
00000170: 24ee 9bb9 70ae e738 5e11 6f3a bb72 6839
00000180: fd6a b539 280d dcb7 3997 efba 3c95 f9b9
00000190: 8e9e 7039 15d1 aeb9 3af2 173a 9cdf 1f39
000001a0: 9ae8 e3ba ecfb 8cba 9c96 f737 164b abba
000001b0: abc9 a5b8 a20d e23a a1ef d03a 5db5 6dba
000001c0: 398d 07b9 5ab1 9939 3ec6 4fba 988b 233a
000001d0: fb35 a7b9 c47c c838 263d 343a e48c b8b9
000001e0: 0372 733a abe4 443a 18d0 c337 1e01 7b39
000001f0: 5ef7 073a 091b 9b3a 34d9 33ba d0a3 b2b7
00000200: c106 e339 9038 d038 b101 76bb d75c 54bb
00000210: b853 7737 7225 ff38 6e3a e939 9814 d0b8
00000220: 93be 49bb 8fdc efba 19d4 ec38 f05b 24bb
00000230: 6062 2cb7 fe48 ca39 300d aa3a e74d 8739
00000240: 47f4 b439 3bfe 2eb8 c294 82bb b835 d6ba
00000250: b295 eb39 a5fb eab9 6102 333a 5e68 ceb9
00000260: 5af2 e8ba ea64 ffba aa2c a238 5a16 1dba
00000270: d00e 98b8 9698 1c3b 9053 4a3b 9eb4 2eba
00000280: 4224 5e39 5fc0 63b9 e56c 0b3a e326 e4ba
00000290: a06b e237 75ba 0439 f03a 2639 5097 52b9
000002a0: 8867 42b9 30c1 cf39 5807 88b7 608e dab9
000002b0: bc8b b439 9d52 2f3a 2ba4 683a 2760 32b9
000002c0: afdf d6b8 1b3f 4039 2555 3039 c432 c53a
000002d0: e1b4 88b9 07ea c239 3688 dcb9 e4a6 51b9
000002e0: c133 183b 16bd 8f3a 80d3 ba36 fa1a 4e3a
000002f0: 450f 8839 45d6 f4ba 0207 6abb b6c3 2939
00000300: d957 963a 1160 e3b8 fd8d e0bb 87df 5abb
00000310: 52fd 5e39 ab47 80b9 6f43 ec39 7aac d6b8
00000320: e4e0 16bb f8be efba 29bd 8db8 3515 97ba
00000330: 4677 7c39 98c2 b73a 9cc7 e53a 6e64 edb9
00000340: 9a08 de39 ea5b 0fb9 cecb 5dbb dc2c b3b9
00000350: 5e75 143a c051 4f38 3726 063a d01b f239
00000360: 1283 09bb c630 b6ba 6219 f738 4857 e7ba
00000370: 37a3 333a 0c73 563b abd3 943b 63bc d7ba
00000380: a8f7 cfb6 34bb a4b8 88c8 acba 9a18 69ba
00000390: bc0a 8239 daa8 3039 a2ed a437 1a06 91b9
000003a0: 6ae6 83ba c69a 33ba de71 1e39 12e0 cdb9
000003b0: 9478 0738 0a37 d939 414a 7d3a c284 7ab9
000003c0: 6bdc 053a aeb9 58b9 4b4c cbba e4f7 52bb
000003d0: b12f adb8 9654 d8b8 a937 2639 7e16 2cb9
000003e0: c478 99ba f636 5aba 62de d237 119a 28bb
000003f0: 775f 593a 752b 9a3a 313e be3a 9a33 05ba
-0.00017971493 -8.843214e-05 -0.0017552106 -0.0016118928 0.00015864492 -3.8922124e-05 0.00054010964 -0.0009858471
0.0007068009 -8.6249645e-05 -9.1182126e-05 -0.0014180309 0.00028440543 0.0025715386 0.0003714707 -0.000467787
-9.934824e-05 5.9182057e-06 0.00069161964 0.0016871971 -0.00032511793 -9.119618e-05 0.00026410964 -0.00068269024
0.0002002161 0.0004317084 -2.5515623e-05 0.00036084378 -3.940466e-05 0.0005265969 -0.00020877359 0.00012736475
0.00040517564 -5.7641842e-05 -0.0028678554 -0.0024284418 0.00021415723 4.4837325e-05 0.00021615677 -1.28301035e-05
-0.0013189724 -0.0012770639 2.9511952e-05 -0.0014179953 0.00010034045 0.00083223666 0.0013070225 -0.000116929856
0.0004006135 6.307493e-05 -0.00037292537 -0.0038946683 2.2476888e-06 5.9790866e-05 0.00020707138 -5.8683305e-05
-0.0021738387 -0.0013381621 -0.00010691548 -0.0021127546 0.00074947113 0.0017436673 0.0024129013 0.00029497794
-1.9042429e-05 -0.00014306942 0.00015701762 -0.00020643065 -0.00025905718 0.0002782922 0.00022261613 -0.000940863
2.843161e-05 0.00045354175 4.813328e-05 -3.8885548e-05 -0.00019161597 -0.00055842206 -0.00080603326 0.0002871839
0.00084518257 -4.6919162e-05 -0.003608077 -0.0019488073 5.0201066e-05 0.00025394844 -1.2051902e-05 -0.00021189163
-0.0020868587 -0.0014183371 -0.000111891044 -0.0017426078 -0.00029741332 0.0001104743 0.00091197144 0.00022167985
0.00034602723 -2.623217e-05 -0.0018279321 -0.0004760417 0.0002294725 -0.00033343644 0.00057962874 0.00015246723
-0.0017388046 -0.0010756231 2.9514827e-05 -0.0013068642 -7.905377e-05 0.0017246495 0.0015940556 -0.0009067858
-0.00012927213 0.0002931457 -0.0007925964 0.00062387576 -0.0003189294 9.5599826e-05 0.0006875567 -0.00035200187
0.00092867034 0.0007510881 2.3342713e-05 0.00023937642 0.0005186702 0.0011833619 -0.0006860674 -2.1295535e-05
0.00043301846 9.9287485e-05 -0.003753763 -0.003240397 1.474184e-05 0.00012166322 0.00044484757 -9.922049e-05
-0.0030783757 -0.0018299985 0.00011292863 -0.0025079213 -1.0274904e-05 0.00038582826 0.0012973901 0.00025807248
0.00034514276 -4.1721603e-05 -0.0039850185 -0.0016342914 0.00044934225 -0.00044819448 0.00068286626 -0.0003936914
-0.0017772422 -0.0019485031 7.733081e-05 -0.00059924053 -7.250684e-05 0.002389466 0.003087256 -0.00066644873
0.00021185077 -0.00021720071 0.0005318656 -0.0017406609 2.6991416e-05 0.00012657962 0.0001585295 -0.00020083529
-0.0001853985 0.00039626053 -1.6215883e-05 -0.00041686278 0.00034436386 0.00066880306 0.00088745606 -0.00017011222
-0.000102459795 0.00018334055 0.00016816387 0.0015045037 -0.00026074707 0.00037176927 -0.00042063155 -0.00019993965
0.0023224207 0.0010966386 5.567854e-06 0.0007862296 0.00025951318 -0.001867958 -0.0035709743 0.00016190004
0.0011470272 -0.00010842097 -0.006852864 -0.0033397393 0.00021265939 -0.0002446746 0.0004506367 -0.000102364414
-0.002302223 -0.0018291166 -6.758638e-05 -0.0011526706 0.00024077026 0.0014019785 0.0017530802 -0.0004527899
0.00042349548 -0.00013671783 -0.00338434 -0.00034174963 0.0005663241 4.942878e-05 0.0005117389 0.0004617856
-0.0020982665 -0.0013900034 0.00011782606 -0.0017649913 0.0006852629 0.0032722382 0.0045418344 -0.0016459342
-6.1979117e-06 -7.854999e-05 -0.0013182322 -0.00088919105 0.0002480353 0.0001684757 1.966098e-05 -0.000276611
-0.0010063176 -0.0006851371 0.00015110473 -0.00039267592 3.2298805e-05 0.00041430473 0.0009662249 -0.00023891314
0.0005106392 -0.00020668536 -0.0015510408 -0.0032191211 -8.258166e-05 -0.00010315438 0.00015851729 -0.00016411577
-0.0011708965 -0.000832423 2.5137506e-05 -0.0025726596 0.00082921184 0.0011762219 0.0014514384 -0.00050812366

arr_1 f4 [3, 3, 3, 16]
00000000: 351e 6b3b 1c1b 9038 571c 3939 faf2 14bb
00000010: a557 383b 4d86 92ba c88b 78bb 04c1 d23b
00000020: 3e04 97bb ea7b 5e39 b935 d6b8 11d7 0d3b
00000030: 48a0 2eba 9291 a03a b2fe 1dba a231 fdba
00000040: eaf2 4f3b 12c9 8dba bf7e 053a d6c7 d5bb
00000050: 9685 3a3b 8b50 503a 2718 00ba b608 a83b
00000060: c580 d1bb e075 13b9 b5cd f8ba 5549 783b
00000070: 72ed a1ba 28b0 b93b 86d6 ccba aaa3 babb
00000080: 5874 e6bb 99a2 9e39 8938 41ba 2de7 193c
00000090: bf3b bfbb ed21 973a 42cc 783b 17a0 5bbc
000000a0: d27a 413c a845 b6b9 755a 383b 89dc 1bbc
000000b0: 937b 153b e530 eabb e248 063b 5413 0c3c
000000c0: 76d5 e93a 8d11 ca39 06af 9eb9 5a6b 2ebb
000000d0: 22ee 413b cc5f d0ba 5046 45bb 5486 813b
000000e0: 7979 92bb 5567 803b db41 00ba 6dd4 4d3b
000000f0: 8015 da36 a073 1cb8 ea52 56ba ded6 56bb
00000100: c3c0 623b af23 eeba 31ac de39 bf4a f0ba
00000110: 8cda e73a 56c6 9f3a 39e9 0dba e02e 963b
00000120: 97f8 84bb e2b0 9eba f121 8eba 8cc4 013b
00000130: 30a5 24ba 604c c43b 0bde 1aba 6aa2 a9bb
00000140: ea74 b4bb 914e 6b3a b07f a3b9 aa98 9d3b
00000150: 82aa 9fbb fc66 243a 2c6b 543b 020e 21bc
00000160: f358 193c c6fa 33bb 95b9 093b fa19 efbb
00000170: 782e 6f3a f2ad cfbb 82c9 953a 919a 103c
00000180: 253a 963a c871 eb39 c233 6eba d8f6 ddba
00000190: f9e0 f43a c858 9039 e0bc f5ba 6641 083a
000001a0: 8a8c d1ba aa16 933a 3e20 9db9 7a7f 843a
000001b0: bcaa ce3a 3b44 283b 0387 7c39 ea22 87bb
000001c0: a8a7 923b 65c3 35ba 434d ff39 a7e5 f4b9
000001d0: 6eaa 0c3b d8bb d0ba a4fa 27bb 90b1 e83b
000001e0: c5b0 1fbb 7c70 513a c193 5bba fe0d 793b
000001f0: 2956 e8ba bcd5 3c3b e03d 35b9 109f 6fba
00000200: ebb8 b9bb 40bc 8cb9 dd26 eb39 509b 393b
00000210: 91e8 a2bb de08 b53a 23c8 793b 0f5c 20bc
00000220: b7b2 ab3b fe0f bcba 7991 fd3a bc2a 0fbc
00000230: ba28 0f3a 7da2 c8bb 47ce 00ba b26b b03b
00000240: 22bc feb9 cc48 4db8 65d1 583a d586 9abb
00000250: 69b7 8d3a d22a 043a 0aa9 7c3a 11dd 9d3b
00000260: 4ff6 d5ba d1d1 cab9 f3d6 07bb c70b b43a
00000270: 12cc e9ba 6574 903a fe69 1fba 75e5 51bb
00000280: 3674 c03a 4086 42bb 88a9 9b39 5f89 bcba
00000290: 557b 2a3b ac8f ce3a 0692 0d3a 21c1 9e3b
000002a0: c6d4 50ba 1b7e d0ba d04b 1dba b6ec 293b
000002b0: db84 dab9 99b4 e73a e525 cc38 116e 4fbb
000002c0: 380e 81ba 8aa1 3b3b 8559 83ba ad06 d43b
000002d0: 0b69 72bb 5c35 beba 5934 ddba 2a2e 28bc
000002e0: 765e 203b 372b dc3a 46b8 443b 3586 b2bb
000002f0: 2f8a 143b 8cc1 2fbb c666 363a 12cc e23b
00000300: 30d6 f1b7 caaf faba d855 9fb9 e6bd 08bb
00000310: da14 d63a 043d 563a 703e 463a 6b0e 293b
00000320: 7a80 a4b9 32d2 b1ba ffce dab9 0a44 303b
00000330: 9d92 f2b9 912e 09ba d52f efb6 3fcb 6cbb
00000340: 1035 3b3b 8e0a d7ba d5b7 9c3a 8361 6fbb
00000350: bb44 a53a 6190 983a b840 4e3a d5e4 8d3b
00000360: cf85 18ba 50ac 30ba 86e7 2aba ee0e 773a
00000370: 1923 94ba ea0d 223b f463 6739 86fd 4abb
00000380: 6b7a 39bb 1b96 693b b880 6aba 7699 bc3b
00000390: 20be 3bbb 5fb6 00bb 13ee ccba c70f e2bb
000003a0: c60f 6b3a 4903 053b 40c5 8a3a e684 6ebb
000003b0: fbc9 cf3a 771f 00bb ecb8 5cb9 8b83 dc3b
000003c0: 03f3 6cba ffc4 dd38 c201 f9b9 5039 0dbb
000003d0: a082 c138 dac0 d639 d7e7 10ba a20a 0c3b
000003e0: f0e3 f1b9 ae10 02bb 948e 57ba fea0 873a
000003f0: b2fb e7ba 75c5 f33a 00d0 ff36 aaca 30bb
0.003587616 6.8715046e-05 0.00017653532 -0.0022727833 0.0028128412 -0.0011178941 -0.0037925113 0.0064317007
-0.00460866 0.00021217731 -0.00010214322 0.0021643082 -0.0006661457 0.0012250415 -0.0006027027 -0.001931716
0.0031730481 -0.001081737 0.0005092434 -0.0065240664 0.002846097 0.0007946572 -0.00048864115 0.0051279915
-0.0063935244 -0.00014062924 -0.0018982204 0.0037885506 -0.0012354089 0.0056667514 -0.0015627898 -0.00569578
-0.007032912 0.00030257253 -0.000737079 0.0093934955 -0.0058359797 0.0011530496 0.0037963544 -0.013404868
0.011809068 -0.00034765643 0.0028130088 -0.009513029 0.0022809252 -0.007146942 0.002049022 0.00854953
0.0017840106 0.0003854152 -0.0003026651 -0.002661428 0.00295914 -0.001589769 -0.0030101724 0.0039527807
-0.004470047 0.003918568 -0.0004892626 0.0031407133 6.499409e-06 -3.7300983e-05 -0.00081758073 -0.003278188
0.0034599758 -0.0018168594 0.00042471432 -0.0018332823 0.0017689033 0.0012189846 -0.0005413476 0.0045832247
-0.0040579545 -0.0012107159 -0.0010843856 0.001980099 -0.00062807184 0.00599055 -0.0005907721 -0.005176832
-0.0055071013 0.0008976246 -0.00031184917 0.0048094587 -0.004872621 0.00062714494 0.0032412512 -0.00983
0.009359586 -0.0027462705 0.0021015157 -0.007296798 0.0009124051 -0.0063378746 0.0011427852 0.008825914
0.001146142 0.00044907467 -0.0009086692 -0.0016934527 0.001868277 0.00027531967 -0.0018748306 0.00051977334
-0.0015987318 0.0011221964 -0.00029969396 0.0010108792 0.0015767436 0.0025675434 0.00024082889 -0.004124035
0.0044755526 -0.0006933718 0.00048694955 -0.0004671041 0.0021463889 -0.0015925122 -0.0025631571 0.007101245
-0.0024366837 0.0007989479 -0.0008376204 0.0038002725 -0.0017725873 0.002881392 -0.00017284555 -0.00091408286
-0.005667796 -0.00026843138 0.00044851648 0.0028321333 -0.0049715717 0.0013811847 0.0038113676 -0.0097875735
0.0052398103 -0.0014348028 0.0019345722 -0.008738216 0.0005461086 -0.0061228857 -0.000491355 0.005383932
-0.00048586825 -4.8943606e-05 0.00082709483 -0.0047157803 0.0010812107 0.0005041781 0.0009638226 0.004817613
-0.0016324016 -0.00038684768 -0.0020727485 0.001373642 -0.0017837307 0.0011021016 -0.0006081163 -0.0032027636
0.0014683071 -0.002968207 0.00029690214 -0.0014384201 0.0026013453 0.001575937 0.00054004823 0.0048448
-0.0007966276 -0.0015906723 -0.00060003716 0.0025928444 -0.00041679185 0.0017677724 9.7345364e-05 -0.0031651298
-0.0009846156 0.002863022 -0.0010021186 0.0064705224 -0.003698888 -0.0014511752 -0.0016876563 -0.010264913
0.0024470366 0.0016797547 0.0030017062 -0.0054481276 0.0022665372 -0.0026818244 0.00069580635 0.0069212997
-2.8829178e-05 -0.0019125876 -0.00030390802 -0.0020865141 0.0016333119 0.0008172544 0.00075624045 0.0025795947
-0.0003137624 -0.0013566671 -0.00041734424 0.0026896023 -0.00046267072 -0.0005233074 -7.1283234e-06 -0.0036131886
0.0028565563 -0.0016406344 0.0011956642 -0.0036526627 0.0012608984 0.0011639708 0.000786792 0.0043302574
-0.0005818279 -0.0006739544 -0.0006519485 0.0009424527 -0.0011301964 0.0024727532 0.00022067112 -0.0030973866
-0.0028301727 0.0035642448 -0.0008945572 0.0057555987 -0.002864726 -0.0019639952 -0.0015634916 -0.0068988535
0.0008966889 0.0020296148 0.001058735 -0.0036395132 0.0015853042 -0.0019550005 -0.00021049724 0.0067295483
-0.0009038897 0.000105747946 -0.0004749429 -0.0021549053 9.227288e-05 0.00040960946 -0.0005527711 0.0021368642
-0.0004613693 -0.0019846368 -0.0008222845 0.0010347662 -0.0017698912 0.0018598275 7.6238066e-06 -0.0026976266

arr_12 f4 [16]
00000000: c12d 0dbb 1ec8 afb9 013d d23a 3ee8 fc38
00000010: 9e62 9739 5a52 f339 a6ac bdb9 36ce 19b9
00000020: caf1 cdba 731d a33a 4c2d e53a 8240 d2ba
00000030: 4747 ee39 a978 e039 44db d93a e5e6 253a
-0.0021542164 -0.000335277 0.0016039909 0.00012059555 0.0002887444 0.00046409928 -0.00036177522 -0.00014668037
-0.0015712318 0.001244469 0.0017484813 -0.0016040953 0.00045448003 0.00042814508 0.0016621132 0.00063286565

arr_18 f4 [32]
00000000: d198 1f31 81dd b7b0 a242 adae a21f b230
00000010: 3783 9b2f 437c eaaf 2770 3d2f 828c 8431
00000020: 3368 0730 912a 40b1 4183 9030 1c95 0fb1
00000030: 17fc 8fb1 b2eb 96b0 6b20 efb0 e68b d8b0
00000040: bfa1 5330 b6d9 dbb1 780c 5131 3714 962f
00000050: eb83 e8b0 17f5 0db0 e4c3 1730 80d7 7730
00000060: f295 55af 5c84 932f 5038 b5b0 2c38 0231
00000070: 8c7e 9e30 355d cbb0 ca3d 0931 c6a4 6f2e
2.3224411e-09 -1.3377958e-09 -7.8789655e-11 1.2960195e-09 2.828757e-10 -4.2652645e-10 1.7229294e-10 3.8576795e-09
4.926079e-10 -2.7963873e-09 1.0514684e-09 -2.0893998e-09 -4.190507e-09 -1.0980925e-09 -1.7398752e-09 -1.575583e-09
7.699121e-10 -6.3984897e-09 3.042059e-09 2.7299205e-10 -1.6917715e-09 -5.1643795e-10 5.521186e-10 9.016432e-10
-1.9425508e-10 2.683319e-10 -1.3185488e-09 1.894942e-09 1.153198e-09 -1.4796685e-09 1.9971247e-09 5.4488657e-11

arr_44 f4 [225]
00000000: 708b 49b8 a31c 6db8 f6d9 6338 8006 0038
00000010: 5ac6 12b8 c6cd 14b8 651c be38 52ea 3db8
00000020: 8a56 b2b8 e3b2 2eb7 cf70 dcb7 ac51 26b7
00000030: 8ebe 50b8 de10 22b8 152f c237 eb43 e1b7
00000040: 8518 f737 dd48 4039 74a4 dd38 a33d cb38
00000050: 27ab 81b8 82c8 8a38 94bf 103a c92b a2b8
00000060: 6430 2cb8 c6f8 bbb8 6694 e637 e312 39b8
00000070: e59e 2238 84a8 1737 4ce3 ceb6 401c 1338
00000080: 9a60 aab7 5823 a7b6 0810 86b8 47dc 3a37
00000090: f237 0fb8 4c7c 8439 7d0c 0639 16b5 99b7
000000a0: 2623 38b7 9364 4837 6048 24b8 1253 8bb8
000000b0: bce0 1db8 05fc 7d38 045c 19b8 1482 cbb8
000000c0: beb6 2437 0171 97b8 7ee0 e339 ff55 aa38
000000d0: 0198 bcb8 58b8 23b8 8fd2 d5b8 ce39 67b7
000000e0: 2384 a238 2188 3ab8 fd29 8db8 3322 0b38
000000f0: d4f3 e538 5595 11b8 e3d6 4739 c9c2 94b8
00000100: d331 0638 cbc9 ad39 742d 5238 4c25 d0b9
00000110: c62e feb9 c94a 6639 5cf6 1638 8ece b839
00000120: 027c 3ab8 d0d0 e1b8 8c96 2db8 d845 7cb8
00000130: b66c 5937 9f17 5239 fb99 c538 4df5 70b9
00000140: af5a 0f39 197d 5038 eef1 efb8 5006 c737
00000150: c7ea 1eb9 8fc4 5eb8 903e 70b9 c909 cb39
00000160: a0b6 4bb5 27a8 9438 1b38 b7b7 af5f 5ab8
00000170: 6a11 1fb8 efa5 44ba f267 c5b8 0019 4ab5
00000180: 274a aab8 08ae 34b9 3788 8bb8 3c01 65b8
00000190: 3618 27b7 3399 f838 9a02 18b9 37d0 3ab8
000001a0: 953f ab38 b4dc bd38 2ce1 4f38 5018 3838
000001b0: 802b 14b7 157c ed39 3486 ea38 0a42 67b8
000001c0: 82d3 9ab8 2ef1 97b8 d356 103a 2fd7 4bb9
000001d0: 406f 3639 7388 10b9 afc5 a7b8 93fa 3738
000001e0: bd35 1cb8 bcbe 56b8 d0d5 0bb9 4b11 3538
000001f0: c874 6439 efa5 ecb9 64a3 403a 4fce 69b9
00000200: ac52 8437 4473 4939 b764 8a38 aca9 a5b8
00000210: 7041 2ab8 7571 f438 2094 dcb7 423b 31b8
00000220: 7eeb fdb8 4ff4 0c39 da77 a238 0fb2 92b8
00000230: 7ca9 0ab9 38b6 33b9 d315 38b9 c322 4bb7
00000240: 936f 433a e3bf 2238 4bff 113a a284 c4b8
00000250: b862 96b8 9513 e0b7 c633 1b36 095a 9eb8
00000260: 3b9b a4b8 6c6f 6db8 1075 c139 91e7 70b8
00000270: 306c afb7 3e32 3fb9 7e6b 8637 3c8b c7b8
00000280: c857 70b9 d45d b3b8 8c6c d239 f70e 30b8
00000290: 7fd8 ac37 e50a 8fb8 16a1 4238 1a19 26b8
000002a0: 04d3 9ab8 c84d a8b8 52f4 28b9 3f80 abb8
000002b0: 44a5 44b8 31ea 1039 3244 d9b7 ea42 07b7
000002c0: 9e8c 2538 6dfc 02b9 683b 86b8 a487 26b8
000002d0: 22e6 c8b7 eb3e 1b38 b33a 0538 7a46 c2b8
000002e0: 4f24 9db8 34d2 6ab8 0135 85b8 b157 f8b8
000002f0: c610 48b8 cdff c1b8 cbed 7db7 1bf4 c7b7
00000300: 5111 7238 088e 18b9 96c9 67b7 0612 3637
00000310: 55f5 3cb7 5683 89b8 374d 10b8 2ffd e6b6
00000320: 9aa1 e039 166b 6b38 4757 b337 fa10 ecb8
00000330: fbad bb38 0e9f 4fb6 d94b 3c38 12b6 11b6
00000340: 3151 f7b7 80e7 4434 2070 9bb8 7fbd 45b8
00000350: 7cbc ce37 445c 91b8 1c6a a6b9 e6c4 85b8
00000360: b3f5 4038 b89b 8b36 d9b5 0db8 cf8e a5b7
00000370: 38e7 1c37 1a33 c1b8 d248 78b6 91c4 3637
00000380: 14b6 11b8
-4.8051996e-05 -5.6531873e-05 5.432401e-05 3.052363e-05 -3.4993842e-05 -3.547759e-05 9.065195e-05 -4.527934e-05
-8.5038206e-05 -1.04128585e-05 -2.6278574e-05 -9.913387e-06 -4.9768532e-05 -3.863952e-05 2.3148526e-05 -2.6853717e-05
2.9456112e-05 0.0001833769 0.00010568733 9.691275e-05 -6.183079e-05 6.6177e-05 0.00055217114 -7.7329176e-05
-4.1053063e-05 -8.9631925e-05 2.748724e-05 -4.4125027e-05 3.8771792e-05 9.039537e-06 -6.1657393e-06 3.507384e-05
-2.0310563e-05 -4.9811024e-06 -6.392604e-05 1.1137751e-05 -3.414596e-05 0.0002526961 0.00012783888 -1.8323346e-05
-1.0975438e-05 1.1944346e-05 -3.916805e-05 -6.6435096e-05 -3.7641017e-05 6.0554612e-05 -3.656374e-05 -9.704023e-05
9.81771e-06 -7.22129e-05 0.00043464074 8.12225e-05 -8.9928515e-05 -3.9033912e-05 -0.00010195851 -1.3782132e-05
7.749374e-05 -4.4472636e-05 -6.731225e-05 3.3172033e-05 0.000109649875 -3.470977e-05 0.0001905817 -7.0934715e-05
3.1994492e-05 0.0003314748 5.0110233e-05 -0.0003970064 -0.00048481504 0.00021962369 3.5992227e-05 0.0003524911
-4.4461347e-05 -0.000107677304 -4.1386622e-05 -6.014653e-05 1.2959519e-05 0.0002003596 9.422373e-05 -0.00022979565
0.00013671325 4.970757e-05 -0.00011441471 2.3725588e-05 -0.00015155516 -5.3111984e-05 -0.0002291149 0.00038726468
-7.588915e-07 7.088511e-05 -2.1841426e-05 -5.2064363e-05 -3.7924772e-05 -0.00075015327 -9.413053e-05 -7.5287244e-07
-8.120044e-05 -0.0001723097 -6.6534085e-05 -5.4599004e-05 -9.959613e-06 0.00011854097 -0.00014496819 -4.453977e-05
8.1657585e-05 9.0533315e-05 4.9562354e-05 4.389166e-05 -8.831616e-06 0.0004529661 0.00011182987 -5.5136195e-05
-7.382689e-05 -7.245164e-05 0.0005506102 -0.00019439751 0.00017398316 -0.00013783741 -8.000002e-05 4.3863965e-05
-3.7243346e-05 -5.119921e-05 -0.00013335724 4.3169868e-05 0.00021787279 -0.00045137058 0.0007348566 -0.00022297468
1.5774123e-05 0.00019211794 6.5991124e-05 -7.899417e-05 -4.0592102e-05 0.0001165596 -2.629502e-05 -4.2255277e-05
-0.00012107844 0.00013442452 7.747086e-05 -6.9949885e-05 -0.00013223843 -0.00017138652 -0.00017555738 -1.21078365e-05
0.00074552855 3.880252e-05 0.00055693527 -9.370713e-05 -7.170945e-05 -2.6712e-05 2.3126936e-06 -7.5507975e-05
-7.849043e-05 -5.6608973e-05 0.00036899047 -5.7436122e-05 -2.0912004e-05 -0.00018233896 1.60241e-05 -9.514994e-05
-0.00022920885 -8.552862e-05 0.00040135195 -4.1975607e-05 2.0604812e-05 -6.8208006e-05 4.6403227e-05 -3.960086e-05
-7.382597e-05 -8.025352e-05 -0.00016112745 -8.177803e-05 -4.6883957e-05 0.00013820153 -2.5900172e-05 -8.062207e-06
3.9470026e-05 -0.00012491802 -6.400683e-05 -3.970381e-05 -2.3949022e-05 3.7013477e-05 3.176434e-05 -9.263768e-05
-7.4931064e-05 -5.5985714e-05 -6.351807e-05 -0.00011841895 -4.7699337e-05 -9.250604e-05 -1.5135341e-05 -2.3836319e-05
5.7713423e-05 -0.0001454876 -1.3815608e-05 1.0852242e-05 -1.1262794e-05 -6.557132e-05 -3.4404187e-05 -6.8840086e-06
0.00042845012 5.6128098e-05 2.1379105e-05 -0.00011256519 8.949261e-05 -3.0937986e-06 4.489333e-05 -2.1712663e-06
-2.9482502e-05 1.8338142e-07 -7.411861e-05 -4.7144942e-05 2.4644884e-05 -6.9313246e-05 -0.00031741045 -6.3786094e-05
4.6005192e-05 4.160651e-06 -3.378638e-05 -1.9736033e-05 9.352159e-06 -9.2124756e-05 -3.6997267e-06 1.0893812e-05
-3.4740267e-05

arr_4 f4 [16]
00000000: 93a0 dd3a 3331 f1ba 6396 4c39 06a2 cf3a
00000010: f536 a7b9 4f9b 3c3a a9f0 83ba 2e8e 12bb
00000020: 7eb7 c83a a0a0 1837 cfa9 7339 6bf9 d7bb
00000030: 4ba9 d9ba 025e 4a3b 460f cab8 50fe 41ba
0.0016908817 -0.0018401503 0.0001951098 0.0015841133 -0.00031893668 0.00071947736 -0.0010066229 -0.0022362578
0.0015313474 9.097304e-06 0.00023237545 -0.0065910122 -0.0016606239 0.0030878787 -9.6349555e-05 -0.0007400261

arr_35 f4 [1, 1, 64, 2]
00000000: 5c03 3738 c677 5f3a 8a3f d339 660d 50b9
00000010: 27f6 8d3a a8c5 10b8 9d24 cfb9 32b1 b838
00000020: ceb9 bcba 5037 8bb8 b065 f537 7ce7 8e39
00000030: 74d6 b339 ee86 713a 92c3 11ba 968c 9839
00000040: cc30 08ba 2fdc d3b8 1573 583a cbd9 aeb9
00000050: 8379 303b 83a1 793a 4658 f038 fb09 993a
00000060: b437 1fbb f03a db38 1c34 b33a ec8f 2ab9
00000070: 9a1b bdbb 58fa 2cb9 2c60 8039 0367 0e3a
00000080: f4fb f1b9 962c 0d3a 9a14 f439 f81d 8439
00000090: 707b a1b9 c92e ed3a a02e 6739 8463 5eb9
000000a0: cd70 f83a 96ca c1b9 10a6 9737 49cb 113a
000000b0: dedb 1cbb 58b7 afb8 6afe d5b9 c27c fab9
000000c0: 9cdd 9bba 847b 2c3a 8281 173b bd18 7dba
000000d0: 304a 7739 20ff 15ba eddc 08bb 20b9 72b8
000000e0: eee3 74ba 262d 463a a016 3739 a173 87ba
000000f0: e0af ef38 3029 4cb9 dff9 a1ba 61b9 4e39
00000100: 9f52 d039 0ef6 33ba 2624 dbb9 06e5 133a
00000110: fdac 03b9 f3e1 453a 456f 88bb 1cab 6fb9
00000120: 16d4 0e3a a0d3 4db8 5c99 a439 c49c 9f39
00000130: 1aca a538 a6c6 0e3a fd8b 0ebb f0d5 0ab9
00000140: d617 6db9 dac2 cb39 fa33 ecb9 5a71 09b9
00000150: b48e bdb8 aaf6 0c39 8070 993a 3c03 b5b9
00000160: 8897 fcb9 dc0e 103a a6c3 7d3a 53f0 8d3a
00000170: 1ae0 203b 6dd6 523a 56dc 133a b52a fdb7
00000180: 543d 12bb 3a1b 07b8 3ef8 b739 6553 08b9
00000190: 7488 5e3b 094c 853a fca1 843a defb 5eb9
000001a0: 2a9f 513a 8887 8fb8 f04c 27ba 1b5d 10b9
000001b0: 9c28 2dbb 07c0 9a39 9b38 3d39 bae4 12b8
000001c0: 927e c6ba 0893 fdb8 0362 233a 6497 da39
000001d0: 5820 5e39 10e6 5ab9 0868 96b6 7471 9b3a
000001e0: db3f e2b7 283b 063a 40b9 6539 c24c b539
000001f0: 8d3e 8839 6489 013a 8035 d539 3090 05b8
4.363373e-05 0.00085246225 0.00040292396 -0.00019841417 0.0010830805 -3.4516357e-05 -0.00039509396 8.806809e-05
-0.0014398636 -6.638339e-05 2.9253628e-05 0.0002725682 0.0003430132 0.00092135265 -0.0005560453 0.00029096444
-0.00051952596 -0.000101022764 0.00082568947 -0.00033350135 0.0026927895 0.00095226633 0.00011460534 0.0011675948
-0.0024294676 0.00010453712 0.0013672146 -0.00016266078 -0.0057711126 -0.00016496459 0.00024485716 0.000543222
-0.00046154822 0.0005385367 0.00046554656 0.0002519933 -0.0003080028 0.0018095608 0.00022047246 -0.00021208642
0.0018954516 -0.00036962767 1.8077932e-05 0.0005561603 -0.0023934762 -8.378801e-05 -0.0004081608 -0.00047776668
-0.0011891606 0.00065796846 0.0023117964 -0.00096548704 0.00023583393 -0.00057219155 -0.0020883635 -5.7869707e-05
-0.00093418255 0.0007559828 0.00017460668 -0.0010334143 0.00011429167 -0.000194703 -0.0012357793 0.0001971475
0.0003973441 -0.0006864973 -0.00041797868 0.0005641732 -0.00012557577 0.00075486227 -0.004163655 -0.0002285656
0.00054484734 -4.90729e-05 0.0003139478 0.00030443643 7.9054575e-05 0.0005446471 -0.002175092 -0.00013240403
-0.00022610961 0.00038864353 -0.00045052153 -0.00013107565 -9.038803e-05 0.0001344333 0.0011706501 -0.0003452542
-0.00048178085 0.0005495378 0.0009680338 0.0010829068 0.0024547637 0.0008042816 0.00056404376 -3.0179837e-05
-0.0022314386 -3.2211865e-05 0.00035089435 -0.00013001038 0.0033955844 0.0010169755 0.0010119076 -0.00021265398
0.00079964346 -6.844016e-05 -0.0006382009 -0.00013767595 -0.002642191 0.0002951624 0.00018045532 -3.502213e-05
-0.0015143922 -0.00012091367 0.00062325614 0.00041692995 0.00021183619 -0.00020875805 -4.482459e-06 0.0011859373
-2.6971034e-05 0.00051205093 0.00021908153 0.000345802 0.00025986545 0.0004941432 0.00040666386 -3.1843956e-05

arr_9 f4 [3, 3, 16, 16]
00000000: 04c6 093a ffe5 d339 6c45 e036 b0c4 6f39
00000010: 6e69 1839 7e9a 9239 b81b 8239 1434 8a39
00000020: c5e4 bab8 5c81 1e38 768b eeb9 9724 7b39
00000030: 2b83 e0b9 3013 9bb7 7f4e 02ba ffb3 05ba
00000040: 6004 dcb9 3082 09b7 51cb 90b8 8048 a1b8
00000050: 1439 9d39 817e 3138 ad4c f5b8 1c63 6138
00000060: 36af 52b9 de6f 34b9 3003 0137 66a7 06b9
00000070: 708f 1438 a195 2cb9 ae62 4038 9a56 3d38
00000080: e49f 68ba b879 a5b9 a611 3c3a a24c e639
00000090: 32b6 26ba 3026 8a38 601d bf3a d403 bd38
000000a0: ab47 76b9 dc46 533a 30a6 d8b8 8798 11bb
000000b0: 2e20 ceb9 c81b 8f37 952e aaba 7e33 c639
000000c0: 9c41 d639 c0d3 84b8 cd26 4c39 69ac 4f3a
000000d0: d88c 70b9 004f f639 9acc 523a 6d37 8d39
000000e0: eb03 67ba 570d 2c39 e016 b5ba 4567 043a
000000f0: a08c 6aba e00d b539 c48d b1ba 25e8 753a
00000100: f94c 8f39 b33e 09b9 9d17 9bb9 2b08 fab8
00000110: f8f8 a7b8 3549 c2b9 6c12 3cb9 aa1b c0b9
00000120: c1f3 d638 7aaa 7c38 2f8f 543a 698f 0c39
00000130: fe19 533a 8f2b 2cb9 005f 7137 c198 9938
00000140: 8342 02ba 499f ab39 eaed b8b9 d0df 05b9
00000150: bbb3 1f3a b1ec 4239 ea07 62b8 4ad6 8039
00000160: 94e4 ddb8 87d3 d1b9 ba54 2db8 e612 afb8
00000170: 247f 38b9 9801 a3b9 5fb9 eb37 5666 f038
00000180: 4443 0bb7 6f78 79b8 dc3b 0e38 b5d0 0938
00000190: 0089 5d38 a700 72b8 7e6c d439 e03f 26b9
000001a0: 30f8 3cb9 3c28 3038 8ac7 d738 6a7b 9e38
000001b0: dce4 6239 cbf6 afb8 24eb 4038 e072 31b9
000001c0: 821d 74bb 1098 8738 9240 613a f275 2ab9
000001d0: 389f 5438 2530 c5b9 ef6c 8fb9 1061 dab8
000001e0: 8c08 16b9 b62c 433a 2fcd 953a e569 16bb
000001f0: eac7 4e3a 53c2 a038 14bc 943a 4dca 133a
00000200: 74e7 0fb9 916e 8bba 02f9 a739 3287 b038
00000210: 2c9a 39b8 1e0e ef39 3884 6bba 2050 453a
00000220: 7be7 8639 1de1 71b9 f429 8fba 4816 e13a
00000230: 860b a1ba 782d 40b8 b1b3 a4ba d00d 5d3a
00000240: 12b7 1239 76af bcb9 4156 143b 2665 98b9
00000250: 9988 57b9 66d3 043a fde2 91b9 5c88 ec3a
00000260: fbf6 f9ba c0ab 5fb7 5bf5 09bb 3ebf 5039
00000270: ac81 9dba fbce 8a3a 2227 17bb ea42 9aba
00000280: ad70 7cba 12c4 a7b8 083a 3ab6 fea5 ceb8
00000290: ae2b db39 a2ff 3839 e194 49b9 18f5 28b8
000002a0: c802 51b9 32a2 66b9 d22f c539 eb42 5db9
000002b0: 67d0 6bb8 1748 6ab9 7b85 ae39 e88c 2b39
000002c0: f19b 363a 42ce ebba b2d5 c838 8e43 b038
000002d0: 610e e8b9 1ed2 80ba 65b2 0f3a 8572 f5b9
000002e0: 24d9 58ba 8567 05ba e0b9 fc39 e8e1 45b9
000002f0: a9a8 87b9 96c1 3139 7608 b239 0ca3 d7b7
00000300: 2564 ed39 e9bc dd38 6a62 d33a 5fbf 2cba
00000310: 0298 46b9 1a73 7b3a 8ac8 26ba bfb7 233b
00000320: e536 11ba 4912 baba 6f1f 02bb 48fc d439
00000330: 0af6 4cba ca8c bc39 f24c 3abb 667e ceba
00000340: f692 06bb 700d c2b9 506c 43b8 dc5f 20b9
00000350: 47e0 16ba bc3d 12ba 8be9 983a 489e fcb9
00000360: 0381 84b8 56b6 9f38 9541 dc3a d058 77ba
00000370: 2028 de37 ac27 9db9 c8c5 a639 4802 8c39
00000380: 91d4 2e3a 2c95 a7b8 d4b3 5eb8 67e7 b0b9
00000390: 40c5 8cb9 7f8f f4b9 d173 b739 94d6 4bb9
000003a0: 45cc 073a 8d2b d739 5bc6 bb3a 9b3a 41ba
000003b0: acdf 643a b97a cab9 b878 a339 4416 603a
000003c0: 0c34 ffba 3210 ebba bc02 08b9 f62e fab9
000003d0: 72c7 9e38 b9bc fb39 e01a b1ba d93c c5ba
000003e0: 0ad1 173a ea1d f3b8 f0e2 413b d2b9 76b9
000003f0: 0167 b53a 0c91 14ba 03c4 003b 3a7d 9b3a
0.0005255642 0.00040416417 6.683802e-06 0.00022866088 0.00014535125 0.00027962396 0.00024816184 0.00026360212
-8.911783e-05 3.779061e-05 -0.00045498804 0.00023950856 -0.00042822337 -1.8486375e-05 -0.0004970803 -0.0005100369
-0.0004196493 -8.196148e-06 -6.904326e-05 -7.6905824e-05 0.000299879 4.2317904e-05 -0.00011696792 5.3736483e-05
-0.00020092432 -0.00017207811 7.689741e-06 -0.00012841597 3.5419536e-05 -0.0001645894 4.586827e-05 4.5141765e-05
-0.0008873923 -0.0003156194 0.00071742607 0.00043926114 -0.00063595467 6.587466e-05 0.0014580898 9.012935e-05
-0.00023487087 0.000805957 -0.000103306375 -0.0022216158 -0.00039315358 1.7059865e-05 -0.0012983853 0.00037803868
0.00040866144 -6.333692e-05 0.0001946941 0.00079221145 -0.00022940652 0.00046979636 0.0008041352 0.0002693491
-0.00088125345 0.00016408168 -0.0013816021 0.0005050789 -0.00089473464 0.00034533348 -0.0013546278 0.00093806005
0.00027332435 -0.00013088695 -0.00029581497 -0.0001192245 -8.0095546e-05 -0.00037057107 -0.0001793594 -0.00036641705
0.00010249718 6.024025e-05 0.0008108494 0.00013404865 0.00080528844 -0.00016419425 1.4386838e-05 7.324061e-05
-0.00049690175 0.00032734338 -0.00035272475 -0.00012767245 0.00060921506 0.00018589456 -5.388997e-05 0.0002457372
-0.00010580677 -0.00040021187 -4.1325322e-05 -8.3481704e-05 -0.00017594971 -0.0003109097 2.8100503e-05 0.00011463153
-8.300707e-06 -5.947839e-05 3.3911187e-05 3.285772e-05 5.2818097e-05 -5.7697904e-05 0.00040516624 -0.00015854789
-0.00018021534 4.199914e-05 0.00010289166 7.557015e-05 0.00021638296 -8.390619e-05 4.599536e-05 -0.0001692283
-0.0037249033 6.4656255e-05 0.00085926906 -0.00016256401 5.0693023e-05 -0.00037610639 -0.00027356247 -0.00010413129
-0.00014308299 0.0007445322 0.0011428947 -0.0022951302 0.0007888066 7.66559e-05 0.0011347556 0.000563775
-0.00013723766 -0.001063781 0.00032038247 8.417516e-05 -4.425102e-05 0.0004559615 -0.00089842407 0.0007526893
0.00025730938 -0.00023067412 -0.0010922537 0.0017172778 -0.001228676 -4.5818713e-05 -0.0012565759 0.0008432539
0.00013991844 -0.00035988883 0.002263442 -0.0002906706 -0.00020554884 0.0005066901 -0.00027825675 0.0018046009
-0.0019070798 -1.3331824e-05 -0.0021050784 0.00019907669 -0.0012016795 0.001059025 -0.0023064096 -0.001176921
-0.0009629827 -7.9997015e-05 -2.7749938e-06 -9.853764e-05 0.0004180348 0.00017642838 -0.00019224315 -4.0282583e-05
-0.0001993283 -0.00021994932 0.00037610397 -0.00021101131 -5.6222456e-05 -0.00022342835 0.00033287317 0.00016360322
0.0006965986 -0.0017990547 9.576547e-05 8.404917e-05 -0.000442612 -0.0009828245 0.00054816 -0.00046815365
-0.00082721026 -0.0005088973 0.00048203673 -0.0001887154 -0.00025874868 0.00016952152 0.0003395711 -2.5705922e-05
0.00045278776 0.000105732885 0.0016127352 -0.0006589796 -0.00018939379 0.00095920416 -0.000636228 0.0024981347
-0.0005539491 -0.0014196123 -0.0019855162 0.00040623755 -0.0007818645 0.0003596305 -0.002842721 -0.0015754222
-0.0020534373 -0.00037012575 -4.6592497e-05 -0.000152945 -0.0005755466 -0.0005578657 0.0011666281 -0.00048183114
-6.318281e-05 7.6156735e-05 0.0016804213 -0.00094355363 2.6483147e-05 -0.0002997493 0.00031809346 0.0002670458
0.0006669248 -7.990966e-05 -5.3096403e-05 -0.00033741744 -0.00026849844 -0.0004664622 0.0003499077 -0.00019439525
0.000518028 0.00041040443 0.0014326082 -0.00073710986 0.00087308395 -0.00038619878 0.00031179725 0.000854824
-0.0019470467 -0.0017933904 -0.0001297099 -0.00047718704 7.571177e-05 0.0004801506 -0.0013512038 -0.0015048041
0.0005791342 -0.00011592715 0.0029584728 -0.00023529612 0.0013839902 -0.00056673656 0.0019648082 0.0011862882

arr_30 f4 [64]
00000000: aefb d5af 1095 43b0 00ba b32f e267 b82f
00000010: b05f b2ab b2cd f52f fb83 c730 84ae 8aaf
00000020: 4252 aaaf c85a 3d30 2640 23af fc49 2f30
00000030: 5faa f3af 38dc 9331 aa25 4b30 1c39 8530
00000040: 2e28 e6ae 0867 192f 15b9 8230 5005 552e
00000050: 3044 d2af 754b 95b0 9e93 2930 0655 edad
00000060: dd42 78af 492d 702f 1d45 24b0 13d9 c02f
00000070: 8b52 86b0 346f d22f 69b6 862e ceb9 74ae
00000080: 4640 b0af c486 a0af 3f85 8aae 7dc5 7930
00000090: e7b9 ed2e 752b b62f bbd2 ef2f 7cdd 29b0
000000a0: 99f0 a8af 3c1f bd2e 2caa a42f 493d 1b2f
000000b0: 3d60 0bb0 77fe cdaf 9abb 6aae ad0e 3aae
000000c0: 991d a42e e4eb 6a2f 35e9 892f 5686 13b0
000000d0: ac9e 8630 7c37 3e2f 6641 aaaf 46f6 31ae
000000e0: 03c4 8c30 9d57 52b0 140d 47af 2aca d82f
000000f0: 685c 282a 1e5b 612f ff32 adae 0f33 a72f
-3.8923303e-10 -7.115242e-10 3.269207e-10 3.3543218e-10 -1.2674219e-12 4.4711396e-10 1.4516667e-09 -2.5226055e-10
-3.0981268e-10 6.888681e-10 -1.4847554e-10 6.376977e-10 -4.4322498e-10 4.303299e-09 7.3904494e-10 9.693255e-10
-1.04663264e-10 1.3951873e-10 9.511348e-10 4.843531e-11 -3.8247228e-10 -1.0862623e-09 6.169162e-10 -2.6981539e-11
-2.2579223e-10 2.1843961e-10 -5.976107e-10 3.5078837e-10 -9.773243e-10 3.8277792e-10 6.126017e-11 -5.5644205e-11
-3.2059883e-10 -2.9199587e-10 -6.299183e-11 9.086632e-10 1.0810535e-10 3.3136485e-10 4.362358e-10 -6.179659e-10
-3.0729977e-10 8.600273e-11 2.995234e-10 1.4118941e-10 -5.070467e-10 -3.747009e-10 -5.3372064e-11 -4.230454e-11
7.463114e-11 2.1365981e-10 2.5085858e-10 -5.366919e-10 9.79488e-10 1.7300111e-10 -3.0969288e-10 -4.0463875e-11
1.024205e-09 -7.652206e-10 -1.8103591e-10 3.9433817e-10 1.4953457e-13 2.0496002e-10 -7.876188e-11 3.0413402e-10
