temp/pre_mixture/resnet_8_mixture_0/optimizer_weights.npz (npz, 959838 bytes, 42 tensors)

arr_35 f4 [1, 1, 64, 2]
0	0xba85263d	-0.0010158491
1	0x392a14a4	0.00016220153
2	0xb98874f3	-0.00026027075
3	0x39f1945d	0.0004607764
4	0xb9f36e39	-0.00046430694
5	0xb9c92c71	-0.0003837082
6	0x3ab8e848	0.0014107311
7	0x3ab49d38	0.0013779765
8	0x39b8bae8	0.0003523447
9	0x3a652463	0.0008741079
10	0x38a5174c	7.8721525e-05
11	0x39af1dea	0.0003340089
12	0xb86e7c4c	-5.6859382e-05
13	0x3a0c100d	0.0005342968
14	0x3a3b0924	0.0007134846
15	0x3aa25b43	0.0012386817
16	0xb9c57ad9	-0.00037666297
17	0x39d490b8	0.00040543615
18	0xba94d9de	-0.0011356433
19	0xb9699a71	-0.00022278145
20	0x3a10c32b	0.00055222464
21	0x389bb874	7.425333e-05
22	0xb92112b1	-0.0001536112
23	0xb8ecb0c1	-0.0001128628
24	0xba9ede16	-0.001212063
25	0x397e5538	0.00024255074
26	0xb97e6356	-0.00024260333
27	0x3a0bb445	0.00053292915
28	0xb9e0893f	-0.00042826866
29	0x39f44857	0.00046593204
30	0xb99f53e5	-0.0003038935
31	0xb942126a	-0.00018508142
32	0xb9720660	-0.00023081293
33	0xb9a4dbc3	-0.00031444253
34	0x39abc784	0.00032764312
35	0x3aa516e4	0.0012595323
36	0x3a118d3c	0.00055523566
37	0x3a4a4b22	0.0007716884
38	0x3a39b9c5	0.0007084872
39	0x3a91ede2	0.0011133517
40	0x38ac5980	8.21827e-05
41	0xb8d5d74c	-0.00010196734
42	0x3a1a3318	0.00058822474
43	0x3a27bd03	0.00063987094
44	0x3a065c0c	0.00051254104
45	0x3aca5d2f	0.0015439148
46	0x3a3e1e74	0.00072524627
47	0x3a58a530	0.0008264361
48	0xb7e6c870	-2.7511473e-05
49	0x392bcf10	0.00016384968
50	0x39b068f4	0.00033647532
51	0x38c38b00	9.324215e-05
52	0xb9ec43a8	-0.00045063836
53	0xb993fd43	-0.0002822672
54	0xb9c94d16	-0.0003839514
55	0x3a3f926e	0.00073078915
56	0x3a10b5f7	0.0005520279
57	0xba2bada4	-0.0006549007
58	0x3ad42b78	0.0016187271
59	0x3ae01478	0.0017095944
60	0x3a88050e	0.0010377483
61	0x3ac39de7	0.0014924378
62	0x3aafbf1e	0.0013408398
63	0x3b243377	0.002505509
64	0x38d606b3	0.00010205563
65	0x3998b579	0.00029126907
66	0xba32633c	-0.0006804948
67	0xbaee464a	-0.0018178907
68	0x3991a8d8	0.00027782354
69	0x3a8e0fce	0.001083845
70	0x3ab0f3a0	0.001350034
71	0x3ab6c462	0.0013944025
72	0xb9ac7bee	-0.0003289873
73	0xba3e1a40	-0.00072518364
74	0x3a1a86af	0.0005894703
75	0x3ab80cc0	0.0014041886
76	0xb95f2d94	-0.00021283916
77	0xb97b732e	-0.00023980133
78	0xb8e3d354	-0.000108635664
79	0xb912c458	-0.00013996789
80	0xba3aae20	-0.00071212836
81	0x389b15d8	7.395045e-05
82	0x3a008991	0.00049033115
83	0x3b2b3fc5	0.002613054
84	0xba167854	-0.0005739976
85	0x3a665b5c	0.00087874173
86	0x3a1cd1a0	0.00059821643
87	0x39200909	0.00015262155
88	0x39cfdffa	0.00039648992
89	0x3a4c98fd	0.00078047795
90	0xb91aa120	-0.00014746608
91	0x39c402e7	0.00037386196
92	0xb8d64f16	-0.00010219046
93	0x3a3d6900	0.0007225424
94	0xba0e71d5	-0.00054338324
95	0x3a2a58fe	0.0006498246
96	0xb7106180	-8.60577e-06
97	0x3ad52432	0.0016261397
98	0x39a2cb8f	0.0003105071
99	0x3a9d95b0	0.001202276
100	0x3a111cb6	0.00055355893
101	0x3af30591	0.0018541088
102	0x3996810c	0.00028706377
103	0xba6e26a0	-0.0009084735
104	0x3a8e3ab0	0.001085123
105	0x3a60483e	0.0008555687
106	0x3aa75f0e	0.0012769417
107	0x3aae2a09	0.0013287674
108	0xb94397e4	-0.00018653233
109	0xb75098c0	-1.2433331e-05
110	0x3a720048	0.00092316093
111	0x3a702830	0.0009161262
112	0xb9db542d	-0.0004183365
113	0x38d6da50	0.00010244979
114	0x38a105aa	7.678133e-05
115	0x3a579e3e	0.0008225179
116	0xba11b46a	-0.0005558195
117	0xbac6d2a2	-0.0015168975
118	0xb9f825eb	-0.00047330497
119	0xbab447e4	-0.0013754335
120	0x39788b31	0.00023702976
121	0x3a0f2aae	0.0005461377
122	0xb93a4bf9	-0.00017766644
123	0xba6bbb00	-0.0008992404
124	0x3a12c6d7	0.00055990875
125	0x3a7c0c0a	0.0009614831
126	0xba1d23be	-0.00059944007
127	0x3997e402	0.00028970843

arr_44 f4 [225]
0	0x384ae924	4.8377682e-05
1	0x376a925c	1.3981564e-05
2	0xb8292832	-4.0330175e-05
3	0x3623f514	2.4431547e-06
4	0xb81eaa53	-3.7828762e-05
5	0x381c902e	3.7327576e-05
6	0xb8d75ae0	-0.00010268926
7	0xb8b6d1e2	-8.71753e-05
8	0xb617c016	-2.2612562e-06
9	0xb7c36a34	-2.3295266e-05
10	0x37211220	9.600568e-06
11	0x39de8f06	0.000424497
12	0x37ccc362	2.4409677e-05
13	0x37e2cff1	2.703813e-05
14	0x3728f4eb	1.0070605e-05
15	0x3824fc8c	3.933585e-05
16	0xb66a3828	-3.4901404e-06
17	0x38dd2aa8	0.000105460465
18	0xb862f17f	-5.410751e-05
19	0xb80206ee	-3.100087e-05
20	0x379a2736	1.837649e-05
21	0x39834d6a	0.00025043945
22	0xb8932b31	-7.017551e-05
23	0xb86bf5be	-5.625723e-05
24	0xb859fe70	-5.1973795e-05
25	0xb8841edf	-6.300001e-05
26	0x39a1504d	0.00030768142
27	0x3834b4ac	4.3083608e-05
28	0xb81e8b58	-3.779991e-05
29	0x384d53b7	4.8953774e-05
30	0xb74ac1e7	-1.2085285e-05
31	0x3920ba8b	0.00015328282
32	0x38d74430	0.000102647
33	0xb80e5dd6	-3.394283e-05
34	0xb8d6ad70	-0.000102366204
35	0xb902b578	-0.00012465368
36	0xb909c3b2	-0.0001313824
37	0xb86eeb07	-5.6962508e-05
38	0xb999eb4d	-0.00029357747
39	0xb54c0a00	-7.6010474e-07
40	0xb8bd419b	-9.024442e-05
41	0x37621a6c	1.34768015e-05
42	0x3623e3b0	2.4421424e-06
43	0x38cd74f5	9.796947e-05
44	0x38988683	7.2729796e-05
45	0x3853fec3	5.0543586e-05
46	0x37aba06a	2.0459487e-05
47	0xb801ac29	-3.0916333e-05
48	0x395f7018	0.00021308695
49	0x39a1b351	0.00030841914
50	0x36e69560	6.8719237e-06
51	0x37f84908	2.9597912e-05
52	0xb91ffe09	-0.00015258057
53	0xb89a8ac1	-7.369137e-05
54	0x38263598	3.9627397e-05
55	0x3821e780	3.8600992e-05
56	0xb8e299ea	-0.000108051885
57	0x384c9863	4.877931e-05
58	0x38f7ac57	0.000118099786
59	0xb7015566	-7.708883e-06
60	0xb8379dc6	-4.3777538e-05
61	0x38d242e3	0.00010026039
62	0xb60b7780	-2.0782172e-06
63	0x3902a4cd	0.00012459159
64	0x378abff8	1.6540274e-05
65	0xb9525a8c	-0.00020060892
66	0x3990e7e8	0.00027638604
67	0x380e04c8	3.385989e-05
68	0x3993baa2	0.00028177077
69	0xb9a90d42	-0.0003224407
70	0xb95ef6d9	-0.00021263528
71	0x39cf4f8a	0.00039541378
72	0x36ed0cc8	7.0646383e-06
73	0xb8f45339	-0.00011650328
74	0xb86be79a	-5.6244062e-05
75	0x37991e2c	1.8253071e-05
76	0x38a1d5ee	7.716926e-05
77	0xb9153b12	-0.00014231753
78	0xb8543f78	-5.060385e-05
79	0xb9194870	-0.00014618202
80	0xb9b7658a	-0.00034980132
81	0xb893c004	-7.045272e-05
82	0xb8f84355	-0.00011838103
83	0x39e0ef19	0.0004290275
84	0xb996d35d	-0.00028767707
85	0x38c5c268	9.429903e-05
86	0xb96aa502	-0.00022377449
87	0xb8012ac4	-3.0795825e-05
88	0x384061a8	4.5867317e-05
89	0x3874f147	5.839884e-05
90	0xb4ccf0f0	-3.8173266e-07
91	0xb927d096	-0.00016004065
92	0xb90c35f8	-0.00013371545
93	0xb927a14c	-0.00015986449
94	0xb94b7216	-0.00019402089
95	0xb92cb92a	-0.00016472177
96	0xb8e3a939	-0.00010855724
97	0x3a237912	0.00062359974
98	0x382eb1c2	4.1650383e-05
99	0xb92ecc06	-0.00016669938
100	0x393c1cec	0.00017939851
101	0x3993282e	0.0002806796
102	0xb90ef0fe	-0.00013631952
103	0x390009cc	0.00012210681
104	0xb88a03aa	-6.581035e-05
105	0x3811c044	3.4749755e-05
106	0x37fb0b1c	2.9926705e-05
107	0xb930c386	-0.00016857506
108	0x398d3708	0.00026934617
109	0x38b035fc	8.402389e-05
110	0xb9c085ca	-0.00036720774
111	0x3a048416	0.0005055083
112	0xb80ab158	-3.3066928e-05
113	0x39ae5413	0.00033250506
114	0xb697a990	-4.5198904e-06
115	0x38c276a5	9.27274e-05
116	0xb98e625a	-0.00027157628
117	0xb8077f02	-3.2304793e-05
118	0x39f4c9d2	0.00046689674
119	0x38a6674f	7.9347396e-05
120	0xb7831dd4	-1.5630307e-05
121	0xb6b4021c	-5.3646636e-06
122	0x3916a9cf	0.00014368373
123	0xb7a949bc	-2.0180705e-05
124	0xb9fe3b43	-0.0004849081
125	0x39770db9	0.00023560868
126	0xb903001e	-0.00012493177
127	0xb97ecfe2	-0.0002430077
128	0xb9df620b	-0.00042606922
129	0x3995df63	0.0002858593
130	0xb9314b3e	-0.00016908065
131	0xb9239a8f	-0.00015602469
132	0xb9404541	-0.00018336346
133	0x3850f346	4.981763e-05
134	0x3814b82e	3.545748e-05
135	0xb80c6436	-3.347193e-05
136	0xb7c114b9	-2.3017043e-05
137	0xb92086c4	-0.00015308993
138	0x38f0a45b	0.000114747054
139	0x3990c01e	0.0002760896
140	0x38a1e756	7.720168e-05
141	0xba063a42	-0.00051203754
142	0xb98b9523	-0.00026623262
143	0x389c7320	7.4601034e-05
144	0x395d952e	0.00021131776
145	0xb9c62261	-0.00037791117
146	0xb9437bee	-0.00018642817
147	0xb93d1dc6	-0.00018035536
148	0x389189d8	6.939814e-05
149	0x39e01b81	0.000427451
150	0x39f9a9e8	0.0004761957
151	0xb874e243	-5.8384856e-05
152	0xb89c4188	-7.450866e-05
153	0xb9212bb0	-0.00015370431
154	0xb84734e3	-4.7494552e-05
155	0x3567e680	8.638963e-07
156	0x3a12ed91	0.0005604858
157	0xb936d1bd	-0.00017435006
158	0xb980885a	-0.00024515652
159	0x3917a694	0.00014462537
160	0xb9afeef0	-0.00033556623
161	0xb955970e	-0.00020369535
162	0xb89f9a96	-7.610505e-05
163	0xb8ce1b31	-9.82791e-05
164	0xb8857a90	-6.364763e-05
165	0x3885770d	6.364109e-05
166	0x3821a514	3.8539132e-05
167	0xb836017f	-4.3393575e-05
168	0xb693d43c	-4.4056487e-06
169	0x3973529d	0.00023205062
170	0xb9364dc8	-0.00017385848
171	0xb90dd091	-0.00013524505
172	0xb8de09ca	-0.00010587608
173	0xb95c4428	-0.00021006225
174	0x39c6ed6f	0.00037942405
175	0x388262db	6.217296e-05
176	0x39247c24	0.00015686505
177	0xb788bd10	-1.6300502e-05
178	0x36f8811c	7.4060063e-06
179	0xb8398b90	-4.4237415e-05
180	0x38cf7c83	9.893721e-05
181	0x374d9f9e	1.2256116e-05
182	0xb87a63b2	-5.9697493e-05
183	0xb86e82fb	-5.6865607e-05
184	0xb94d80a6	-0.00019598249
185	0xb92abe05	-0.00016283251
186	0xb8e29408	-0.00010804093
187	0x388988f8	6.5581815e-05
188	0x393c87d6	0.0001797968
189	0xb7a4d760	-1.9650615e-05
190	0x383eb7a1	4.5470548e-05
191	0xb939f49e	-0.00017734102
192	0xb8ad2208	-8.255622e-05
193	0xb7cb277e	-2.4217876e-05
194	0xb7755c0e	-1.4624571e-05
195	0x3802fd62	3.1230396e-05
196	0xb6484f7f	-2.9848595e-06
197	0xb85b36f9	-5.2264866e-05
198	0xb8a3e301	-7.8147285e-05
199	0xb9226dab	-0.00015490378
200	0xb82498c0	-3.9242906e-05
201	0x38cc8858	9.752874e-05
202	0x38869894	6.418038e-05
203	0x3a137c4e	0.0005626128
204	0xb87bea95	-6.0061535e-05
205	0x37395f16	1.1048998e-05
206	0xb7ff6652	-3.0446015e-05
207	0xb8362b88	-4.3432723e-05
208	0x374110e2	1.1507627e-05
209	0x3761054a	1.34122765e-05
210	0x385cf8b9	5.268373e-05
211	0x38d7a3b4	0.00010282491
212	0x38e73fcf	0.000110268236
213	0xb7ef0f19	-2.849805e-05
214	0x382611b2	3.9593964e-05
215	0xb746e3b7	-1.1854739e-05
216	0xb746be8f	-1.1846088e-05
217	0x3898c144	7.283923e-05
218	0x386777a0	5.51861e-05
219	0x3874221c	5.82059e-05
220	0xb8781879	-5.91506e-05
221	0xb899ef5f	-7.340195e-05
222	0x3786afd0	1.6055914e-05
223	0x370ec7f7	8.5104175e-06
224	0x390b88e8	0.00013307075

arr_6 f4 [16]
0	0xb115930f	-2.1765947e-09
1	0x32780013	1.4435517e-08
2	0x31f598da	7.1478157e-09
3	0x311c3569	2.2731348e-09
4	0xb211d973	-8.489553e-09
5	0x3012635f	5.3255705e-10
6	0xb2caf190	-2.3625745e-08
7	0xb2a277a7	-1.8913694e-08
8	0xb2751ce9	-1.426745e-08
9	0xb1310966	-2.5762232e-09
10	0xb19a69b6	-4.494008e-09
11	0xb2b679d2	-2.1242986e-08
12	0xb139c677	-2.7033857e-09
13	0x3185ee4f	3.897902e-09
14	0x3215074a	8.674599e-09
15	0xb18d5530	-4.113325e-09

arr_28 f4 [64]
0	0x2fcf69c2	3.7728226e-10
1	0x2d2f317a	9.958584e-12
2	0x2f18f0b2	1.3909832e-10
3	0xacc69890	-5.6444363e-12
4	0x2f232a2a	1.4839743e-10
5	0xaf8d5e2d	-2.5714667e-10
6	0x2f970590	2.7470692e-10
7	0xaf7f9556	-2.324517e-10
8	0xae5d737c	-5.0352153e-11
9	0xafcf2b47	-3.768383e-10
10	0x2e050ba0	3.0251024e-11
11	0xae2ebace	-3.9728935e-11
12	0xafc2c4f5	-3.542834e-10
13	0xafb8bd7c	-3.3604042e-10
14	0xaf4b55d8	-1.849324e-10
15	0x2db83b58	2.0944732e-11
16	0x2eb24d69	8.1082537e-11
17	0xac17e900	-2.1587732e-12
18	0xade43eea	-2.5948538e-11
19	0xaf867976	-2.446076e-10
20	0xaf32cc41	-1.6261571e-10
21	0x2d12166e	8.3041195e-12
22	0xaf4de392	-1.872549e-10
23	0x2f1b5a5d	1.4129271e-10
24	0xae52b5ce	-4.7909947e-11
25	0xafc7a2ea	-3.6313647e-10
26	0xae127a33	-3.330509e-11
27	0xaf2dfdaa	-1.5824378e-10
28	0xb004e422	-4.8345516e-10
29	0x2ecded76	9.364502e-11
30	0x2ef32d13	1.10583674e-10
31	0x2f29d50e	1.5446153e-10
32	0x2df8e81a	2.829741e-11
33	0x30167ca1	5.474679e-10
34	0x2f782af3	2.2570727e-10
35	0xaf862743	-2.4402355e-10
36	0x2f6d3cc6	2.1576615e-10
37	0x2dcea25c	2.349159e-11
38	0x2f0faa84	1.3066354e-10
39	0x300f60e0	5.2160765e-10
40	0xaf19d6f6	-1.3991638e-10
41	0xaed83e8c	-9.833653e-11
42	0x2f90e66f	2.635718e-10
43	0xafd9f992	-3.96494e-10
44	0x2ea508c8	7.504891e-11
45	0x2b759b80	8.7257285e-13
46	0xb004f3d3	-4.8367815e-10
47	0xaff5a170	-4.467995e-10
48	0xae9bb8d8	-7.081419e-11
49	0x2dc92078	2.2865473e-11
50	0xaf412f5e	-1.7570076e-10
51	0x2db3f24b	2.0457544e-11
52	0xae5b2026	-4.982339e-11
53	0x2f44db1e	1.7903942e-10
54	0x2f6f3370	2.1755198e-10
55	0x2e1166e5	3.306057e-11
56	0x2e5fc3a4	5.0878093e-11
57	0xafa73c60	-3.0420022e-10
58	0x2e1f3440	3.619882e-11
59	0xaff0280a	-4.3684195e-10
60	0xaea84ac6	-7.653038e-11
61	0xaf83b214	-2.3955293e-10
62	0xaf0a32ea	-1.2569115e-10
63	0x2f66d8a8	2.099535e-10

arr_30 f4 [64]
0	0x2fced10a	3.7619713e-10
1	0x2f07f880	1.2366463e-10
2	0x2f84575e	2.4072738e-10
3	0x2eea128c	1.06443826e-10
4	0x2f4cec83	1.8637718e-10
5	0xb005a4da	-4.8619386e-10
6	0x2f75a308	2.234054e-10
7	0xb00d9499	-5.150667e-10
8	0xae4acc62	-4.611101e-11
9	0xafd09005	-3.7937312e-10
10	0x2be3ba00	1.6180945e-12
11	0x2f8a2252	2.512644e-10
12	0xaf0b3229	-1.2659797e-10
13	0xaf09283d	-1.2474373e-10
14	0x2c7633eb	3.4987523e-12
15	0x2fbc8828	3.4293746e-10
16	0x2eadbc7a	7.900609e-11
17	0xae564bb8	-4.872522e-11
18	0xae12aee5	-3.3351894e-11
19	0xae888c2f	-6.2094656e-11
20	0xabe18500	-1.6024126e-12
21	0xae75ee0c	-5.591798e-11
22	0xafabd218	-3.1254e-10
23	0xaf90352b	-2.6231226e-10
24	0xaf5060c0	-1.8951862e-10
25	0xafe8d9df	-4.235536e-10
26	0xaf366ca9	-1.6591407e-10
27	0x2e7ae832	5.704965e-11
28	0xaf935c5d	-2.6804772e-10
29	0x2feee705	4.3456097e-10
30	0x2eb98a28	8.4373675e-11
31	0x303ca556	6.862896e-10
32	0xae12c801	-3.3374196e-11
33	0x2f829b16	2.3757057e-10
34	0x2fc80584	3.6383707e-10
35	0xaf6b2769	-2.1387127e-10
36	0x2f7225e0	2.2023228e-10
37	0x2ec1470f	8.7892464e-11
38	0x2f1f9ceb	1.4516714e-10
39	0x2fbe4b4e	3.4614306e-10
40	0xaed3e1e8	-9.635298e-11
41	0xaf0edeb5	-1.2993946e-10
42	0x2f996546	2.7902497e-10
43	0xaf87f1c3	-2.472814e-10
44	0x2eae3e30	7.9236506e-11
45	0xaefedf62	-1.15902635e-10
46	0xaf87d25f	-2.4705835e-10
47	0xafd87335	-3.937203e-10
48	0xaf207ce2	-1.4596283e-10
49	0xaf378df6	-1.6694188e-10
50	0xafc213dc	-3.5302505e-10
51	0xae795a91	-5.6696484e-11
52	0xaddfff48	-2.5465532e-11
53	0xaf2bae6d	-1.5614328e-10
54	0x2f2b4cdc	1.5579665e-10
55	0xadc1457b	-2.1972415e-11
56	0x2f5f8ef8	2.0332525e-10
57	0xaf7e937b	-2.3153561e-10
58	0x2e4cf630	4.6602888e-11
59	0xafe65ea4	-4.1904002e-10
60	0xae2dc81b	-3.9513375e-11
61	0xae230ac8	-3.7071485e-11
62	0x2eb9eb53	8.454628e-11
63	0x2fc7a432	3.6314557e-10

arr_15 f4 [32]
0	0xb9cebf5e	-0.00039433962
1	0xb9015690	-0.00012334646
2	0xb9e634d0	-0.00043908367
3	0xb856b60c	-5.119112e-05
4	0xba52cec7	-0.00080416765
5	0x3844e7f5	4.694607e-05
6	0xba7dde15	-0.0009684277
7	0xb680184c	-3.817526e-06
8	0x39ad01be	0.0003299843
9	0x3938c749	0.00017621847
10	0xb9ef12fd	-0.0004559978
11	0xba3b511a	-0.0007145569
12	0x379c670c	1.8644634e-05
13	0x38516220	4.992087e-05
14	0x39e7fa38	0.0004424618
15	0x39ae43fa	0.00033238513
16	0xb957deb2	-0.00020586958
17	0xba039bb8	-0.00050204573
18	0xb947ea36	-0.00019065369
19	0x394f9d67	0.00019799695
20	0xb9d492b6	-0.000405451
21	0x3a1e550d	0.0006039895
22	0xb869e838	-5.57678e-05
23	0x39e8b2e0	0.0004438376
24	0xb7ec26dc	-2.8151488e-05
25	0x39a4e076	0.00031447754
26	0xb9bc0908	-0.00035864883
27	0x39c56194	0.0003764747
28	0xba451b66	-0.00075190363
29	0xba0ffbb1	-0.0005492522
30	0x39bf3287	0.00036468005
31	0x393cc874	0.00018003752

arr_14 f4 [32]
0	0xb1c4844e	-5.719392e-09
1	0x30c8354d	1.4567064e-09
2	0x2f78f8e4	2.2643892e-10
3	0xb00844ee	-4.9574467e-10
4	0xaf199936	-1.39697e-10
5	0x2f8f365c	2.6050173e-10
6	0x318a2cb7	4.021412e-09
7	0xaf78c64c	-2.2625918e-10
8	0x30534420	7.6858164e-10
9	0x30cfd8ac	1.5122814e-09
10	0xb0132db6	-5.354325e-10
11	0xb0cb13d9	-1.4775835e-09
12	0x308bf184	1.0182224e-09
13	0x30a7549c	1.2174897e-09
14	0xb0438e1d	-7.114254e-10
15	0xafcd87f8	-3.7385894e-10
16	0x2f3cb348	1.7162194e-10
17	0x30c5346b	1.4348535e-09
18	0x2e1f7be8	3.6262465e-11
19	0x309b34c6	1.1292733e-09
20	0x2ebb9f50	8.532075e-11
21	0xb043d814	-7.124765e-10
22	0xb0eddc91	-1.7306708e-09
23	0xb13f1e74	-2.7811469e-09
24	0xb0165e93	-5.470408e-10
25	0xb03a806a	-6.7848893e-10
26	0xb017cd64	-5.522536e-10
27	0xafb16c63	-3.2273126e-10
28	0xaedb36c2	-9.968694e-11
29	0xb0435353	-7.1059e-10
30	0xb027ffcf	-6.111777e-10
31	0xafdc94b2	-4.012342e-10

arr_43 f4 [450, 225]
0	0x36fd5e41	7.55096e-06
1	0xb419260e	-1.426308e-07
2	0xb41c0c2d	-1.4533062e-07
3	0xb4622072	-2.1059694e-07
4	0xb433a3eb	-1.6730307e-07
5	0xb43505da	-1.6859067e-07
6	0xb445fabc	-1.8438271e-07
7	0x3397f6bd	7.076367e-08
8	0xb44ad072	-1.8888548e-07
9	0xb43aaef4	-1.7386247e-07
10	0xb44b7bc9	-1.8950881e-07
11	0xb42b6631	-1.5962793e-07
12	0xb42e8f4b	-1.6257142e-07
13	0xb41bb5c2	-1.4501623e-07
14	0xb41407e0	-1.3786439e-07
15	0xb4173a1b	-1.408411e-07
16	0xb41cb40b	-1.4594131e-07
17	0xb440995e	-1.7937188e-07
18	0xb42836ed	-1.5666201e-07
19	0xb43f0ee4	-1.7793678e-07
20	0xb44fffba	-1.937141e-07
21	0xb44e2261	-1.9197752e-07
22	0xb437c5a8	-1.711511e-07
23	0xb43f1203	-1.7794814e-07
24	0xb454d60a	-1.9821906e-07
25	0xb444e3f8	-1.8336857e-07
26	0xb42b5ed8	-1.596012e-07
27	0xb434596c	-1.6796338e-07
28	0xb419f8aa	-1.4339699e-07
29	0xb41d5caf	-1.4655483e-07
30	0xb415791e	-1.3920769e-07
31	0xb40d0a6a	-1.3135437e-07
32	0xb42cf9fd	-1.6109693e-07
33	0xb445acb6	-1.8409887e-07
34	0xb480fef4	-2.402736e-07
35	0x339372fa	6.866135e-08
36	0xb48d8f3f	-2.6367522e-07
37	0xb44971eb	-1.8761027e-07
38	0xb45d2c14	-2.0598264e-07
39	0xb401bb32	-1.2082162e-07
40	0xb45248d3	-1.9584267e-07
41	0xb435dd3f	-1.6937427e-07
42	0xb41b0b47	-1.4439603e-07
43	0xb4361199	-1.6956473e-07
44	0xb41f7cbd	-1.4853408e-07
45	0xb42dcc58	-1.618622e-07
46	0xb4311a33	-1.6493941e-07
47	0xb442a463	-1.8127461e-07
48	0xb45d7096	-2.0623187e-07
49	0xb429b9e5	-1.580698e-07
50	0xb47f0cbe	-2.3753361e-07
51	0xb442d508	-1.8145158e-07
52	0xb4361608	-1.6958086e-07
53	0xb4413fbd	-1.7997714e-07
54	0xb456d37d	-2.0007242e-07
55	0xb4347cbe	-1.6809187e-07
56	0xb46a3ca1	-2.1815005e-07
57	0x3779a0fe	1.48790405e-05
58	0xb4387a7e	-1.7180898e-07
59	0xb406cbd8	-1.255388e-07
60	0xb428cab1	-1.5719958e-07
61	0xb4307ece	-1.6437409e-07
62	0xb3941312	-6.895256e-08
63	0xb4894f7f	-2.557608e-07
64	0xb48317fc	-2.4418102e-07
65	0xb46b5d3a	-2.1919996e-07
66	0xb44709d5	-1.8536896e-07
67	0xb43aec02	-1.7408459e-07
68	0xb44513db	-1.8354278e-07
69	0xb43f7245	-1.7829832e-07
70	0xb45aab40	-2.0365133e-07
71	0xb4465119	-1.846969e-07
72	0xb40894b3	-1.2720083e-07
73	0xb436fff8	-1.7043192e-07
74	0xb41740d1	-1.4086551e-07
75	0xb41b6229	-1.447121e-07
76	0xb432ce50	-1.6652598e-07
77	0xb43d9c50	-1.7658863e-07
78	0xb4844bb1	-2.464199e-07
79	0xb49ab6db	-2.881778e-07
80	0xb471e2b1	-2.2527344e-07
81	0xb449188a	-1.8728511e-07
82	0xb42d013b	-1.6112328e-07
83	0xb4222d05	-1.5103804e-07
84	0xb42d56be	-1.6143437e-07
85	0xb4511141	-1.9470919e-07
86	0xb4435cb9	-1.8194523e-07
87	0xb4403b4c	-1.7902966e-07
88	0xb41c59e4	-1.4561334e-07
89	0xb414eeeb	-1.3870492e-07
90	0xb418a8f1	-1.4217564e-07
91	0xb43c71a4	-1.7550207e-07
92	0xb44c71ed	-1.9040426e-07
93	0xb44e3097	-1.9202922e-07
94	0xb4982e18	-2.8345744e-07
95	0xb44c0fff	-1.90048e-07
96	0xb461b7dc	-2.1021646e-07
97	0xb448bed4	-1.8695874e-07
98	0xb43e0692	-1.7697519e-07
99	0xb4454519	-1.8372192e-07
100	0xb44fcab2	-1.9352117e-07
101	0xb44ab304	-1.8877842e-07
102	0xb432f7be	-1.666767e-07
103	0xb42406db	-1.5276184e-07
104	0xb4598674	-2.0258614e-07
105	0xb42544be	-1.5391831e-07
106	0xb427e759	-1.5637251e-07
107	0xb46ad84d	-2.1871638e-07
108	0x357de271	9.457936e-07
109	0xb481c4e8	-2.417139e-07
110	0xb48a07d6	-2.5710204e-07
111	0xb47d3098	-2.358014e-07
112	0xb449c171	-1.8789957e-07
113	0xb4351a97	-1.6866612e-07
114	0xb43b9fe6	-1.7473903e-07
115	0xb43c7e64	-1.7554845e-07
116	0xb4538b84	-1.9701662e-07
117	0xb43fc139	-1.7858555e-07
118	0xb4297ac8	-1.5784019e-07
119	0xb41ec111	-1.4785134e-07
120	0xb445b36a	-1.8412325e-07
121	0xb43c4066	-1.7532292e-07
122	0xb4442573	-1.8267546e-07
123	0xb44a0925	-1.8816043e-07
124	0xb46a8fc2	-2.1845247e-07
125	0xb450b28a	-1.9436462e-07
126	0xb46056c6	-2.0893194e-07
127	0xb432c12b	-1.6647816e-07
128	0xb44cdae1	-1.9078608e-07
129	0xb442254a	-1.8081224e-07
130	0xb47f586b	-2.3780892e-07
131	0xb4625603	-2.1079181e-07
132	0xb4335613	-1.6701988e-07
133	0xb41c9d43	-1.4585844e-07
134	0xb420309a	-1.4918842e-07
135	0xb44279a2	-1.8111908e-07
136	0xb429a018	-1.5797593e-07
137	0xb48f41a2	-2.668358e-07
138	0xb42d3e93	-1.6134645e-07
139	0xb42924d3	-1.5752748e-07
140	0xb43ed4d2	-1.7772552e-07
141	0xb43a86da	-1.7371659e-07
142	0xb439483e	-1.7255749e-07
143	0xb44bc982	-1.8979156e-07
144	0xb43b5e4d	-1.7450039e-07
145	0xb4631efd	-2.1152296e-07
146	0xb434e923	-1.6848621e-07
147	0xb4481df4	-1.8637348e-07
148	0xb438d414	-1.7213489e-07
149	0xb413e8a1	-1.3775072e-07
150	0xb3ed45e1	-1.10488834e-07
151	0xb44103e7	-1.7975945e-07
152	0xb43e8bf3	-1.7746042e-07
153	0xb4277844	-1.559684e-07
154	0xb44730c1	-1.8551056e-07
155	0xb435de3c	-1.6937787e-07
156	0xb44d483b	-1.911839e-07
157	0xb41e7938	-1.4758996e-07
158	0xb44b0420	-1.8907349e-07
159	0xb43155c0	-1.6515605e-07
160	0xb45eaeda	-2.0738972e-07
161	0xb44b2a56	-1.892125e-07
162	0xb453f35e	-1.9739443e-07
163	0xb41432b5	-1.3802021e-07
164	0xb4283276	-1.5664577e-07
165	0xb42af16c	-1.5920313e-07
166	0xb4548908	-1.979389e-07
167	0xb440be25	-1.7950568e-07
168	0xb42b8d7f	-1.5977092e-07
169	0xb42e8560	-1.6253534e-07
170	0xb41cfdb8	-1.4620935e-07
171	0xb4159fa0	-1.3934778e-07
172	0xb45a6475	-2.0339378e-07
173	0xb442a7d6	-1.8128716e-07
174	0xb42ed2ae	-1.6281658e-07
175	0xb4447023	-1.8294718e-07
176	0xb42ac53e	-1.590424e-07
177	0xb427c734	-1.5625557e-07
178	0xb421b62b	-1.5060566e-07
179	0xb41aed75	-1.4428754e-07
180	0xb427ccd5	-1.5627604e-07
181	0xb458ff10	-2.0209359e-07
182	0xb440d14f	-1.795754e-07
183	0xb43b3be5	-1.7437522e-07
184	0xb45b4090	-2.0419452e-07
185	0xb448e453	-1.8709515e-07
186	0xb44b72e5	-1.8947647e-07
187	0xb47229e4	-2.2553246e-07
188	0xb431b7ba	-1.6551249e-07
189	0xb411b149	-1.3568673e-07
190	0xb4489a22	-1.8682525e-07
191	0xb425dca3	-1.544709e-07
192	0xb43d7554	-1.764468e-07
193	0xb41dfd47	-1.4713906e-07
194	0xb4121272	-1.360402e-07
195	0x3770e2c5	1.4357914e-05
196	0xb4411b2f	-1.7984415e-07
197	0xb41dc7c2	-1.4694436e-07
198	0xb4397a29	-1.7273909e-07
199	0xb43772ae	-1.7084923e-07
200	0xb45cf71c	-2.0578995e-07
201	0xb43cf7c8	-1.7599007e-07
202	0xb438598b	-1.7168911e-07
203	0xb41506ad	-1.3879135e-07
204	0xb43a07c3	-1.7325424e-07
205	0xb457dfc5	-2.0104842e-07
206	0xb4523825	-1.95782e-07
207	0xb43436a1	-1.678368e-07
208	0xb43ec4dd	-1.7766747e-07
209	0xb40f86c4	-1.336694e-07
210	0xb413ec1f	-1.3776342e-07
211	0xb401d612	-1.209194e-07
212	0x349ad055	2.8836317e-07
213	0xb417d385	-1.4139921e-07
214	0xb4079ecd	-1.2630626e-07
215	0xb4215bfa	-1.5027754e-07
216	0xb47f2c35	-2.3764808e-07
217	0xb44f03a5	-1.9279703e-07
218	0xb45c8599	-2.0537699e-07
219	0xb420804a	-1.4947832e-07
220	0xb416c649	-1.4041974e-07
221	0xb4355988	-1.688951e-07
222	0x33807f83	5.983659e-08
223	0xb41bd68e	-1.4513554e-07
224	0xb41c48db	-1.4555137e-07
225	0xb6e3d00f	-6.7893484e-06
226	0xb6facb0d	-7.474219e-06
227	0xb78bb53c	-1.6654485e-05
228	0xb7bd176a	-2.2541459e-05
229	0xb7d5cd18	-2.5487083e-05
230	0x37257ea2	9.86425e-06
231	0xb8a1c244	-7.713263e-05
232	0xb8432d7f	-4.6533994e-05
233	0xb838667e	-4.3964472e-05
234	0xb7df4fdc	-2.6620859e-05
235	0x3712eaf4	8.756982e-06
236	0xb7d37d44	-2.5211491e-05
237	0xb71408e5	-8.823558e-06
238	0x3536e0b1	6.812725e-07
239	0x3714db58	8.872557e-06
240	0xb718b042	-9.100944e-06
241	0xb8253f12	-3.9397804e-05
242	0xb780e88a	-1.5367074e-05
243	0xb8825efe	-6.216577e-05
244	0xb7ee6247	-2.8417575e-05
245	0xb657fe64	-3.2185571e-06
246	0x39333aee	0.00017092723
247	0xb7add1c5	-2.0720889e-05
248	0xb743aa93	-1.1662621e-05
249	0xb846d7e9	-4.740796e-05
250	0xb84ee247	-4.9324964e-05
251	0x39416e51	0.0001844701
252	0x387e6b6e	6.065837e-05
253	0xb7f7c799	-2.953764e-05
254	0xb76e6779	-1.4209997e-05
255	0xb792d114	-1.7501916e-05

arr_23 f4 [3, 3, 32, 64]
0	0x388a774d	6.602574e-05
1	0x39857528	0.00025455025
2	0xb94b070e	-0.00019362217
3	0xb8d93464	-0.00010357125
4	0xb86bd749	-5.6228866e-05
5	0x37efe603	2.8598128e-05
6	0x38d053ca	9.93382e-05
7	0x38430156	4.6492867e-05
8	0xb99970b4	-0.00029266404
9	0x39432b80	0.00018612854
10	0x39298854	0.00016167882
11	0xb88fd677	-6.8587186e-05
12	0x393e9ef8	0.00018179032
13	0xb867e75e	-5.529017e-05
14	0x398357f3	0.00025051794
15	0xb882e172	-6.2408755e-05
16	0xb846def7	-4.741453e-05
17	0x391763fe	0.00014437732
18	0xb99927b5	-0.00029212018
19	0x392b639c	0.00016344938
20	0x39858767	0.0002546862
21	0x3732dd44	1.0661144e-05
22	0xb9bffc5f	-0.0003661839
23	0xba049026	-0.000505688
24	0xb9708f8a	-0.00022941656
25	0x390341bc	0.00012517622
26	0x39ed34cc	0.000452435
27	0xb779f9c8	-1.4899713e-05
28	0x39721102	0.00023085254
29	0x38296b04	4.0392406e-05
30	0xb924827b	-0.00015688867
31	0x37c5dd04	2.3587148e-05
32	0xb875b9a8	-5.8585458e-05
33	0xb9b825a0	-0.00035123248
34	0x372eaa06	1.0410795e-05
35	0xb9343cf6	-0.00017188847
36	0x3939cc64	0.00017719116
37	0x3a11c300	0.00055603683
38	0xb8871f2a	-6.4431064e-05
39	0xb897ebc6	-7.244157e-05
40	0x395ea20e	0.0002123194
41	0xb9b5131b	-0.00034537245
42	0xb941e2aa	-0.00018490353
43	0x37db6e56	2.6158214e-05
44	0xb9d66c49	-0.0004089794
45	0xb838d89a	-4.4070744e-05
46	0x38ff63f6	0.00012177967
47	0x394f5999	0.00019774436
48	0x397d6d6d	0.00024168724
49	0x39717f7e	0.00023031046
50	0x3a154855	0.0005694677
51	0xb9157dac	-0.00014256564
52	0x390aea12	0.00013247904
53	0x38e5ebce	0.00010963493
54	0x358d0180	1.0505755e-06
55	0xb83972d1	-4.421437e-05
56	0xb6025300	-1.9419822e-06
57	0x38f1ca1f	0.000115294235
58	0xb9242058	-0.00015652308
59	0xb958ae07	-0.00020664195
60	0x39b18294	0.0003385736
61	0x39db93f0	0.00041881157
62	0xb90bf5b0	-0.00013347599
63	0xb9f0073c	-0.00045781757
64	0x399867be	0.00029068993
65	0xb96c51d6	-0.000225372
66	0xb994de02	-0.00028394168
67	0xb99542fa	-0.00028469396
68	0xb93f58bb	-0.00018248234
69	0x37dffdd8	2.6701877e-05
70	0x38ff5774	0.00012175637
71	0xb9dc6972	-0.00042040233
72	0x3985433a	0.00025417825
73	0xb8d21ffc	-0.00010019538
74	0x391c4af6	0.00014905244
75	0x3953873b	0.00020172905
76	0xb8d32778	-0.00010068616
77	0xb8b09e78	-8.421851e-05
78	0xb9164a6c	-0.00014332839
79	0xb948dc18	-0.00019155478
80	0xb9a2ad88	-0.0003102834
81	0x387177ee	5.757057e-05
82	0x384c1f0e	4.8666312e-05
83	0xb8c58af0	-9.419571e-05
84	0x3999cfec	0.00029337348
85	0xb89dbe18	-7.521751e-05
86	0x399779f8	0.00028891838
87	0x3914ce8c	0.00014191325
88	0xba0cbbd0	-0.00053685624
89	0xb8c6de9c	-9.48284e-05
90	0xb8d94cbf	-0.000103616614
91	0x3805b26f	3.187585e-05
92	0xb92b5bb8	-0.00016341999
93	0xb97ddfdf	-0.00024211359
94	0x372be1c1	1.0244957e-05
95	0xb7a31ee5	-1.94455e-05
96	0xba38e6a7	-0.0007053413
97	0x39207034	0.00015300588
98	0x3838377c	4.3920692e-05
99	0x381cdde0	3.7399936e-05
100	0xb8b52bc8	-8.6389075e-05
101	0xb9c22657	-0.0003703113
102	0x38b7f7de	8.772289e-05
103	0x390744c8	0.00012900226
104	0xb97a0172	-0.00023842396
105	0x3855fc1d	5.1017956e-05
106	0xb7f6eacd	-2.9434823e-05
107	0x39a3170e	0.0003110696
108	0xb964b42f	-0.00021810898
109	0xb7e06020	-2.6747643e-05
110	0xb9538c92	-0.00020174895
111	0xb97a4a8e	-0.00023869632
112	0x369deecd	4.7067647e-06
113	0xb963da0e	-0.00021729639
114	0xba3f3ff7	-0.0007295603
115	0x38ca4562	9.645034e-05
116	0xb76e403e	-1.4200863e-05
117	0x39668a9f	0.0002198615
118	0xb88b8734	-6.65322e-05
119	0xb93727f0	-0.00017467118
120	0x39614f36	0.0002148718
121	0xb92d20a8	-0.00016510731
122	0xb8d4be8e	-0.00010144441
123	0xb9d67806	-0.00040906685
124	0x3900b848	0.00012275681
125	0xb9492446	-0.00019182367
126	0x3879064a	5.9372083e-05
127	0x3a05c167	0.00051023666
128	0x384c265e	4.8673122e-05
129	0xb8ab4bfb	-8.168068e-05
130	0xb903cd34	-0.00012569578
131	0xb9e6422e	-0.00043918326
132	0xb9f08a2c	-0.00045879313
133	0xb8cdd879	-9.815483e-05
134	0xb7c45394	-2.340394e-05
135	0xba149fc0	-0.00056695566
136	0x39419de8	0.00018464739
137	0xb92816b8	-0.00016030192
138	0x386f6276	5.707374e-05
139	0xb6c38900	-5.8274018e-06
140	0xb929703d	-0.00016158908
141	0x382719b0	3.9839826e-05
142	0xb8b7b650	-8.760078e-05
143	0xb933c34e	-0.00017143527
144	0xb9a0b700	-0.00030653924
145	0xb8f9ef68	-0.00011917838
146	0x39037da8	0.00012539944
147	0xb66ce750	-3.5301382e-06
148	0xb83a5931	-4.442892e-05
149	0x38e2b176	0.000108095745
150	0xb902b032	-0.00012463404
151	0xb92d8a50	-0.00016550091
152	0xb9b85160	-0.00035155844
153	0xba012994	-0.0004927155
154	0xb9454ce7	-0.00018816032
155	0x39c2c288	0.000371475
156	0x38184f55	3.6313508e-05
157	0xb9894615	-0.0002618289
158	0xb93f2a18	-0.0001823086
159	0xb80832e4	-3.2472322e-05
160	0xb9ac3b98	-0.00032850797
161	0x391ac08b	0.00014758312
162	0xb9e0c4f1	-0.00042871342
163	0xb98b0453	-0.00026515368
164	0xb87677e0	-5.8762613e-05
165	0xba0d5a78	-0.0005392204
166	0x38fc40f1	0.00012028393
167	0x38e67ba8	0.000109902874
168	0xb89c3781	-7.448998e-05
169	0x38272722	3.9852348e-05
170	0xb944bcae	-0.00018762305
171	0x38ba909b	8.896106e-05
172	0xb9552fca	-0.00020331066
173	0x3994d8c0	0.0002839025
174	0xb8f9ce78	-0.00011911703
175	0x3863f231	5.4346576e-05
176	0xb99d1867	-0.00029963555
177	0x3954afc2	0.0002028337
178	0xba73093e	-0.00092710915
179	0xb98960bb	-0.00026202746
180	0xb7c52ee5	-2.3506067e-05
181	0x38166fec	3.5867022e-05
182	0x3987d31c	0.00025906495
183	0xb7cb7e78	-2.4258377e-05
184	0x385586d5	5.090873e-05
185	0xb9d9583f	-0.00041455214
186	0xb9ce9192	-0.0003939984
187	0x39755c54	0.00023399416
188	0x38f25f9e	0.00011557269
189	0x398a8763	0.00026422282
190	0x3967315c	0.00022048265
191	0xb8b96e29	-8.842006e-05
192	0x39c933ae	0.00038376212
193	0xb95a9a8e	-0.00020847676
194	0x39682e9e	0.0002214261
195	0x39cbc6e8	0.00038867374
196	0xba1ddd9e	-0.0006022098
197	0xb94187cb	-0.00018456501
198	0xb8b6051e	-8.6793894e-05
199	0xb948e29c	-0.00019157905
200	0xb94e10d2	-0.00019651957
201	0xb9551664	-0.00020321604
202	0x392a467b	0.0001623872
203	0x38d1ad4e	9.998177e-05
204	0xb99046da	-0.0002751861
205	0xb9d7a264	-0.00041128986
206	0xb7878ee8	-1.61598e-05
207	0xb913bd8d	-0.00014089626
208	0x3903dd1a	0.000125755
209	0xb8d864fa	-0.00010318491
210	0xb8cfd164	-9.909531e-05
211	0xb8919c61	-6.9432666e-05
212	0xb82f06cc	-4.172958e-05
213	0xb8c32b29	-9.306364e-05
214	0xb81e410b	-3.773071e-05
215	0x39278c52	0.00015978634
216	0xb9f4cd4c	-0.00046692265
217	0xb9df2a1d	-0.0004256525
218	0xb8dd529e	-0.0001055349
219	0x39c27994	0.00037093146
220	0xb8c13dc1	-9.21446e-05
221	0x3982c0d1	0.00024939192
222	0xb9278ef6	-0.00015979618
223	0xb90ea09e	-0.0001360201
224	0xb933d65e	-0.00017150628
225	0x3931f26d	0.00016970346
226	0x390dd549	0.00013526263
227	0x379ef418	1.8948733e-05
228	0xb9165388	-0.00014336233
229	0xba3f4d30	-0.00072975736
230	0xb8f845af	-0.00011838541
231	0xb91b5ca8	-0.00014816469
232	0xb80d6ac7	-3.3716464e-05
233	0xb88e88aa	-6.796543e-05
234	0x39032b8e	0.00012509359
235	0x390628d2	0.00012794443
236	0xba13a3b2	-0.00056319975
237	0x39d5264f	0.00040655068
238	0xb9422192	-0.00018513788
239	0xb92f5ba9	-0.00016723447
240	0xb7cfd439	-2.4775147e-05
241	0xb9aefc10	-0.00033375667
242	0xba7d445c	-0.00096613704
243	0x390efa80	0.00013635494
244	0xb8e6b08e	-0.000110001405
245	0x390aef31	0.00013249811
246	0x38e2c37a	0.0001081293
247	0xb9e1381a	-0.00042957143
248	0xb914badc	-0.0001418399
249	0x397afef5	0.00023936837
250	0x39ca86e8	0.00038628955
251	0xb9bba5dc	-0.00035790994
252	0xb8e4c516	-0.00010908597
253	0x3949aaf7	0.00019232543
254	0x389b4d31	7.405354e-05
255	0x3957d30f	0.00020582623

arr_16 f4 [32]
0	0xb99a7a60	-0.00029464345
1	0xb9c457fb	-0.00037449584
2	0xb97773ba	-0.00023598867
3	0x391151a7	0.00013858695
4	0xb96d0e22	-0.00022607346
5	0xb9288356	-0.00016070655
6	0xba404e3f	-0.00073358783
7	0x39c159e9	0.00036878817
8	0x39cbb197	0.00038851492
9	0x39affe37	0.00033568006
10	0xb942d738	-0.00018581457
11	0xb9e6a372	-0.00043990795
12	0x38f0598b	0.000114607705
13	0x3634e680	2.6956259e-06
14	0x38caf976	9.678576e-05
15	0xb92cd951	-0.00016484155
16	0xb7a2f120	-1.9424187e-05
17	0xb9f1ac9c	-0.00046095706
18	0xb9253f2f	-0.00015759164
19	0x3a078492	0.0005169596
20	0x3a05ad8a	0.00050994067
21	0x39415406	0.00018437215
22	0x38041d42	3.14985e-05
23	0x39f13f7c	0.00046014402
24	0x393945de	0.00017669002
25	0x38992264	7.302014e-05
26	0xb89a9356	-7.370736e-05
27	0x3a18147c	0.0005801392
28	0xba146463	-0.0005660711
29	0xba297fd9	-0.0006465889
30	0x397a3fad	0.00023865579
31	0x392d0652	0.0001650092

arr_5 f4 [3, 3, 16, 16]
0	0xbab164a4	-0.0013534022
1	0x39e8bc46	0.00044390763
2	0x3a36c790	0.0006972486
3	0x39f0f6b1	0.00045960167
4	0xb99c9411	-0.00029864957
5	0x39ae0434	0.00033190998
6	0xba41a6dd	-0.000738723
7	0x36a853a0	5.0165254e-06
8	0xb8bd7efb	-9.035874e-05
9	0xb86f6790	-5.707849e-05
10	0x3a501de2	0.0007939023
11	0xba9e3684	-0.001207069
12	0xb9301f3c	-0.00016796304
13	0xba227458	-0.0006197146
14	0x3a6f235e	0.00091223966
15	0x3a24b87b	0.0006283593
16	0xb8c35168	-9.313488e-05
17	0x39925174	0.00027907977
18	0x3a893ed6	0.0010470997
19	0xb88d65cf	-6.742367e-05
20	0xb9bd1772	-0.00036066357
21	0xb7a54608	-1.9702144e-05
22	0xb91359a7	-0.0001405241
23	0xb9dc3755	-0.00042002895
24	0x395217a2	0.00020035965
25	0x3a067c23	0.0005130192
26	0xb9cc9a31	-0.00039024794
27	0xbaa67a74	-0.0012701289
28	0xba348b4c	-0.0006887212
29	0x39951074	0.00028431753
30	0x3a5ce1e4	0.00084259943
31	0x3a1c3351	0.00059585745
32	0xb9d11eae	-0.00039886445
33	0x39d88b3c	0.00041302468
34	0x38a0b7dc	7.663641e-05
35	0xb8d8d873	-0.000103399994
36	0x3a63ccbe	0.0008689872
37	0xb89007e0	-6.867922e-05
38	0x3aa173f2	0.001231788
39	0x3a8320df	0.0010004303
40	0xba154144	-0.0005693624
41	0x3af497f4	0.0018661008
42	0x39eff03c	0.0004576462
43	0xbad2defe	-0.0016088185
44	0x38f89c68	0.000118546945
45	0x3ae11062	0.001717102
46	0x3a210f9f	0.00061439903
47	0x3873d6de	5.8135825e-05
48	0xba687a0f	-0.0008868286
49	0x3a1fd789	0.0006097486
50	0x3a8a1692	0.0010535291
51	0x3947c434	0.0001905121
52	0xb80bedd8	-3.336169e-05
53	0xba0cbe3e	-0.00053689245
54	0x3a83ca35	0.0010054769
55	0x3950dd10	0.00019918778
56	0xb98a156d	-0.00026337375
57	0x3a943039	0.0011305875
58	0xba336ee4	-0.0006844832
59	0xba37c635	-0.0007010431
60	0xb9a91f78	-0.00032257638
61	0x38c69e2c	9.4708375e-05
62	0x3a3504d8	0.0006905324
63	0x39f67c4c	0.00047013385
64	0xba207807	-0.0006121401
65	0x39b6acde	0.0003484254
66	0x39dafe4e	0.00041769672
67	0x399ceb90	0.00029930146
68	0xb84adf4c	-4.8368514e-05
69	0x38d7253e	0.00010258936
70	0xb9f1d810	-0.0004612808
71	0xba0e9eb3	-0.0005440518
72	0x397d3b3e	0.0002415003
73	0xba4e7684	-0.00078759366
74	0xb7ee3220	-2.8395152e-05
75	0x38f9532c	0.00011888737
76	0x397be7ec	0.00024023623
77	0x391e563f	0.00015100183
78	0x377fd860	1.5249563e-05
79	0x39b267fe	0.00034028286
80	0xb9a7ca1e	-0.0003200331
81	0x3aec23bd	0.0018016022
82	0xba1e8411	-0.0006046901
83	0x39fd2230	0.00048281392
84	0xb968da7d	-0.00022206637
85	0xb9956d72	-0.00028501038
86	0xbaf38a64	-0.0018580672
87	0xba092a71	-0.00052324595
88	0x3a174e5d	0.000577187
89	0xb9aa8630	-0.00032524904
90	0xb99ed5a2	-0.00030295277
91	0xba9f2b28	-0.0012143599
92	0x3a234d6e	0.00062294945
93	0x3aa6b83c	0.0012719701
94	0x39a55c2e	0.00031539932
95	0x39b42999	0.00034363268
96	0xb9c86712	-0.00038223766
97	0xb99bca12	-0.00029714458
98	0xb998275a	-0.00029021018
99	0x3a5d93e6	0.00084525195
100	0xbae9bd97	-0.0017832991
101	0x38d58fc6	0.00010183411
102	0x38861d7c	6.39511e-05
103	0x38fcf003	0.00012061002
104	0xb951c2cf	-0.00020004365
105	0xb939ea4c	-0.00017730257
106	0xbaf356d8	-0.001856531
107	0xba9bfae8	-0.0011900337
108	0xba8e09a5	-0.0010836615
109	0x3a4b6e56	0.0007760277
110	0x3a13a637	0.0005632373
111	0x3a74f61a	0.00093445333
112	0x3a3fce6c	0.0007316831
113	0xb9f32610	-0.0004637693
114	0xb8960981	-7.1543276e-05
115	0x383e89e1	4.542794e-05
116	0xb8c237b4	-9.2610164e-05
117	0x39980b12	0.00028999947
118	0x3925ae68	0.00015800598
119	0x39f57710	0.0004681875
120	0xb9bd5c36	-0.00036117592
121	0x3a1f7286	0.0006082434
122	0x39f46268	0.00046612625
123	0x39d420da	0.00040460267
124	0x39eea5c7	0.0004551841
125	0x39447361	0.00018734999
126	0xb9195524	-0.00014622934
127	0x3908e5d2	0.00013055585
128	0xba074d78	-0.0005161385
129	0x3af5e442	0.0018760043
130	0x3843a720	4.664727e-05
131	0xba407854	-0.0007342149
132	0xba34194a	-0.00068702234
133	0x39f8f919	0.00047487838
134	0xb9c13cfc	-0.00036857266
135	0x37ddc490	2.6436785e-05
136	0xb91d5310	-0.0001500363
137	0xba878df1	-0.0010341984
138	0x37c32f00	2.3267698e-05
139	0x3a70ca5d	0.0009185428
140	0xb97c7cc0	-0.00024079066
141	0x38e607ce	0.000109687084
142	0x37c98d98	2.4027002e-05
143	0xb9c1fc9d	-0.0003700004
144	0xba290d11	-0.00064487854
145	0x3980162f	0.0002443059
146	0x3aad2a57	0.0013211471
147	0x38b17ee8	8.463656e-05
148	0x3a5f0252	0.00085071207
149	0x38b6a828	8.709758e-05
150	0xb981548e	-0.00024667796
151	0x3943819e	0.00018644935
152	0xb9f436fc	-0.00046580273
153	0xb85c63dc	-5.254509e-05
154	0xb9aa7446	-0.00032511557
155	0xb98286e0	-0.00024896022
156	0xb8efd204	-0.000114355265
157	0x3a447fc5	0.0007495846
158	0xb9426d20	-0.00018541934
159	0x388800fc	6.485169e-05
160	0x3a64cf02	0.00087283563
161	0xb9a13044	-0.00030744274
162	0x3ab65faa	0.0013914008
163	0xb62d3dc0	-2.5814952e-06
164	0x3a16863b	0.0005742048
165	0xb9e6b746	-0.00044005568
166	0x3a183e2f	0.0005807606
167	0xb8f12a9a	-0.00011499711
168	0xb93dff28	-0.00018119498
169	0x3992c21f	0.00027991922
170	0x39dac550	0.0004172721
171	0xb986ed39	-0.00025735216
172	0xb7f86ca0	-2.9614486e-05
173	0x3b09cb60	0.0021025762
174	0x390f7dbd	0.00013684384
175	0xb95abcb4	-0.00020860397
176	0xb8507480	-4.9699564e-05
177	0x3a571c99	0.00082058605
178	0x39e88b02	0.00044354057
179	0xb874da0d	-5.837721e-05
180	0x3a161a9e	0.0005726012
181	0xb96e0cbb	-0.00022702191
182	0x39e5de36	0.00043843844
183	0x39dd9be0	0.0004226854
184	0xba02d948	-0.0004991484
185	0x3a9e8ff1	0.0012097341
186	0x3a1bd6d9	0.00059447956
187	0xba4b17e0	-0.0007747393
188	0xba278a72	-0.00063911744
189	0x39ed51ec	0.000452652
190	0x3a9e5cdf	0.0012082121
191	0xb68ab6a0	-4.133981e-06
192	0x3918957b	0.00014551535
193	0x388129c4	6.158979e-05
194	0x3a87cf4a	0.001036146
195	0xb99ba8cf	-0.00029689676
196	0x39caaaef	0.00038655798
197	0x39f5c61a	0.0004687764
198	0x39743dda	0.00023292695
199	0xb92eb642	-0.0001666183
200	0x3a15d7b0	0.0005716039
201	0xb98c1249	-0.00026716504
202	0x3ab0c8e1	0.0013487601
203	0xba95faf2	-0.0011442585
204	0xb965dfd3	-0.00021922523
205	0x39abc87d	0.00032765037
206	0x39fb7ca6	0.0004796732
207	0x3871ef14	5.7681536e-05
208	0xba4c386c	-0.000779039
209	0xba46075f	-0.0007554199
210	0x3aaf435c	0.0013371515
211	0x399e2e90	0.000301708
212	0x394d3bac	0.00019572553
213	0x394034d7	0.00018330231
214	0xb6d5835a	-6.363186e-06
215	0xb9d15ee2	-0.0003993428
216	0xb99e0cbc	-0.00030145596
217	0xb8b49f8a	-8.612785e-05
218	0xb9719c2f	-0.00023041734
219	0xb9d8924f	-0.0004130774
220	0x39c66e2e	0.00037847593
221	0xb843b79b	-4.666262e-05
222	0x3a1340f3	0.0005617283
223	0x36d1f700	6.25744e-06
224	0x3a297534	0.0006464303
225	0xb999556b	-0.00029246075
226	0xba926576	-0.0011169154
227	0x37ba9d6e	2.2246237e-05
228	0xb92b9dd5	-0.00016366628
229	0xb83e05c8	-4.5304914e-05
230	0xb991d5b2	-0.0002781577
231	0x396d46b7	0.00022628425
232	0xb888a10e	-6.514984e-05
233	0xb5fe5100	-1.8948049e-06
234	0xb7e5f8d0	-2.741479e-05
235	0x39341af0	0.00017176173
236	0xb956cc00	-0.00020484626
237	0x3a28a643	0.00064334663
238	0xb9bd1e60	-0.0003607152
239	0x39926340	0.00027921237
240	0x3a0e035a	0.00054173695
241	0xb994f548	-0.00028411509
242	0xb745cd50	-1.1789918e-05
243	0x391af938	0.00014779426
244	0x39052e29	0.00012701064
245	0x38b088cc	8.4178144e-05
246	0x3946950c	0.00018938276
247	0xb7af27e4	-2.0880201e-05
248	0xb91d8fba	-0.00015026229
249	0xb6a7d000	-5.001202e-06
250	0x36c60e60	5.9025333e-06
251	0x39c4f695	0.0003756775
252	0x3984d060	0.00025332253
253	0x3920965e	0.00015314805
254	0xb9eef93c	-0.00045580592
255	0xb9146aa1	-0.00014154102

arr_27 f4 [3, 3, 64, 64]
0	0xb63519f0	-2.69862e-06
1	0xb89e9eb5	-7.5635886e-05
2	0xb949bca9	-0.00019239135
3	0x390b2596	0.00013270075
4	0xb92d61d6	-0.00016535012
5	0x390edfa0	0.00013625482
6	0x3867dd5c	5.528085e-05
7	0x3842bec3	4.6430865e-05
8	0xb85f7520	-5.3276424e-05
9	0x3937021d	0.00017453027
10	0xb8c7db33	-9.5298885e-05
11	0xb825e323	-3.9550603e-05
12	0x386f439f	5.7045017e-05
13	0x38c7a103	9.51905e-05
14	0x39cb8116	0.00038815354
15	0x38a28f8f	7.751502e-05
16	0xb89aa017	-7.373111e-05
17	0xb807756c	-3.2295866e-05
18	0xb71dc922	-9.404759e-06
19	0x3800f268	3.0743337e-05
20	0xb8c1c3fa	-9.2394606e-05
21	0x362da000	2.587214e-06
22	0x38626784	5.3979005e-05
23	0x36c56c90	5.883696e-06
24	0x37495cdf	1.2002157e-05
25	0xb8a73986	-7.973895e-05
26	0xb840ebb8	-4.5995897e-05
27	0xb885fd7d	-6.38915e-05
28	0xb988b01d	-0.00026071156
29	0x399a7346	0.00029459054
30	0x3905c05e	0.00012755531
31	0x39741170	0.0002327615
32	0xb8219b08	-3.8529775e-05
33	0xb8822ae4	-6.206872e-05
34	0x3986a63a	0.0002568232
35	0x3903ca18	0.0001256842
36	0x38a89d4c	8.040163e-05
37	0xb889f04e	-6.577429e-05
38	0x37f5e745	2.931397e-05
39	0xb926a9a6	-0.00015894193
40	0x3710341a	8.5952e-06
41	0x393eb43c	0.00018186955
42	0x38c43da6	9.357491e-05
43	0xb80d2291	-3.3649212e-05
44	0x379924f8	1.8256236e-05
45	0x381adb4e	3.6920705e-05
46	0xb8075037	-3.2261214e-05
47	0xb9331de5	-0.00017081907
48	0x381140d0	3.4631055e-05
49	0x38380a86	4.387882e-05
50	0x38da493a	0.000104086896
51	0xb8b19238	-8.467253e-05
52	0xb8dd2187	-0.00010544346
53	0x3998ea41	0.00029166232
54	0x398a7156	0.00026405853
55	0x3849cfe7	4.811576e-05
56	0xb801158b	-3.077606e-05
57	0x3906a2f1	0.00012839936
58	0xb7950f4e	-1.7769311e-05
59	0xb904cc34	-0.00012664573
60	0xb7b6a387	-2.1772239e-05
61	0x36db7f78	6.541548e-06
62	0x38406b16	4.58761e-05
63	0xb7356b30	-1.0813397e-05
64	0xb88db4c1	-6.757072e-05
65	0xb8fa22dc	-0.00011927422
66	0xb8b80255	-8.774238e-05
67	0x39666b1d	0.00021974412
68	0x3897c6a4	7.237241e-05
69	0x3989b18e	0.00026262965
70	0xb7ffd3a1	-3.0496916e-05
71	0xb918d297	-0.000145743
72	0x38aa0496	8.107086e-05
73	0x38dbd9d1	0.00010483305
74	0x3820f651	3.8376373e-05
75	0xb89cb8e6	-7.4731e-05
76	0x39b19014	0.00033867417
77	0x364bc5a8	3.0364408e-06
78	0xb995f8a3	-0.00028604743
79	0x390f7de4	0.0001368444
80	0xb7887518	-1.626699e-05
81	0xb7c99998	-2.403259e-05
82	0xb7349b1d	-1.0764951e-05
83	0x38dfcf5a	0.00010672091
84	0xb919fb39	-0.00014684805
85	0xb78bf98c	-1.6686296e-05
86	0xb6af29a1	-5.2202527e-06
87	0xb8cd4514	-9.7880285e-05
88	0x392931ef	0.00016135698
89	0x3898e318	7.290224e-05
90	0xb8c7e855	-9.532335e-05
91	0x38a674e3	7.937269e-05
92	0xb9261607	-0.000158392
93	0x3992b796	0.00027984072
94	0x3759e7f5	1.2988215e-05
95	0xb8af1f73	-8.350508e-05
96	0xb8abdf04	-8.195455e-05
97	0x3712b38d	8.744083e-06
98	0x38d515a2	0.00010160661
99	0xb7c4bec6	-2.3453857e-05
100	0xb9461b34	-0.00018892885
101	0xb92c896c	-0.00016454392
102	0xb8f26929	-0.00011559047
103	0xb923e271	-0.00015629247
104	0x3867c39e	5.5256874e-05
105	0x38317a40	4.2313943e-05
106	0xb8557986	-5.0896335e-05
107	0x394d5858	0.00019583234
108	0x38617ac9	5.3758533e-05
109	0xb90dfbcd	-0.00013540611
110	0xb84ea654	-4.9269132e-05
111	0xb86ad6e0	-5.5990065e-05
112	0xb986d894	-0.00025719835
113	0x388e8d66	6.797425e-05
114	0x3824bcac	3.927636e-05
115	0xb8921eeb	-6.9675814e-05
116	0xb8253632	-3.938954e-05
117	0x3940f504	0.00018401822
118	0x3946c40c	0.00018955785
119	0xb80339ad	-3.128655e-05
120	0xb841650e	-4.61089e-05
121	0xb8e60082	-0.00010967349
122	0x381bf84f	3.7186135e-05
123	0xb8a00830	-7.6309196e-05
124	0xb86ca152	-5.6417026e-05
125	0x38055b8c	3.179493e-05
126	0xb8a4cb91	-7.8580466e-05
127	0x38221a01	3.8648028e-05
128	0x3a0989c6	0.0005246665
129	0xb8a0571a	-7.6456185e-05
130	0x396bee31	0.0002250008
131	0x38e42c8f	0.00010880187
132	0x39255e90	0.00015770853
133	0x39a97dc8	0.00032327906
134	0xb83618d2	-4.3415297e-05
135	0xb971e481	-0.00023068675
136	0x3a04db62	0.0005068091
137	0xb9ccb47d	-0.00039044386
138	0x38baa0ee	8.8991466e-05
139	0xb91b56a4	-0.00014814228
140	0x39aa9c24	0.0003254126
141	0xb9dbb47c	-0.00041905406
142	0xb9b79bf9	-0.0003502069
143	0x3951bf81	0.00020003134
144	0xb8a1e027	-7.71883e-05
145	0xb8b7f75d	-8.772195e-05
146	0x37af344c	2.0885978e-05
147	0x39a29fa5	0.00031017992
148	0x39477f1a	0.00019025468
149	0xb843004c	-4.64919e-05
150	0xb8c2deb9	-9.292126e-05
151	0xb9066241	-0.00012815838
152	0x398bbc96	0.00026652653
153	0xb7721237	-1.4428565e-05
154	0xb932bb10	-0.00017045089
155	0x39086969	0.00013009239
156	0x393c91f6	0.00017983452
157	0x3a0a282e	0.00052702695
158	0x39e58de8	0.00043784012
159	0xba5f438a	-0.0008516839
160	0xb7d99945	-2.5939788e-05
161	0xb8f92d51	-0.00011881686
162	0xb922e005	-0.00015532978
163	0xba018b99	-0.0004941761
164	0xb9c65589	-0.00037829232
165	0x389bb88e	7.425352e-05
166	0xb9662e0f	-0.00021951667
167	0x3932b1d2	0.00017041646
168	0xb77c3b6f	-1.5034208e-05
169	0xb904061a	-0.00012590774
170	0xb93223e5	-0.00016988775
171	0x38c2e3c9	9.293069e-05
172	0x395e08cc	0.00021174847
173	0xb95a460a	-0.00020816192
174	0xb8153d36	-3.5581375e-05
175	0x392a0b44	0.0001621666
176	0xb9942d99	-0.00028262733
177	0xb8f4cdfa	-0.00011673193
178	0xba1cbfe0	-0.00059795193
179	0x37ff13c7	3.0407578e-05
180	0xb8e000e1	-0.00010681316
181	0xba1bf8d6	-0.000594986
182	0x39885013	0.000259996
183	0xb892fba2	-7.008693e-05
184	0x38a73de8	7.9747115e-05
185	0xb93e4973	-0.00018147174
186	0x3795c266	1.7852708e-05
187	0xb989b2ae	-0.00026263803
188	0xb8b4ba79	-8.617802e-05
189	0x38f9d3e6	0.000119127144
190	0xb84cff69	-4.887526e-05
191	0x39782f00	0.00023668632
192	0x39510a31	0.0001993559
193	0x390d08dc	0.00013450108
194	0x37c514c5	2.3493902e-05
195	0xb876334f	-5.8698755e-05
196	0xb86eac1b	-5.6903908e-05
197	0x36e8220b	6.918102e-06
198	0x3904e2c1	0.00012672973
199	0x37a42e8e	1.9572002e-05
200	0x36fd3f74	7.5473745e-06
201	0xb8c6b289	-9.4746305e-05
202	0xb80f1359	-3.4111876e-05
203	0xb8c30812	-9.299828e-05
204	0x37da5f70	2.6032067e-05
205	0xb9a4ce93	-0.00031434427
206	0xb8f78e0b	-0.000118043354
207	0xb9061d8b	-0.00012790241
208	0x37151693	8.886348e-06
209	0xb697b8fd	-4.521686e-06
210	0x38312aae	4.2239837e-05
211	0x38405a4b	4.586046e-05
212	0x39276320	0.00015963288
213	0xb8d1fb0c	-0.00010012658
214	0x3896d4cc	7.192194e-05
215	0xb7da3786	-2.601348e-05
216	0x38a32549	7.7793906e-05
217	0x39395cd6	0.00017677559
218	0x37d949d8	2.5902802e-05
219	0xb8f5c9f0	-0.00011720124
220	0xb921887c	-0.00015405001
221	0xb8e2391c	-0.00010787157
222	0x39a4cb61	0.00031432047
223	0xb8f0e5e5	-0.00011486913
224	0x3903dfed	0.00012576552
225	0x37b25088	2.1256754e-05
226	0xb968ced4	-0.00022202294
227	0xb99d36fe	-0.00029986346
228	0xb8051c61	-3.17361e-05
229	0x39792c1e	0.00023762925
230	0xb8a265a4	-7.743694e-05
231	0x39710981	0.00022987092
232	0xb85541f2	-5.0844574e-05
233	0xb7ef7738	-2.8546536e-05
234	0x365c3630	3.2814096e-06
235	0xb82cfc04	-4.1242703e-05
236	0xb7f47bc6	-2.9144703e-05
237	0xb7b1db9c	-2.1202308e-05
238	0x36cd8ef2	6.126117e-06
239	0xb6407b28	-2.8681916e-06
240	0xb7f8d00b	-2.9660781e-05
241	0xb8eba436	-0.0001123626
242	0xb97a29a9	-0.00023857378
243	0x3838df85	4.4077187e-05
244	0x379869f8	1.8169158e-05
245	0xb86de77e	-5.6720797e-05
246	0xb96fdfe6	-0.00022876225
247	0xb7061d86	-7.993896e-06
248	0x36ec9f1a	7.05187e-06
249	0xb91f0875	-0.00015166572
250	0xb8198272	-3.659953e-05
251	0xb90d4ffa	-0.00013476601
252	0x38ab8802	8.179249e-05
253	0x3940df83	0.00018393811
254	0xb7958a12	-1.7826478e-05
255	0x3995115d	0.0002843243

arr_21 f4 [32]
0	0x39400e44	0.00018315861
1	0xb8bbf671	-8.962758e-05
2	0xb9be3a90	-0.00036283256
3	0x3915d8a7	0.00014290457
4	0x39bd29ec	0.00036080123
5	0xb9fcdf8c	-0.0004823174
6	0xb9050d64	-0.00012688857
7	0xb79d9feb	-1.8790326e-05
8	0x39c10b9a	0.00036820472
9	0xb9bf20a3	-0.00036454675
10	0xb8e9f6a4	-0.00011156246
11	0x3a19ce68	0.0005867244
12	0x39b4e756	0.00034504634
13	0xb982bc7b	-0.0002493596
14	0x38e32ba1	0.0001083233
15	0xb8c65e68	-9.45896e-05
16	0x39268482	0.00015880357
17	0xba07ba27	-0.000517758
18	0xb97ba697	-0.00023999285
19	0x39504ec2	0.00019865765
20	0x39c5b78a	0.00037711515
21	0x39812558	0.0002463262
22	0xb9df5003	-0.00042593488
23	0xb99d5f25	-0.00030016262
24	0x39693ef7	0.00022244068
25	0xb85bb308	-5.2380405e-05
26	0xb90a341b	-0.00013180116
27	0xba17f1fa	-0.000579625
28	0xb9692e93	-0.00022237962
29	0x3a7290a0	0.0009253118
30	0x39e9a7ef	0.00044566343
31	0xb96e418e	-0.0002272187
