temp/pre_policy/resnet_8_policy_0/optimizer_weights.npz (npz, 725326 bytes, 38 tensors)

arr_33 f4 [1, 1, 64, 2]
000000 f4 1d 94 ba 0d 35 80 ba 9e 8a 12 3b a0 6f 2b ba
       -0.0011300431 -0.0009781435 0.0022360454 -0.0006539766
000010 ec 8e f5 ba a0 17 b9 3a a9 ad 6a 3a 58 57 10 bb
       -0.0018734611 0.0014121421 0.0008952269 -0.0022024717
000020 fd 96 cb 39 dc 89 94 ba b8 4b b4 3a 2b 18 73 39
       0.00038831672 -0.0011332589 0.0013755476 0.00023183289
000030 4e 03 20 bb fe c7 04 b9 6e 3e 80 b8 78 b5 fa b9
       -0.0024416032 -0.00012663004 -6.115144e-05 -0.0004781892
000040 e0 c8 24 b7 74 19 64 ba fd 91 a1 b9 3a 2d 51 ba
       -9.821932e-06 -0.00087013026 -0.00030817083 -0.00079794566
000050 10 e2 8c 3a 63 51 a2 b9 21 25 bd b8 b4 4d df ba
       0.0010748524 -0.00030959686 -9.019138e-05 -0.0017036707
000060 4c d4 2e 3b d4 c9 31 b9 d2 99 3b 3b 7a 85 ab 39
       0.0026676832 -0.00016955222 0.002862562 0.0003271511
000070 40 68 86 3b d6 ce de 3a 82 b1 af 3a 04 6e 30 3a
       0.004101783 0.0016998898 0.0013404342 0.0006730261
000080 9e 69 7b 3a 34 7f a4 ba 90 75 cc 38 d4 01 31 bb
       0.00095906283 -0.0012550117 9.749376e-05 -0.0027009146
000090 5e c9 9b 39 38 34 b6 ba 84 37 cc ba 4e 8c dc b9
       0.00029713934 -0.001390106 -0.001558051 -0.00042066205
0000a0 ac 58 ef 38 82 cb 15 bb 7b 72 35 bb 51 cb 1d b9
       0.000114129245 -0.0022856896 -0.0027686644 -0.00015048428
0000b0 54 7d a9 3a 0e b0 73 ba 0f 48 88 3a d8 30 c8 39
       0.0012931027 -0.00092959485 0.0010397452 0.00038183364
0000c0 c7 af 36 ba 97 75 29 3a 4c e1 9a b9 86 d5 f3 38
       -0.0006968942 0.00064643606 -0.00029541028 0.00011626915
0000d0 1a da 1f ba 4c 24 1d bb a0 05 8b b9 30 51 a3 39
       -0.00060978683 -0.0023977933 -0.00026516337 0.00031150272
0000e0 b8 98 06 bb b0 2d e2 ba ff 00 89 39 d0 97 fa ba
       -0.0020537805 -0.0017256048 0.00026131418 -0.001911873
0000f0 d5 db fb 3a ec 72 59 3a f2 f9 1b 3b 34 9c 2b ba
       0.0019215295 0.0008295018 0.0023800102 -0.00065464084
000100 1e ac 3a 3b 96 f0 47 ba c4 5e 02 3b e2 8e eb 39
       0.0028483937 -0.00076270977 0.001989291 0.0004492915
000110 86 6d e7 ba db 41 9f b9 0d cf 09 3a 6a 8a 07 3a
       -0.0017656542 -0.0003037591 0.0005256988 0.00051704666
000120 f0 02 72 3a cc db 3a 39 1c 6e 91 3a 48 37 35 ba
       0.0009232005 0.00017820223 0.0011095437 -0.00069128396
000130 f4 f0 93 3a dd de b6 ba 04 47 ec ba de 49 91 b9
       0.001128702 -0.0013951916 -0.0018026535 -0.0002771159
000140 d4 14 3f bb 74 07 e3 ba 70 a7 22 3a 38 c5 d8 b9
       -0.0029156702 -0.0017320947 0.00062047597 -0.0004134567
000150 c1 46 2e 3b d1 0a 48 bb c1 87 28 3b e8 87 97 b9
       0.0026592466 -0.0030524025 0.0025715681 -0.00028902222
000160 00 9a fb 39 40 b9 a7 b7 18 8f 04 bb 46 95 ea 38
       0.0004798919 -1.9994215e-05 -0.0020226892 0.00011185794
000170 9e 4b 50 bb a1 05 83 3a 6c 6b 22 3b ba fa 38 3a
       -0.0031783353 0.0009996184 0.0024783267 0.0007056404
000180 2e 5b 4b 39 c5 df b9 39 48 b0 85 3a 02 bf 0c 3a
       0.00019393556 0.0003545267 0.0010199631 0.00053690386
000190 d4 f2 64 3a f0 eb 5a ba 98 ca 48 3b 27 3b 8e 3a
       0.0008733694 -0.00083511975 0.0030638333 0.0010851369
0001a0 7d b0 1d 3b db 83 fd ba 4a 33 0f bb 2a ef 6b ba
       0.0024061494 -0.0019341664 -0.002185064 -0.0009000177
0001b0 f3 c8 e7 39 28 67 ef ba 34 85 86 3a cb e9 95 ba
       0.00044209472 -0.0018264996 0.0010263086 -0.0011437474
0001c0 f4 cc 29 3b 73 b3 a7 3a 48 f4 ff 3a 78 0f c3 38
       0.0025909515 0.0012794569 0.0019527758 9.301206e-05
0001d0 6e 0c 0f 3b a1 46 21 ba f2 93 c3 3a 8f 51 fd ba
       0.0021827477 -0.0006152187 0.001492141 -0.0019326675
0001e0 0a 1f 2c 38 2e f7 cd b9 93 88 bb ba 3e 0a 10 39
       4.1036903e-05 -0.0003928481 -0.001430767 0.00013736726
0001f0 08 78 8b 3a aa 2a d1 39 13 e5 08 3a 5c bc 05 bb
       0.001064063 0.00039895374 0.0005222123 -0.002040646

arr_34 f4 [2]
000000 f0 a7 2d b2 d3 bb b3 2f
       -1.010811e-08 3.2693367e-10

arr_5 f4 [3, 3, 16, 16]
000000 cd e4 21 ba ce 2f 06 ba ec 9b e3 38 d2 2d 39 ba
       -0.00061757566 -0.0005118818 0.00010853246 -0.00070640177
000010 f2 24 f3 3a ec 4c 9a 3a 17 a0 8a 39 30 c3 ba 39
       0.0018550439 0.0011772192 0.00026440687 0.0003562211
000020 9e 8d 0d ba 99 3c ab b8 88 31 18 3b e1 d6 0b 3a
       -0.0005399826 -8.1652026e-05 0.0023222882 0.00053344487
000030 44 dc a0 39 69 17 a3 ba 0e 04 b8 3a 4c a8 86 ba
       0.0003068169 -0.001244289 0.0014039294 -0.0010273545
000040 c8 4a b4 b5 18 84 ae b9 f4 e0 b4 ba 20 d4 59 38
       -1.3432809e-06 -0.00033286284 -0.0013799951 5.193439e-05
000050 25 02 61 39 66 26 83 38 2d 0f e5 39 84 e4 c3 b9
       0.00021458471 6.253719e-05 0.0004368959 -0.00037363556
000060 b5 58 1c 3b 95 e2 fe b9 78 9a 30 3b d3 2b 30 b8
       0.0023856584 -0.00048615472 0.002694754 -4.2002484e-05
000070 1f 4d 80 ba 3d 34 5d ba 79 18 a0 3a 8e 77 6b ba
       -0.0009788609 -0.0008438265 0.0012214325 -0.00089823536
000080 c9 24 20 ba f0 b9 bc b9 d3 f0 90 b9 84 e1 e6 ba
       -0.0006108997 -0.00035996689 -0.00027645248 -0.0017614816
000090 c9 92 47 3a f2 b9 a6 3a b2 f9 40 3a aa 9f 32 3b
       0.000761312 0.0012720211 0.0007361426 0.0027255812
0000a0 30 f2 51 b9 fc 1c 6e ba 64 05 18 3b 3d d1 ce ba
       -0.00020022015 -0.00090832985 0.0023196572 -0.0015778911
0000b0 51 53 92 3a 63 9e e6 b9 20 23 07 3b 0f eb d9 ba
       0.0011163746 -0.00043987026 0.0020620301 -0.0016625839
0000c0 47 1f a2 b9 c0 fd 88 ba 6e 74 97 3a 4b b2 fb ba
       -0.0003092235 -0.00104516 0.0011555084 -0.0019202916
0000d0 af 39 91 3a 46 b8 d2 39 44 0d 94 39 78 10 dc 39
       0.0011079813 0.00040191616 0.00028238643 0.0004197394
0000e0 46 69 2b b9 65 b8 11 ba 86 90 93 3a 10 15 57 ba
       -0.00016347048 -0.0005558788 0.0011258281 -0.00082047377
0000f0 ba 33 d7 b9 86 ff 60 3a 2c e0 3f 39 1e 6d 93 ba
       -0.00041046535 0.0008582998 0.0001829869 -0.0011247729
000100 2a e5 6b ba 23 85 b6 b9 04 6c 65 b9 ab 8c 9d ba
       -0.00089986867 -0.0003481294 -0.00021879381 -0.0012020072
000110 5a 99 c9 3a 88 50 4d b9 de a9 14 3a ee 8c 84 39
       0.0015380785 -0.00019580324 0.0005671064 0.00025282003
000120 f8 83 1b 39 e8 2a 12 b8 20 73 25 3b dc b6 ff 39
       0.00014831114 -3.4849072e-05 0.0025245622 0.0004877363
000130 98 57 18 b9 9d 06 5b ba 3b d8 e0 3a ca 14 89 ba
       -0.00014528481 -0.00083551725 0.0017154285 -0.0010458466
000140 1c 4e 51 ba f5 1c 2f ba e3 be 00 3a a1 bb ea b9
       -0.00079843565 -0.0006680035 0.0004911257 -0.00044771752
000150 7c 28 67 3a 53 71 4e 3a 83 a4 26 ba 40 b4 bb 35
       0.00088179833 0.0007875163 -0.00063569116 1.3985045e-06
000160 b2 1e 78 ba d0 eb 08 ba f8 0d ae 3a a0 db 53 39
       -0.0009465023 -0.0005223127 0.001327931 0.00020204345
000170 30 3e bb b9 ba 79 62 3a 63 6a 41 3a 4a 89 00 bb
       -0.00035713753 0.00086393545 0.00073782186 -0.001961308
000180 26 22 93 39 a6 52 23 3a e8 38 1f ba e1 70 36 3a
       0.00028063467 0.0006230272 -0.00060738483 0.00069595693
000190 a2 68 b2 39 85 e0 06 bb 6e 34 ed 38 f7 13 c0 ba
       0.00034028763 -0.0020580601 0.000113108064 -0.0014654387
0001a0 a2 63 41 39 f5 a0 0d 3a de 0d 03 3a 96 43 50 38
       0.0001844303 0.00054027076 0.000499932 4.965401e-05
0001b0 a2 44 9c b9 5a fe a6 3a d8 8a cf 38 0c b9 74 3a
       -0.00029805774 0.0012740598 9.896391e-05 0.00093354355
0001c0 ba f3 89 b9 9d f5 a5 ba 06 e8 a9 ba 38 86 96 3a
       -0.00026312267 -0.00126617 -0.0012962825 0.0011484092
0001d0 a7 f9 9a 3a 56 95 01 3a eb bf 8a 3a 9b 77 8e ba
       0.001182367 0.0004943212 0.001058576 -0.0010869385
0001e0 6c d3 47 3a da f8 8c b9 d0 5f 2d 3b bb 07 e3 b9
       0.0007622752 -0.0002688829 0.0026454814 -0.00043302574
0001f0 9c c6 d9 b7 be 92 8b ba 3b f7 c5 3a 27 3e 06 bb
       -2.59609e-05 -0.0010648591 0.0015103588 -0.0020483823
000200 f1 54 db b9 f9 a9 a0 38 f6 3c c1 39 4c bd ed b9
       -0.0004183422 7.6610544e-05 0.00036857248 -0.000453452
000210 08 19 d1 38 fe a1 66 ba 84 33 30 ba b4 d4 a6 3a
       9.970559e-05 -0.00087979424 -0.00067215436 0.0012728185
000220 9c bb 8c 38 80 71 47 ba 42 5c 48 39 b0 cb c8 39
       6.710665e-05 -0.00076081604 0.00019107855 0.00038298732
000230 64 9e be b9 8c 77 93 39 64 dc bd 3a a2 21 dc b9
       -0.00036357634 0.00028127094 0.0014485237 -0.00041986728
000240 48 34 6d b9 ea 31 8d b9 20 89 df b9 20 3b 0d b9
       -0.00022621558 -0.00026930805 -0.0004263604 -0.00013468834
000250 05 3c 15 b9 51 9b ad 3a c4 08 f8 38 76 1a 0b 3a
       -0.00014232106 0.001324514 0.00011827194 0.0005306372
000260 17 69 cd b9 ac c0 03 b8 4f 91 fa b9 90 26 86 b8
       -0.00039178945 -3.1412274e-05 -0.0004779198 -6.396801e-05
000270 fc f4 7a 3a 38 69 80 b8 70 94 87 39 2d 92 b2 ba
       0.00095732487 -6.123114e-05 0.000258598 -0.0013623886
000280 de 8d 8e ba 06 34 9c b9 44 0d 5f 3a f2 f3 18 ba
       -0.001087602 -0.000297934 0.00085087516 -0.00058346905
000290 08 fc 7d 3a 2a a7 2c 39 ee ad 59 39 83 37 8a b9
       0.00096887397 0.00016465472 0.00020759527 -0.0002636277
0002a0 d3 5d b1 b9 bd 90 fc b9 04 d0 cf 3a 1e 9b 54 b8
       -0.00033829975 -0.00048173024 0.001585484 -5.0689203e-05
0002b0 0c c3 81 ba 2d bd 45 3a 36 cb a3 3a 59 b2 64 3a
       -0.0009900047 0.0007543143 0.0012496475 0.00087240856
0002c0 00 69 8e ba ef 4b 30 38 c0 2b 83 ba 67 c7 a3 ba
       -0.0010865033 4.203239e-05 -0.0010007545 -0.001249534
0002d0 b8 78 36 3a 00 61 01 38 65 79 66 3a 79 12 67 38
       0.00069607375 3.0846335e-05 0.0008791893 5.5091896e-05
0002e0 26 ff 3a 3a 0e ec 97 b9 9c bc 0f 3b 8a 52 72 ba
       0.0007133357 -0.0002897684 0.0021932488 -0.00092438667
0002f0 8c 2e 30 38 36 17 49 ba c7 48 04 3b 5e ad 6c ba
       4.200502e-05 -0.0007671 0.002018498 -0.0009028519
000300 e0 12 f2 39 da 3f 95 39 99 68 02 ba 43 2d 32 3a
       0.000461719 0.00028467068 -0.0004974693 0.00067969057
000310 b2 62 13 ba 45 78 1d 3a 7e e6 78 b8 ef e9 0f ba
       -0.0005622312 0.0006006996 -5.934247e-05 -0.0005489876
000320 f3 80 19 ba 54 43 47 39 ce 94 b3 ba 44 46 c9 38
       -0.0005855702 0.000190032 -0.0013700963 9.597515e-05
000330 12 5b dc 39 08 27 a4 b8 b6 89 82 b8 96 30 1a b8
       0.00042029523 -7.8273995e-05 -6.224534e-05 -3.676171e-05
000340 a4 de ff b9 88 33 08 39 a6 bf ff b9 5c cd 70 b9
       -0.0004880327 0.00012989168 -0.0004878018 -0.00022964686
000350 7d 12 94 39 a3 b2 fb 3a f0 fd b2 b7 8d d1 f8 3a
       0.00028242535 0.0019203018 -2.1337502e-05 0.001898335
000360 d8 80 c0 3a 72 08 8f b9 84 30 60 3b 16 0d 21 3a
       0.0014686836 -0.00027281378 0.0034208605 0.00061436126
000370 d9 c5 af 39 fe 38 bf ba 62 7b e7 3a e1 12 08 bb
       0.0003352601 -0.0014589129 0.0017660672 -0.0020763206
000380 80 1e b9 b9 b0 d5 9d 38 a0 2e 23 37 e3 f8 dd 39
       -0.00035308674 7.526146e-05 9.726413e-06 0.0004233784
000390 80 03 8b b9 13 42 26 3b 2e fd f9 b9 60 91 e2 3a
       -0.00026514754 0.0025368973 -0.00047681615 0.0017285757
0003a0 1d ff fe 39 02 bf 79 b9 ae d8 9f 3a 1f f1 42 ba
       0.0004863673 -0.00023817646 0.0012195313 -0.00074364425
0003b0 98 45 5d 3a 04 3a af b9 56 d5 9b 3a a2 2f 64 ba
       0.0008440851 -0.00033421826 0.0011889141 -0.00087046076
0003c0 4d 7f d7 b9 a0 7f fd b9 3d e6 8c 39 93 eb 8f 3a
       -0.00041102842 -0.00048351008 0.00026874422 0.0010980241
0003d0 a3 07 03 3a 43 d2 e3 b9 15 86 d8 b9 a6 2c 17 ba
       0.00049983914 -0.0004345347 -0.0004129863 -0.0005766846
0003e0 68 2b c1 ba ea 57 bf 39 30 04 ab b8 a8 46 9d 3a
       -0.0014737668 0.0003649586 -8.1546954e-05 0.0011999207
0003f0 ae cd 3f ba 42 58 30 3a 32 42 98 3a 52 7f 43 ba
       -0.00073167204 0.00067270186 0.0011616407 -0.0007457632

arr_35 f4 [2]
000000 fc 72 01 bb 5c bf 40 b9
       -0.0019752374 -0.00018381834

arr_27 f4 [3, 3, 64, 64]
000000 b9 3f 5c 38 30 c0 03 39 28 70 80 b7 38 2e 9f b8
       5.2511434e-05 0.00012564729 -1.5311016e-05 -7.59032e-05
000010 83 6e 7b b8 a8 7b d2 38 48 91 c0 37 18 fc 93 b7
       -5.9945985e-05 0.00010036613 2.2955835e-05 -1.7641156e-05
000020 4b 87 dd b8 82 58 1d 39 63 18 0a b9 b0 5d fc b8
       -0.000105633015 0.00015005658 -0.0001316979 -0.00012033747
000030 76 5c 63 38 94 bb 81 39 bc c6 f9 38 ff b7 ad 38
       5.420713e-05 0.00024744554 0.000119102624 8.283555e-05
000040 2d 61 9f 39 0e e5 8e 38 cc e4 14 b9 b7 2c f2 b6
       0.00030399245 6.8137524e-05 -0.00014199613 -7.2173675e-06
000050 c0 21 37 38 ea 6f d6 38 8a 41 c2 b7 54 92 2d b8
       4.3662032e-05 0.00010225161 -2.3157121e-05 -4.1382693e-05
000060 ab 2a ff 38 75 ab 90 b8 18 62 ed 36 4a fd d2 b8
       0.00012167295 -6.8983914e-05 7.07457e-06 -0.00010060759
000070 49 fe 0f 39 37 db 95 39 38 37 4a 39 8e 10 7d 39
       0.00013732271 0.00028582822 0.00019284792 0.00024134127
000080 be 6b 8d 39 8c 7f 03 b7 a6 e8 94 b8 5e 16 05 ba
       0.0002697389 -7.837905e-06 -7.100524e-05 -0.00050768803
000090 a0 40 b0 b8 12 b7 cf 37 40 7f a5 b8 f8 5f a6 36
       -8.404371e-05 2.4761572e-05 -7.891515e-05 4.9583577e-06
0000a0 82 d2 5f b9 28 79 17 b9 02 42 44 39 58 4f ac 38
       -0.00021345358 -0.00014445616 0.00018716606 8.216378e-05
0000b0 3e c3 69 38 ba 02 06 39 d6 30 67 b9 b0 02 00 39
       5.5733362e-05 0.00012780252 -0.0002204807 0.00012208032
0000c0 bb 60 3d b8 48 be 46 b8 d6 ba fb 39 cd 6c 46 39
       -4.51512e-05 -4.7384092e-05 0.00048013654 0.00018923283
0000d0 90 e2 57 b7 64 f6 9d b9 14 25 d4 b7 d4 e0 43 b9
       -1.2867749e-05 -0.0003012895 -2.5289635e-05 -0.00018680404
0000e0 94 b5 a8 37 40 c5 c5 36 d8 f4 5c 39 17 3c ce b8
       2.0111715e-05 5.8940204e-06 0.00021072046 -9.834038e-05
0000f0 fe 96 1c 38 79 48 3b b8 4a 1a 6a b9 bd 70 59 b9
       3.733392e-05 -4.465177e-05 -0.00022325772 -0.00020736731
000100 04 c9 6a 38 8a d7 f1 38 2d 07 83 39 de c9 4e b9
       5.5977158e-05 0.00011531923 0.00024991613 -0.00019720892
000110 66 22 1e b8 12 1a 3b 38 ae e3 74 38 97 32 6b 39
       -3.770217e-05 4.4608554e-05 5.8386177e-05 0.00022430193
000120 1d 09 09 3a 46 12 b2 b8 7a d4 ca b8 12 86 e8 b8
       0.0005227493 -8.491105e-05 -9.6716874e-05 -0.000110875946
000130 ef c7 4f 37 05 ab 91 39 87 54 a5 39 16 25 86 37
       1.2384712e-05 0.00027783975 0.0003153423 1.5991314e-05
000140 d2 aa 75 b9 11 0d 81 36 8b bb 47 37 40 56 39 b8
       -0.00023428656 3.8460207e-06 1.190499e-05 -4.4187764e-05
000150 ae 99 15 b9 6c 83 2b b8 76 d3 c0 37 a7 4d c4 b9
       -0.00014266997 -4.0891973e-05 2.2986653e-05 -0.0003744189
000160 e3 e0 41 b8 a2 36 04 38 ac a0 bc b8 53 c6 c8 b8
       -4.6224228e-05 3.1522133e-05 -8.994466e-05 -9.573684e-05
000170 a7 40 28 38 12 c7 4a b8 64 91 d7 38 c2 42 5e b9
       4.0114533e-05 -4.834595e-05 0.0001027908 -0.00021196439
000180 04 49 ac b9 bd dc 4f 39 37 5a 34 38 36 75 01 b9
       -0.00032860797 0.0001982329 4.2999363e-05 -0.00012346063
000190 72 c2 89 b8 88 31 1c b7 40 45 df b8 c6 84 d4 b8
       -6.568887e-05 -9.309857e-06 -0.000106463674 -0.00010133679
0001a0 dc 65 83 37 02 de 4a 38 2a d0 32 b9 72 bc 2c b8
       1.5663849e-05 4.8367314e-05 -0.0001705295 -4.11835e-05
0001b0 70 bf 52 b8 fd ae 55 39 00 90 cb b7 30 10 bd 38
       -5.024619e-05 0.00020378451 -2.4266541e-05 9.0152374e-05
0001c0 46 a0 a3 b9 7d 5a b2 b7 0c 2d 09 39 e7 68 ae 38
       -0.00031209196 -2.126139e-05 0.0001308212 8.316506e-05
0001d0 d3 ee 9f 37 ab fc 57 b9 af c8 8c b9 71 81 6e b9
       1.9065488e-05 -0.00020598124 -0.00026852402 -0.0002274567
0001e0 9c 2d 5e 39 9a 96 8c 39 f4 bc b7 39 c4 86 c1 b8
       0.0002118856 0.00026815088 0.0003504526 -9.228059e-05
0001f0 8c f3 dd 38 f8 7f 50 38 83 47 2b b9 c2 5e 70 b9
       0.00010583465 4.9710245e-05 -0.00016334471 -0.00022923484
000200 70 c3 b7 36 06 54 04 b9 0a a9 e4 b7 10 f1 7c b8
       5.476577e-06 -0.00012619802 -2.7258433e-05 -6.030599e-05
000210 14 48 d1 37 96 0c bc 38 90 19 40 37 25 18 bf b9
       2.4948306e-05 8.966883e-05 1.14500435e-05 -0.00036448348
000220 aa 18 ca 38 ae 41 5e b9 7a 2b c6 b9 a9 9a 84 b9
       9.6367046e-05 -0.00021196037 -0.00037797895 -0.00025292233
000230 17 12 9d 39 f2 2d 21 b9 19 4c 5a 39 16 c8 39 b9
       0.00029958852 -0.00015371272 0.00020818449 -0.00017717513
000240 82 cc 08 3a 6d be a7 37 a6 c2 d6 b8 82 8b 8c b8
       0.00052184623 1.9996625e-05 -0.00010240571 -6.7017056e-05
000250 c2 26 91 37 b5 38 02 39 9e b1 d4 b8 80 94 f5 b9
       1.7303395e-05 0.00012418891 -0.000101420315 -0.00046840683
000260 ee 36 26 38 40 37 2c b4 a8 44 e6 b6 60 27 70 36
       3.962864e-05 -1.6038848e-07 -6.862527e-06 3.5785706e-06
000270 84 e3 7f 38 96 4a be b8 b2 82 97 39 f4 0c 00 b9
       6.1008628e-05 -9.073799e-05 0.0002889834 -0.00012211857
000280 b2 d5 2f b9 88 a7 c0 38 60 0b bd 38 e7 cd 08 b9
       -0.00016768908 9.1864786e-05 9.014341e-05 -0.00013046675
000290 08 12 15 37 9c b7 87 b8 5a b6 62 b9 33 28 85 b8
       8.88529e-06 -6.4715015e-05 -0.00021620971 -6.349422e-05
0002a0 97 78 9e b8 4c 16 3d b8 42 be 5d 38 e5 c1 10 b9
       -7.556489e-05 -4.5081877e-05 5.2867697e-05 -0.00013805141
0002b0 b2 df a8 b9 0d 7c 6c 38 41 8f 96 38 67 18 95 39
       -0.00032210123 5.6382316e-05 7.1792405e-05 0.00028437676
0002c0 2a 74 17 b9 8a 89 f9 b7 99 a7 91 39 b0 6f 65 b7
       -0.00014443757 -2.974716e-05 0.00027781425 -1.3675468e-05
0002d0 bc a4 cc 36 69 ae 8d 39 70 27 af b9 3e 6b 9a b8
       6.0988514e-06 0.0002702356 -0.00033407984 -7.363268e-05
0002e0 10 74 cd 38 1c 65 86 38 dc 98 87 39 a5 b7 0c b8
       9.79678e-05 6.408451e-05 0.00025863096 -3.3549633e-05
0002f0 82 67 9e 38 48 54 18 38 e9 72 06 b9 cf 79 63 38
       7.553307e-05 3.6318117e-05 -0.00012822043 5.423446e-05
000300 ff 1c dc 38 00 b0 21 b9 19 d8 65 38 5a 7d 22 39
       0.000104958184 -0.00015419722 5.479911e-05 0.00015496221
000310 e6 13 4a 38 a9 23 a1 b9 66 a0 93 37 00 99 c8 37
       4.8179085e-05 -0.00030734882 1.7598457e-05 2.3913104e-05
000320 87 f0 87 38 ae b3 00 b9 b1 93 46 38 a8 c6 15 b9
       6.482103e-05 -0.00012273967 4.7344427e-05 -0.00014283753
000330 92 26 a1 b8 b8 ca b8 b9 e1 2c a8 b9 74 45 f7 37
       -7.6842625e-05 -0.00035246252 -0.00032076894 2.9477036e-05
000340 64 7e 97 b9 ac ca 19 b7 88 a8 3b 38 04 ed c5 38
       -0.00028895133 -9.166699e-06 4.474123e-05 9.4378396e-05
000350 78 60 96 b8 30 62 2e 38 50 6b bc 36 5a 48 b5 39
       -7.170526e-05 4.1576277e-05 5.6153294e-06 0.00034576916
000360 cb 94 83 b9 3a 30 62 38 3f 01 af 38 6b 33 64 39
       -0.00025097126 5.3927513e-05 8.3448824e-05 0.00021762929
000370 05 aa 22 39 b4 69 57 b9 6c 81 d0 b8 4e 1e c1 38
       0.00015512861 -0.00020543375 -9.9423196e-05 9.208602e-05
000380 bc d1 11 39 ce ae f6 37 f5 f4 f8 b8 2a 46 7c b9
       0.0001390641 2.9406885e-05 -0.00011871188 -0.00024058731
000390 70 06 9c b7 2d c4 25 39 3c 94 c9 b8 ce 60 3b 38
       -1.8599647e-05 0.00015808707 -9.612038e-05 4.467443e-05
0003a0 74 16 15 39 70 6b f2 38 80 99 34 39 ea d2 0a b9
       0.00014218112 0.00011559471 0.00017223321 -0.00013239277
0003b0 d8 60 3e b9 05 fb 29 b8 88 07 11 b7 a5 cf 60 b8
       -0.00018155889 -4.052652e-05 -8.644427e-06 -5.3599146e-05
0003c0 ae 6c a9 38 66 49 8d b7 d2 bb 3c b9 aa ad c7 b9
       8.078791e-05 -1.6842689e-05 -0.00017999046 -0.00038085628
0003d0 ca 83 31 b8 7b 36 5f b9 f7 25 c9 38 c7 d1 4f 38
       -4.2322827e-05 -0.00021287233 9.5914984e-05 4.9548016e-05
0003e0 78 83 95 38 29 eb 26 b8 45 91 52 b8 e2 6f 6e 38
       7.1293616e-05 -3.9796494e-05 -5.0203194e-05 5.684782e-05
0003f0 dc 73 ce 37 ee 8e 58 39 1a c2 bb b8 9a f5 6c b8
       2.4611065e-05 0.0002065261 -8.953009e-05 -5.649552e-05

arr_17 f4 [3, 3, 32, 32]
000000 6e a5 d2 b9 13 82 98 b7 50 c0 d1 b9 d4 d5 41 39
       -0.00040177576 -1.8180383e-05 -0.0004000687 0.00018485571
000010 5c 51 92 39 80 54 70 b9 a8 13 09 b7 4e 01 3c 39
       0.00027907907 -0.00022919662 -8.170413e-06 0.00017929563
000020 36 ee ac 37 6e 24 57 38 10 8c 46 39 55 ca db 39
       2.0614923e-05 5.1293922e-05 0.00018934929 0.00041921684
000030 c8 cd 14 b8 c7 d0 d8 39 be b0 84 b8 ef 8e ba b8
       -3.54776e-05 0.00041354282 -6.327171e-05 -8.8957946e-05
000040 8e 2c e0 b7 08 37 1b b8 e0 e5 7d b8 ee 77 a3 38
       -2.6723628e-05 -3.700613e-05 -6.053399e-05 7.794784e-05
000050 4d 8d e4 38 d8 6b 5b ba 15 b4 b9 39 52 d0 9f 39
       0.000108982065 -0.0008370257 0.0003542012 0.00030482054
000060 64 34 af 39 22 e1 10 ba ab e3 1d 39 ff a4 4e b9
       0.00033417635 -0.00055267115 0.000150575 -0.00019707157
000070 60 2d 3d 38 90 f7 10 ba e6 d7 7e b9 1a c7 83 39
       4.510337e-05 -0.0005530054 -0.00024303756 0.0002513461
000080 64 3f 1f ba ae 38 a3 38 92 08 88 39 3f 8f 88 b9
       -0.00060748146 7.783003e-05 0.00025946327 -0.00026046668
000090 dc e7 f8 39 07 7e 95 b9 8b c3 25 3a a3 52 ba 39
       0.00047474995 -0.00028513392 0.00063233887 0.00035538254
0000a0 2a fa 92 b7 35 31 43 39 bc 4f bd b8 ee 69 22 b9
       -1.7521048e-05 0.0001861498 -9.027074e-05 -0.00015488986
0000b0 6b cb 06 b9 1c 25 1e 39 1d 78 32 b9 ca 68 1b 3a
       -0.00012855015 0.00015081879 -0.00017020149 0.00059283955
0000c0 58 fe df 38 88 72 f2 b8 3b 6f 12 39 48 24 08 ba
       0.00010680844 -0.00011560792 0.00013965082 -0.00051933946
0000d0 2a 28 82 39 0e 24 40 ba bf e5 10 3a 72 bb f9 39
       0.00024825457 -0.00073295913 0.0005527399 0.0004763264
0000e0 19 10 2b 3a 8d ed e0 b9 cc ba c4 39 d0 75 8c 38
       0.0006525531 -0.00042901598 0.00037523208 6.6976645e-05
0000f0 a5 34 9e 39 6c 3b c0 38 32 3f 07 b8 46 ea 21 3a
       0.00030175332 9.1663416e-05 -3.2245363e-05 0.0006176572
000100 ff 5b 2e b9 a8 55 1c 3a 04 69 9e b9 5f 95 c5 b8
       -0.00016628204 0.00059636915 -0.0003021435 -9.4215146e-05
000110 aa 52 3f ba c2 0a 09 3a cb 6b d1 b8 92 d8 2f ba
       -0.00072983897 0.00052277383 -9.9859746e-05 -0.00067079917
000120 9e 03 3f 39 f0 6d 0e 39 92 35 2c b9 20 11 18 37
       0.00018216527 0.0001358313 -0.00016423155 9.063893e-06
000130 f5 1b 35 3a 46 d8 7d b9 49 ab 5d b9 53 0f 5b ba
       0.0006908768 -0.00024208528 -0.00021140011 -0.00083564705
000140 a2 3b 6a ba b0 db 4d ba 78 b2 fc b9 a3 53 5e ba
       -0.00089352776 -0.00078528654 -0.00048198155 -0.0008481091
000150 c4 91 11 ba 54 78 0f 3a 30 ef a0 b9 0c 0e c1 b7
       -0.0005553032 0.00054729474 -0.00030695787 -2.3013934e-05
000160 f1 60 2b ba 73 ea dc 39 9a 07 85 38 10 0a 0c 39
       -0.0006537578 0.00042136348 6.34335e-05 0.00013355189
000170 b3 55 66 39 01 37 56 b8 c8 bb b0 38 b1 83 c3 b9
       0.00021966435 -5.1072802e-05 8.427311e-05 -0.00037291416
000180 f1 77 e0 39 48 c4 24 ba 52 52 1a b9 3e 99 2e b9
       0.00042813973 -0.00062853517 -0.00014717251 -0.0001665102
000190 0c 7f 08 3a 09 69 f5 b9 46 31 ca b9 ee 8f 01 39
       0.000520692 -0.000468083 -0.00038565154 0.00012356017
0001a0 66 4c 03 39 ee 22 ac 39 6b 27 d2 39 91 8c 7c 38
       0.00012521594 0.0003283242 0.0004008369 6.0212395e-05
0001b0 37 12 b0 38 cc bf 53 ba b4 db 1c ba 68 f9 24 3a
       8.395727e-05 -0.0008077591 -0.0005983666 0.0006293268
0001c0 47 85 31 39 96 4a 38 39 de a2 1d 3a 69 ec aa 38
       0.00016929685 0.00017575393 0.0006013344 8.1502665e-05
0001d0 b1 1c 5a 39 34 2e 5a 39 6b 92 3b 3a 5a e4 39 3a
       0.00020800788 0.00020807312 0.0007155302 0.0007091217
0001e0 f4 20 00 3a 8c b8 df 39 39 85 f2 b9 ad 3f 5d 39
       0.0004887723 0.00042671373 -0.00046257096 0.00021099923
0001f0 0a 41 9f 39 af 96 ed 38 e6 0f 39 39 78 3d 00 38
       0.000303753 0.00011329108 0.00017648897 3.0574825e-05
000200 1b 04 ab b9 88 40 f3 b9 83 18 84 b9 65 7e 24 3a
       -0.0003261872 -0.0004639665 -0.00025195265 0.0006274938
000210 4a 68 47 b9 d7 81 96 b9 4b d9 db 39 24 55 2b b9
       -0.0001901697 -0.00028706968 0.0004193283 -0.00016339548
000220 20 b8 d1 b7 70 42 d4 38 46 a2 f3 b9 e2 b1 85 37
       -2.5000481e-05 0.00010121323 -0.00046469475 1.5937669e-05
000230 e6 ab d9 39 04 25 40 ba 5a 17 8d 38 14 69 0c 39
       0.0004151754 -0.00073297345 6.7277535e-05 0.00013390585
000240 0a bb 01 3a 8c 4c 62 39 02 8f 37 3a 4b 10 e9 39
       0.00049488305 0.00021581555 0.0007002206 0.00044453362
000250 3c 5a 15 b8 12 1a 77 ba b7 c7 aa b9 00 4b 52 b8
       -3.5608406e-05 -0.0009426187 -0.00032573726 -5.013775e-05
000260 a8 2a a7 39 da 3f cb b7 85 db a6 b9 00 36 78 37
       0.00031884504 -2.4229219e-05 -0.00031825542 1.4794525e-05
000270 31 ec 15 b9 5d 44 b9 b9 0a db cc 37 c9 ef 9c 39
       -0.00014297735 -0.00035336884 2.4420693e-05 0.00029933293
000280 ce f2 5c b8 50 b1 97 36 1f 30 4d 39 27 49 52 39
       -5.2678217e-05 4.5207926e-06 0.0001956825 0.00020054412
000290 c1 38 a6 b7 80 b4 ea b8 ce 71 24 b9 58 cc 80 b9
       -1.981517e-05 -0.0001119161 -0.00015682654 -0.0002456631
0002a0 47 a5 47 39 38 ff 12 39 b8 c6 32 b8 51 0e 14 b9
       0.0001903969 0.00014018721 -4.262358e-05 -0.00014119713
0002b0 a4 43 0a 38 68 fb df b8 02 7b 70 b9 3f 41 5b b9
       3.296476e-05 -0.00010680297 -0.00022934008 -0.00020909774
0002c0 d8 ac 0e b7 2a 2f 8c b9 55 43 b6 38 f4 36 43 ba
       -8.504103e-06 -0.0002673802 8.690978e-05 -0.00074468483
0002d0 70 19 1b b8 5f d2 d8 38 cd 79 51 39 30 78 a7 b7
       -3.697857e-05 0.00010338867 0.00019977168 -1.9963918e-05
0002e0 78 72 33 b9 92 83 4a 39 28 0a 4d b9 8c 7e 1a 38
       -0.00017113413 0.00019313235 -0.00019554107 3.6834317e-05
0002f0 be 8f 27 38 0a e2 84 39 08 a4 6d b9 10 3d 45 b8
       3.9949773e-05 0.00025345414 -0.00022663188 -4.702533e-05
000300 a4 79 eb 39 90 4f ff 38 c2 d9 db 39 72 8b 6e 39
       0.00044913322 0.00012174167 0.00041933177 0.00022749396
000310 34 98 2e b9 12 b8 0c 3a 3b 86 3e b9 10 87 1d b9
       -0.00016650633 0.0005368005 -0.00018169817 -0.00015023001
000320 ae 84 6d b9 ca 65 50 39 fc f1 f8 b9 d8 6c 01 b8
       -0.00022651508 0.00019874345 -0.00047482539 -3.0857365e-05
000330 80 53 e4 37 af 06 15 ba d2 c6 d1 b8 f2 92 d8 b9
       2.72186e-05 -0.0005684895 -0.0001000293 -0.00041308213
000340 01 60 c4 38 6e 8e 81 b9 bf 66 6a 39 b4 0b 03 b9
       9.3638904e-05 -0.00024710916 0.00022354255 -0.00012497493
000350 2c 88 6a 39 00 58 eb b8 c5 3d 98 ba 24 49 c6 b9
       0.00022366707 -0.000112220645 -0.0011615088 -0.00037819997
000360 3e 3e 54 b9 34 bb b8 39 f1 7a 48 ba d1 df 13 ba
       -0.00020241083 0.00035234692 -0.0007647714 -0.0005640956
000370 b5 2f b1 39 24 2b 16 ba 46 d6 91 b8 42 95 4c ba
       0.00033795615 -0.00057284744 -6.95405e-05 -0.00078042236
000380 7e bd 95 38 21 ed 0b 39 0b 2a 1a 3a 1f bc 45 39
       7.140169e-05 0.0001334441 0.00058808987 0.00018857465
000390 d0 ab 25 38 29 e7 82 39 b0 51 0a 38 b0 b4 30 37
       3.949908e-05 0.0002496776 3.297784e-05 1.0532487e-05
0003a0 fc 1d 45 39 2e d3 92 b9 51 ac 49 ba ae 51 8f 39
       0.00018798554 -0.0002800463 -0.00076932186 0.00027335942
0003b0 00 09 3b b9 01 54 40 ba 54 01 49 39 d4 30 7b 39
       -0.00017837062 -0.00073367363 0.00019169349 0.00023955415
0003c0 20 df ad b7 8a 71 b3 39 80 e3 d9 35 69 f9 b0 39
       -2.0727108e-05 0.00034226134 1.6233971e-06 0.0003375516
0003d0 d0 7d 31 39 b8 94 14 38 1a d8 b0 b9 f2 ab a0 b8
       0.00016926904 3.5424455e-05 -0.00033730344 -7.661422e-05
0003e0 d0 ce 20 38 02 d0 ed 38 f5 fc 04 39 c6 44 0e b7
       3.833958e-05 0.00011339785 0.00012682735 -8.479872e-06
0003f0 fd 13 8c 39 9c d3 18 ba 48 71 b7 39 38 7e 11 3a
       0.00026717773 -0.0005829872 0.0003498888 0.0005550119

arr_25 f4 [64]
000000 fc 80 78 b9 79 3e 0c 39 e1 b3 8f b9 c7 b2 a0 39
       -0.00023699173 0.00013374713 -0.00027409106 0.00030650778
000010 f6 17 f2 38 10 df 7d b9 79 8e d7 38 26 9b 03 39
       0.00011543922 -0.00024211057 0.000102785365 0.00012550931
000020 2a 22 22 38 e6 5c 25 b9 a6 b6 63 39 bb 49 aa b8
       3.8655628e-05 -0.00015770234 0.00021716449 -8.119965e-05
000030 7f 70 1e 38 d0 e9 8e b7 16 99 ae b9 c7 e8 10 39
       3.7774906e-05 -1.7036597e-05 -0.00033301924 0.00013819626
000040 6c b9 ac 39 0e 49 5f b8 76 81 1d 38 08 96 24 b9
       0.00032944547 -5.323538e-05 3.7552287e-05 -0.0001569615
000050 02 58 3c 39 be 95 c6 38 a0 7d 88 b6 9a cf 53 b7
       0.00017961863 9.4692674e-05 -4.0677405e-06 -1.2624916e-05
000060 ab 0d c2 b9 2c a7 f9 37 1a bb a2 b9 62 fc 22 b9
       -0.00037012747 2.9760959e-05 -0.0003103845 -0.00015543544
000070 3c a6 a3 37 ba 6c 2c 38 4c e2 05 38 84 1d 02 39
       1.9508523e-05 4.1109255e-05 3.1920426e-05 0.00012408762
000080 b0 ca 94 38 53 d1 a3 38 58 af c1 38 d1 fd 8d b9
       7.0949434e-05 7.811435e-05 9.2356175e-05 -0.00027082724
000090 6f 0c 3a b8 0e de 32 b8 78 08 e5 b8 a1 40 95 39
       -4.4357435e-05 -4.264531e-05 -0.00010921148 0.00028467647
0000a0 c0 60 c2 b6 b4 5c b4 38 3c 69 1a 37 3f 0e 07 b9
       -5.7929137e-06 8.600336e-05 9.203617e-06 -0.0001287991
0000b0 a9 6c 82 b9 18 92 58 b9 19 ae 28 39 80 b6 36 b9
       -0.0002487649 -0.0002065379 0.00016086585 -0.00017424859
0000c0 0c b6 77 38 a2 d1 f2 39 ab f6 95 b7 aa ec 4f b8
       5.9058933e-05 0.00046314026 -1.7877048e-05 -4.9573056e-05
0000d0 19 23 ac 39 da dc 3e b7 e4 1d a8 38 ed e5 8f b9
       0.00032832546 -1.13763035e-05 8.016432e-05 -0.00027446394
0000e0 aa e5 38 b9 8a db 9a b7 92 e5 1e 39 cc 8e 66 39
       -0.00017633164 -1.8460461e-05 0.00015153576 0.00021987705
0000f0 68 99 9d b8 74 8e 13 3a 28 61 17 37 98 c4 15 3a
       -7.5149175e-05 0.0005628832 9.022922e-06 0.00057131937

arr_22 f4 [32]
000000 4c 24 cc b8 1d 3e 59 39 31 d9 12 b9 5f c3 16 39
       -9.734239e-05 0.00020717872 -0.00014004555 0.00014377896
000010 66 13 97 b9 40 b3 d0 36 90 95 e5 b9 9e 17 ba 39
       -0.00028815417 6.2197505e-06 -0.00043789716 0.0003549428
000020 38 40 3e b9 03 3a 02 ba 18 63 70 ba 03 d2 82 b8
       -0.00018143735 -0.0004967751 -0.00091700396 -6.238001e-05
000030 ac c4 4d 38 a1 5e 28 3a b8 e3 b7 39 42 c6 1b ba
       4.9058974e-05 0.0006422792 0.00035074144 -0.00059423235
000040 33 01 5a b7 47 95 68 b9 af 19 0d ba 23 07 13 ba
       -1.2994092e-05 -0.00022180854 -0.00053825503 -0.00056086684
000050 98 78 de 37 48 77 12 3a 7d 2e d8 39 55 9d d8 39
       2.6520618e-05 0.00055872323 0.00041233367 0.00041315952
000060 28 76 c4 b6 cb b8 33 b9 2c 0c e9 b9 b6 ed fc 39
       -5.8550104e-06 -0.00017139611 -0.00044450292 0.00048242294
000070 3a 47 34 3a b4 69 14 b8 db 48 9d 39 7c ff 0b 3a
       0.00068770687 -3.5384393e-05 0.00029999655 0.00053404993

arr_1 f4 [3, 3, 3, 16]
000000 28 f2 20 b9 86 08 6a 3a ce 16 5e ba 94 18 c7 38
       -0.00015349 0.00089276617 -0.0008472026 9.4936375e-05
000010 df 93 ae ba 3a 04 b5 3a de 93 6d ba 1c 26 90 3a
       -0.0013319216 0.0013810464 -0.00090628664 0.0010997686
000020 08 8b 6f b8 5e c2 af ba a5 f4 f0 3a a4 3c a8 38
       -5.7111523e-05 -0.0013409366 0.0018383457 8.0221595e-05
000030 98 44 78 39 1b f5 82 3a ba eb e2 39 02 fd 13 3b
       0.00023676676 0.000999126 0.0004328171 0.0022581224
000040 96 6f fd ba 40 6c a4 39 9d 01 6b 39 cc f9 ae b9
       -0.0019335623 0.0003136117 0.00022411947 -0.0003337398
000050 5b b5 27 3a e7 ca 8b 3a 8e 66 2a 39 8a 2a f9 b9
       0.00063975685 0.0010665328 0.00016250668 -0.00047524675
000060 3e 88 a7 3a b8 ef ed ba a1 58 87 3a 3c fc 64 39
       0.0012781692 -0.0018153107 0.0010326096 0.00021837739
000070 2a 5e bd b9 73 ea 92 3a 1f 8a da b9 f0 a7 0f 3b
       -0.00036119047 0.0011208787 -0.00041683108 0.0021920167
000080 0a 78 f2 3a f0 37 eb b8 16 d6 ea b9 60 31 a9 39
       0.0018498909 -0.000112160924 -0.00044791464 0.0003227098
000090 f8 ae 58 b9 89 c3 29 bb 74 c9 fe 3a f2 9f 1f 39
       -0.00020664546 -0.0025903902 0.00194387 0.00015223006
0000a0 90 78 4a ba 0c 67 68 3b 9b 42 1a bb 06 bd 20 3a
       -0.00077236537 0.0035461811 -0.0023538235 0.00061316823
0000b0 a6 12 11 3a 76 1d 25 bb 0d 54 10 b9 a0 63 84 bb
       0.000553409 -0.0025194562 -0.00013764222 -0.0040401965
0000c0 15 37 d7 3a 46 75 34 3a 1c f4 6f ba b6 b7 53 3a
       0.0016419614 0.000688393 -0.00091535016 0.00080763863
0000d0 f5 35 67 ba 0e 07 2e 3a ca a3 63 ba fe fb 5f 39
       -0.0008819991 0.00066386245 -0.0008683769 0.00021360812
0000e0 ef 4f e5 ba e8 f3 a5 ba 22 4f 3a 3a ea 8d 46 b9
       -0.0017495136 -0.0012661191 0.00071071286 -0.00018935619
0000f0 84 8b 2f b9 45 31 11 3b fa 47 27 3a f3 e5 0f 3b
       -0.00016741274 0.002215461 0.000638127 0.0021957129
000100 b2 da d5 ba c7 c6 72 3a a8 36 78 3a 50 27 f0 b8
       -0.0016315787 0.00092611875 0.00094685936 -0.00011451414
000110 b5 4b 94 ba 90 c5 91 3a 1c bd c5 3a ba 16 1f b9
       -0.0011314066 0.00111215 0.0015086266 -0.00015171888
000120 7a 84 e6 39 58 d0 90 ba 2c c6 c6 3a ac c1 6f ba
       0.0004396772 -0.0011048419 0.0015165261 -0.0009145986
000130 47 02 cc 3a 9e 8e 44 b9 1c cd a1 ba 45 6a f2 3a
       0.0015564644 -0.00018745146 -0.0012344453 0.0018494806
000140 5c f7 8f b9 b4 20 4d ba 4e a7 9c b9 a1 28 99 ba
       -0.00027459383 -0.00078250025 -0.0002987929 -0.0011685082
000150 6c f0 bc 3a ae f5 ed ba da d3 cf 39 b0 4c 80 3a
       0.0014414913 -0.0018154883 0.00039639958 0.000978848
000160 02 f7 d2 3a 32 04 24 3b 54 4d f9 ba 75 9c 46 3a
       0.0016095343 0.0025026915 -0.0019020238 0.00075764145
000170 07 e9 80 ba 6b 44 1b bb 92 75 b4 39 d3 38 5d bb
       -0.0009835073 -0.0023691903 0.00034419872 -0.0033755794
000180 39 74 8d ba ca c0 90 b9 80 5b a4 ba 18 eb 39 ba
       -0.0010792083 -0.0002760946 -0.0012539476 -0.00070922216
000190 a6 d7 c7 39 a7 52 98 3a 5e 93 d5 39 1d 3a 80 3a
       0.00038116908 0.0011621312 0.00040736323 0.0009782944
0001a0 6e f2 36 ba c7 7b 8e ba a9 25 db 3a 72 af 1a ba
       -0.0006978874 -0.0010870629 0.0016719598 -0.0005900777
0001b0 d4 de 39 b9 a1 26 97 ba f6 b7 ae 38 38 cd bd ba
       -0.00017725985 -0.0011531898 8.331232e-05 -0.0014480716
0001c0 36 60 4f ba e4 9e 38 3b 40 91 59 b9 60 23 88 b8
       -0.000791076 0.0028170878 -0.00020748843 -6.4915745e-05
0001d0 a8 c0 8b b9 eb fb 12 3b 8c 2c 93 b7 82 d9 ae ba
       -0.00026655686 0.0022427987 -1.754451e-05 -0.0013339969
0001e0 cc 85 d0 3a c0 54 79 37 01 d4 85 3a 78 d9 e1 b9
       0.0015909015 1.4861289e-05 0.0010210277 -0.0004307737
0001f0 77 d1 ba ba 67 ac 00 3a a0 60 87 38 08 35 2c ba
       -0.0014253099 0.00049085025 6.4552994e-05 -0.00065691816
000200 38 9a cb 3a 0a c0 d6 ba 92 94 89 3a f2 25 25 3a
       0.0015533632 -0.0016384136 0.0010496548 0.0006299905
000210 19 db a2 ba 22 c2 f9 ba a8 ad fb 39 84 75 e5 3a
       -0.0012424915 -0.0019055048 0.00048003835 0.0017506336
000220 a8 7d e9 b8 6d 8b b6 3a 34 25 05 bb b5 3c b0 3a
       -0.00011133711 0.001392705 -0.0020316364 0.0013445826
000230 cc ac f4 3a 4e db 9d 3a 50 20 eb b9 44 53 e4 3b
       0.001866722 0.0012043507 -0.00044846768 0.006967934
000240 3c 44 c1 ba 16 11 55 3a e0 94 27 b9 78 c0 0e b9
       -0.0014745067 0.0008127851 -0.00015981821 -0.00013613875
000250 06 e4 71 ba 04 ae 06 3a 24 64 9a b9 0a 0d 23 38
       -0.00092273986 0.00051376247 -0.0002944778 3.8874372e-05
000260 57 32 a4 3a 4d 30 dc ba 43 2a c7 3a 70 d4 d5 38
       0.001252721 -0.0016799063 0.001519509 0.00010196201
000270 b2 78 57 3a 4f 40 9f 39 50 93 04 39 e8 21 ca 3a
       0.0008219584 0.00030374757 0.00012643379 0.0015421482
000280 82 54 58 b9 80 3f ad b7 1e da 63 ba 66 62 9f 3a
       -0.00020630847 -2.0652777e-05 -0.0008691865 0.0012160062
000290 10 d1 d6 ba dc 69 87 39 a4 17 c7 38 ac 43 62 39
       -0.001638921 0.00025828078 9.493463e-05 0.0002157825
0002a0 cb 8e 57 ba f1 96 b7 ba be b3 75 ba 7a ba 97 b9
       -0.0008222877 -0.0014006776 -0.0009372792 -0.000289399
0002b0 1f 31 a9 b9 84 7c 7a 3a 28 b9 fe 38 ac af 76 39
       -0.0003227079 0.00095552974 0.00012146152 0.00023525831
0002c0 ef 16 e7 3a ed b6 10 ba f4 85 69 39 b8 d0 f0 b9
       0.0017630736 -0.0005520422 0.00022270513 -0.00045931875
0002d0 93 e4 1e 3b dc 9f 71 ba f3 12 c0 39 ae 97 30 ba
       0.0024245128 -0.00092172413 0.00036635212 -0.0006736469
0002e0 16 4f a1 b9 af 08 5b 3b b2 6f e0 b9 26 33 ba 3a
       -0.00030767237 0.0033421924 -0.0004280783 0.0014205917
0002f0 c7 89 0a ba 2c 71 9c ba 20 f2 9f b7 62 5c 06 bb
       -0.00052848127 -0.0011935583 -1.9067025e-05 -0.0020501842
000300 00 39 ec b7 54 a6 49 3a 6b a6 6e 39 bf 15 ac b9
       -2.8159935e-05 0.00076923263 0.00022759444 -0.000328226
000310 a5 d4 55 ba 55 8e 1f b9 7c ff 60 3a 15 45 4c ba
       -0.00081569917 -0.00015216444 0.0008582992 -0.00077922764
000320 00 8d 3f ba 6d 50 12 bb 80 0e 56 3a fe cf 8e b9
       -0.00073070824 -0.002232577 0.0008165613 -0.00027239317
000330 38 3b 02 3a 6c 8e e4 39 b5 df 46 3a 9a c3 0c 3b
       0.0004967931 0.0004359366 0.00075864355 0.0021478892
000340 b9 ea e1 ba 0e b3 16 3a bb 27 dc 39 96 eb bc 39
       -0.001723609 0.0005748727 0.0004199127 0.0003603368
000350 3d e5 d6 b9 df d0 94 3a c5 9a 8f 39 c6 f2 12 3a
       -0.00040988057 0.0011353752 0.00027390398 0.0005605634
000360 18 05 7b 3a 6b 63 24 bb ec d5 23 ba d4 49 9b b8
       0.0009575649 -0.0025083672 -0.00062498334 -7.4047275e-05
000370 25 9a 3d ba ea f7 3e bb f0 b8 17 3a 7f 04 89 3a
       -0.0007232747 -0.0029139468 0.00057877507 0.001045361
000380 fd d5 db 3a 04 82 b2 ba 44 32 20 ba 9c 9a d2 37
       0.0016772148 -0.001361907 -0.0006111006 2.5105946e-05
000390 94 6c a7 3a e0 41 88 ba f0 59 8b ba 87 3d 6a 39
       0.0012773448 -0.0010395609 -0.0010631662 0.000223389
0003a0 28 f1 5c b9 e3 f0 9b 3b 34 95 39 b9 94 fb 8d 39
       -0.00021070673 0.0047589405 -0.00017698557 0.00027081056
0003b0 5a f1 3a 39 b9 e1 28 3b 5a 36 b5 ba 05 5c 52 bb
       0.00017828253 0.0025769307 -0.0013825402 -0.0032098305
0003c0 36 63 26 bb d7 66 d2 3a 90 ef 7a b8 30 7c b7 b9
       -0.0025388724 0.0016052377 -5.9827755e-05 -0.00034997007
0003d0 43 0e fe b9 54 09 a2 3a 46 72 ed 39 04 31 df b9
       -0.0004845728 0.0012362399 0.00045289303 -0.00042570394
0003e0 23 52 b9 3a 80 f8 09 ba fa 0e a2 3a 4e 4a d8 39
       0.0014138859 -0.00052631646 0.0012364083 0.00041254092
0003f0 9e eb 2e ba 97 51 b8 ba 53 3e d5 3a 85 9c e8 39
       -0.0006672683 -0.0014062402 0.0016269184 0.00044367104

arr_18 f4 [32]
000000 50 a3 a9 ad 52 33 88 30 f3 86 98 30 98 d4 2d 2e
       -1.9285601e-11 9.909888e-10 1.109781e-09 3.9524467e-11
000010 43 d4 9c b0 e9 5c da 2f ef 3a 6d af a0 64 42 30
       -1.1410822e-09 3.9719986e-10 -2.1575962e-10 7.0719786e-10
000020 30 bd b8 ae bb 00 b4 30 bc 82 69 30 9b 6e ee ae
       -8.400958e-11 1.3096931e-09 8.495069e-10 -1.08426344e-10
000030 ef 86 08 b0 b1 90 96 af 02 06 32 2f 6e d4 38 b0
       -4.9668264e-10 -2.738765e-10 1.619114e-10 -6.724069e-10
000040 cc ed 82 30 1e 5d 84 b0 e0 a9 94 2d 96 0e 93 b0
       9.526331e-10 -9.63073e-10 1.6901092e-11 -1.0699803e-09
000050 22 9f 10 b0 42 08 e7 af 02 ee 45 af 80 06 a2 2c
       -5.2613036e-10 -4.2024523e-10 -1.8001603e-10 4.6050386e-12
000060 be 79 9b 2f 0a 03 bf b0 3a eb eb af 2c 3f fb ae
       2.828084e-10 -1.3897943e-09 -4.291339e-10 -1.142538e-10
000070 00 76 e5 ad 6c de 0b 31 be c3 39 b0 88 33 c6 2f
       -2.6086688e-11 2.0353594e-09 -6.7580774e-10 3.6052605e-10

arr_26 f4 [64]
000000 59 7d 9e b9 20 18 b8 b7 73 ce e3 b9 be a2 42 39
       -0.000302295 -2.1945743e-05 -0.0004345063 0.00018561908
000010 c4 c7 84 38 ee 2a 8f b8 d3 2b a6 38 00 db 6c 38
       6.33146e-05 -6.826768e-05 7.92366e-05 5.6470744e-05
000020 8f 8f c8 38 c6 5c ee b8 82 7b 6e 39 76 ed 36 38
       9.563483e-05 -0.00011366005 0.00022743459 4.3613334e-05
000030 1c d7 e4 b9 20 00 88 38 b1 32 d0 b9 2c b0 98 b8
       -0.00043647818 6.4850086e-05 -0.0003971062 -7.2807394e-05
000040 84 39 78 37 96 f8 1f 39 46 ca 4b 38 30 b4 a8 36
       1.4795343e-05 0.00015256027 4.8587353e-05 5.0277667e-06
000050 2c 31 00 39 fa 58 a9 39 b4 0f 11 b9 d9 7a a6 b8
       0.00012225349 0.00032300485 -0.00013834127 -7.938379e-05
000060 9d 88 d8 b8 ca 16 61 39 5b e9 57 b9 5f c4 85 b9
       -0.00010325129 0.00021466162 -0.0002059093 -0.00025514045
000070 73 ed 0b b9 5f ef 43 37 bc 3f 3f b7 fc 76 af 38
       -0.0001334453 1.1678639e-05 -1.13993265e-05 8.366813e-05
000080 80 33 9b b6 a2 1a 3c b9 78 5c 8c 36 ca c5 19 b9
       -4.6253554e-06 -0.00017938999 4.18309e-06 -0.00014664899
000090 3f 20 13 b9 c0 5e b1 38 e8 f7 fc b8 2b 66 84 39
       -0.00014031025 8.457666e-05 -0.000120624725 0.00025253123
0000a0 9c 20 7d 38 59 72 f1 38 d1 77 27 38 d4 f5 71 b9
       6.035027e-05 0.000115130744 3.992749e-05 -0.00023075129
0000b0 ec 06 83 36 4c 6d 1d b9 87 8f 12 3a 28 b7 00 ba
       3.90491e-06 -0.00015013403 0.0005590845 -0.0004910105
0000c0 f2 30 32 b9 30 a8 a1 39 e2 a3 87 b9 70 bf 4d b7
       -0.00016993636 0.00030833622 -0.0002587131 -1.2263525e-05
0000d0 5b 87 12 b9 fe 03 39 b8 dd 3c 2a 39 b7 91 ee b9
       -0.00013974069 -4.4111155e-05 0.00016235137 -0.00045503463
0000e0 d2 0a 12 b9 9c 42 5f b8 83 45 ae 38 d8 39 81 37
       -0.00013927676 -5.3229378e-05 8.309914e-05 1.5404934e-05
0000f0 e4 36 a9 b8 d0 af fe 39 84 6a 82 b9 23 a1 3a 39
       -8.068772e-05 0.00048577646 -0.00024874893 0.0001779837

arr_19 f4 [1, 1, 16, 32]
000000 6f 6f 63 b9 86 7b 91 39 42 db 44 3a 2b 00 db b9
       -0.00021689919 0.00027748587 0.00075094786 -0.0004177106
000010 3e 21 b1 b9 50 82 5d 39 21 97 de b9 6c 00 f8 b7
       -0.00033784838 0.00021124748 -0.0004245574 -2.95641e-05
000020 2b 30 ca 39 a2 ed 88 b9 aa 1d 7b ba 26 12 ee b9
       0.0003856433 -0.00026116992 -0.00095793104 -0.0004540842
000030 07 83 92 b9 d7 9d f5 38 dd 27 2b b9 73 ff 45 ba
       -0.00027944913 0.0001171191 -0.00016322681 -0.00075530185
000040 a9 de 20 ba 62 dc 8d 37 f0 ae c2 b9 94 de 89 39
       -0.00061366946 1.6911134e-05 -0.00037132902 0.0002629651
000050 67 6b 0a ba c2 d2 c1 39 24 e3 d3 b9 4e 67 01 ba
       -0.00052802864 0.00036968855 -0.0004041429 -0.0004936353
000060 2b cd 25 ba d7 5d 54 39 bf 78 1f 3a 90 5f aa 38
       -0.0006324823 0.00020252854 0.0006083361 8.1240316e-05
000070 d5 25 be b9 9d 16 cf 39 06 d9 e4 b8 94 4d 6c b9
       -0.0003626781 0.00039498965 -0.00010912311 -0.00022535614
000080 60 b0 7e b9 44 57 a9 39 f4 d9 71 b9 42 59 1f ba
       -0.00024289032 0.0003229921 -0.00023064745 -0.0006078669
000090 ef 3c b4 b9 60 5b 93 39 10 7c 57 ba ae 5e 0a b9
       -0.00034377674 0.00028106105 -0.0008220086 -0.00013195976
0000a0 df c9 57 3a 56 52 d4 39 4d 9d be b9 8e d2 9c b9
       0.000823168 0.00040497136 -0.00036356822 -0.00029911514
0000b0 62 fc 04 39 4f e4 04 ba 8f 45 b9 b9 36 55 a7 b8
       0.00012682521 -0.0005069421 -0.00035337775 -7.979052e-05
0000c0 7b 93 ba b9 60 65 a4 b9 f1 36 c6 b9 85 4a d5 b9
       -0.00035586566 -0.00031356048 -0.00037806437 -0.00040682047
0000d0 77 0d 7a 39 f8 4b 1b 3a 30 84 b7 ba d7 6e 21 38
       0.00023846874 0.0005924101 -0.0014001187 3.848862e-05
0000e0 c4 17 4f ba 08 27 a0 b8 d8 34 5b 38 d4 d1 87 39
       -0.00078999647 -7.636665e-05 5.2262883e-05 0.0002590554
0000f0 47 2e 48 39 de dc 0a ba a7 87 26 39 65 4b dc b9
       0.00019090726 -0.0005297194 0.00015881528 -0.00042017843
000100 9a f4 35 3a 58 7a 5e 38 43 cc a8 38 18 04 38 3a
       0.00069410505 5.3042866e-05 8.048911e-05 0.0007019653
000110 b8 82 a5 b9 be 1a 1a 3a 1e 43 05 b9 57 04 16 ba
       -0.00031568645 0.00058786187 -0.00012708872 -0.00057226926
000120 2c 0b be 38 be be 2c 37 91 73 45 b9 d8 74 0a 39
       9.061987e-05 1.02964095e-05 -0.00018830436 0.00013204233
000130 1c 67 74 b9 d0 58 4a b8 87 6f 1d b8 e0 5d 10 ba
       -0.00023308065 -4.8243266e-05 -3.7535585e-05 -0.00055071525
000140 07 50 00 ba d2 5e 4f b9 1d c7 d3 39 a2 a3 14 3a
       -0.00048947375 -0.00019776382 0.00040393407 0.0005670135
000150 9a da 6c ba 82 28 28 3a ba fe 1d b9 96 3d b7 b9
       -0.000903526 0.00064147275 -0.0001506758 -0.00034950365
000160 fd 60 08 ba 7a 44 a3 39 67 13 c3 39 94 e7 54 39
       -0.00052024407 0.00031140802 0.00037207754 0.00020304165
000170 04 00 82 37 79 8e 1c ba 1c 3c a6 37 ee 23 bf b9
       1.5497215e-05 -0.0005972158 1.9816733e-05 -0.0003645713
000180 db 44 83 38 69 9c e2 b9 8a a0 00 ba 70 74 a7 3a
       6.259392e-05 -0.00043222614 -0.00049067347 0.001277579
000190 d0 b4 7c 39 06 cb a4 b9 95 3f df 39 16 23 c9 39
       0.0002409995 -0.00031431782 0.00042581247 0.0003836385
0001a0 7e 0f 9f b8 f4 59 a3 38 60 87 5f b9 50 67 ba 39
       -7.5845965e-05 7.789201e-05 -0.00021317368 0.00035553658
0001b0 18 ec 8c 39 62 5c 41 ba 78 c4 ec 39 f4 59 25 3a
       0.00026878784 -0.0007376132 0.00045159808 0.00063076545
0001c0 9d 24 2f 3a d8 bd 62 3a ce cb 85 3a f9 b9 08 3a
       0.0006681176 0.0008649505 0.0010207833 0.00052157004
0001d0 b4 8d 04 3a b6 33 35 ba b5 df b3 39 b4 ab ab 38
       0.0005056516 -0.00069123076 0.00034308215 8.1858976e-05
0001e0 cc 70 7c 39 f3 a3 64 b9 02 33 45 ba 56 79 8a b9
       0.00024074613 -0.0002180485 -0.00075225544 -0.00026411813
0001f0 39 cb 10 b9 ba cc bf b9 74 e6 18 ba f8 13 fc b8
       -0.00013808616 -0.00036582892 -0.000583268 -0.00012020016
000200 aa a7 e9 39 64 17 31 b9 b8 fe 0e ba 01 51 87 b9
       0.00044566143 -0.00016888749 -0.0005454826 -0.0002580956
000210 13 df 42 3a b8 bd b3 b9 92 0f ee 39 f0 3b 1e 3a
       0.00074337533 -0.00034282892 0.00045406498 0.0006036153
000220 4c fb 00 39 30 db dc 37 20 7e 43 39 9e f2 25 39
       0.00012300647 2.632811e-05 0.00018643634 0.00015826008
000230 4e f2 d9 b8 5f a9 00 ba 18 9f 3d b8 ae f9 6b 3a
       -0.00010392499 -0.0004908051 -4.520928e-05 0.0009001744
000240 db df 68 3a 61 6c 58 3a c2 bf bd 39 a8 9a 0c 3a
       0.0008883455 0.0008255896 0.0003619176 0.0005363622
000250 0b 4d 68 3a 8c dd e9 b9 42 dc 0d 3a f2 da 99 b9
       0.0008861578 -0.00044606288 0.0005411544 -0.0002934556
000260 06 47 51 3a 6c 33 e0 b8 25 22 54 ba 2b bc 85 38
       0.00079833006 -0.000106907304 -0.0008092246 6.376983e-05
000270 db a7 e6 39 5d 18 b1 38 ff 3b 5d b9 d4 1d be 39
       0.0004399408 8.444556e-05 -0.00021098553 0.00036261848
000280 4b df 8a b9 37 5a b1 b9 14 bc a6 b9 37 f6 11 ba
       -0.00026487777 -0.00033827286 -0.00031802116 -0.0005568
000290 4e 02 5d 3a c1 62 cd b9 92 1d ce 39 70 08 d5 39
       0.00084308244 -0.00039174224 0.00039313413 0.00040632812
0002a0 1c fe 16 ba c2 f2 b1 39 22 a7 18 39 43 7f 00 39
       -0.0005759911 0.0003394094 0.00014558111 0.0001225444
0002b0 86 69 88 39 78 65 10 38 22 e7 3a 39 c8 9a 29 3a
       0.00026018562 3.4426776e-05 0.00017824446 0.00064699026
0002c0 b4 7c de 39 71 a3 1d 3a 27 38 a6 37 57 e0 8a 3a
       0.0004243605 0.00060134294 1.981489e-05 0.0010595423
0002d0 c8 e2 fc b8 33 63 6e b9 30 56 a1 39 48 54 b7 3a
       -0.00012058538 -0.00022734403 0.00030772528 0.001398691
0002e0 ea 72 c8 39 7e c6 0e 38 f0 53 1f b9 12 d5 86 b8
       0.0003823259 3.40403e-05 -0.00015194691 -6.429305e-05
0002f0 7a 69 d8 39 4e a1 79 b9 09 10 7f 39 41 78 4d 38
       0.00041277317 -0.00023806581 0.00024324669 4.8987804e-05
000300 98 8f 91 b8 c2 0b d1 39 af cd 36 3a 7e 67 6a b9
       -6.940885e-05 0.00039872347 0.0006973398 -0.00022354533
000310 cd 93 b1 b9 b0 66 83 39 f1 4e 0c ba a0 17 41 b7
       -0.0003387019 0.00025062775 -0.00053523394 -1.1509197e-05
000320 4e bf 5c b9 e0 ee de b9 c2 30 b4 38 32 d3 7b b9
       -0.00021052102 -0.00042521115 8.592151e-05 -0.00024015902
000330 da 01 d1 b8 00 ab d0 3a 4e 21 fb b8 98 80 93 ba
       -9.9662415e-05 0.0015920103 -0.00011974816 -0.0011253534
000340 62 94 63 b9 ae f1 a4 ba 08 77 80 ba b1 0e 6a ba
       -0.00021703684 -0.0012584233 -0.0009801099 -0.0008928581
000350 d8 ec bd b8 c4 d5 07 3a 3c 70 01 ba b8 7d 0b ba
       -9.056338e-05 0.0005181695 -0.00049376837 -0.0005321163
000360 6f 25 ea b9 2c e2 1d b9 bf 63 30 3a c7 4c 38 ba
       -0.00044659848 -0.00015056942 0.00067287305 -0.00070304837
000370 3c 18 34 ba 82 6c 50 3a f1 92 ee b9 3b 7e cb b9
       -0.0006870066 0.0007950739 -0.00045504377 -0.00038813226
000380 c3 dd 00 39 e3 2f 08 3a 08 17 ef 38 07 84 a2 ba
       0.00012289644 0.0005195124 0.00011400698 -0.0012398966
000390 a0 8b 45 ba a6 e2 63 39 c9 3e 85 ba 9b 4a 67 b9
       -0.00075357594 0.0002173284 -0.0010165806 -0.0002205767
0003a0 c0 4c 6a 39 5e 26 8e b8 4a 8f c9 b8 00 19 51 36
       0.0002234457 -6.778234e-05 -9.6111165e-05 3.1157979e-06
0003b0 de df 5e 38 f7 f9 1e 3a 12 94 0d ba 62 08 92 ba
       5.3137417e-05 0.00060644693 -0.00054007873 -0.0011141414
0003c0 94 0f 2e ba 87 50 63 ba 76 a2 ca ba 2b 88 8a ba
       -0.00066398946 -0.00086713623 -0.0015459794 -0.0010569146
0003d0 3c 9e 5d ba 54 99 8e 3a 80 e9 69 ba 3a 8d ed b9
       -0.000845406 0.0010879436 -0.0008923039 -0.00045309385
0003e0 fa 4f cd ba 63 00 d5 39 dc b4 5c 3a e3 85 2d b9
       -0.0015664094 0.00040626814 0.0008419284 -0.00016548442
0003f0 ac c6 31 b9 86 7c c3 39 d8 3e b3 39 f9 42 27 ba
       -0.00016954046 0.00037286076 0.00034188363 -0.0006380524

arr_12 f4 [16]
000000 e2 a2 c4 b9 69 d9 82 b9 3e 02 4a b8 96 6c d8 ba
       -0.0003750539 -0.00024957515 -4.816264e-05 -0.0016511853
000010 f6 e1 22 ba 0d bd 57 b9 28 e4 6c b8 9d f8 ac 3a
       -0.00062134804 -0.00020574425 -5.647927e-05 0.0013196651
000020 d7 f0 a4 39 c8 94 4b 39 7c 4e 08 ba da f4 b3 3a
       0.00031459957 0.00019415014 -0.00051996834 0.0013729588
000030 ed a1 63 3a 44 fa 05 3a a3 03 ce b8 12 f0 aa b9
       0.00086834916 0.000511084 -9.823523e-05 -0.00032603793

arr_30 f4 [64]
000000 17 66 a1 2f a8 55 aa ad 6c 3f 45 b0 de 37 91 2e
       2.9358269e-10 -1.9364801e-11 -7.175831e-10 6.6037606e-11
000010 ad 66 16 2f 88 1e 5f 2f 6a bd aa af a4 32 03 b0
       1.3678898e-10 2.0292579e-10 -3.1057407e-10 -4.7729487e-10
000020 5b 1b 2f 30 ed 77 21 b0 cd 23 d6 2e af dd c5 af
       6.3703504e-10 -5.8741884e-10 9.737953e-11 -3.5991607e-10
000030 d8 c6 07 30 43 a8 9b 2f c5 4e 1f 30 d6 24 57 30
       4.939529e-10 2.8313893e-10 5.79558e-10 7.826889e-10
000040 1f b9 81 2e 7b 21 79 ac fc f8 48 2c 37 52 e8 2e
       5.899125e-11 -3.5403614e-12 2.8559924e-12 1.0564743e-10
000050 32 c3 5f af 1c 4a d0 2e 7a 15 55 ae cc a7 34 b0
       -2.0351079e-10 9.4719094e-11 -4.8449668e-11 -6.572207e-10
000060 44 0f 9a 2f 68 a3 71 2d 69 c4 e4 2f 80 07 80 ad
       2.8023284e-10 1.3735547e-11 4.1612516e-10 -1.4555246e-11
000070 65 bf ad 2f 0a 81 1e b0 02 d1 a0 2e 4c 0f dc af
       3.160451e-10 -5.766344e-10 7.313085e-11 -4.0028636e-10
000080 98 d5 f6 2f a4 81 3e 30 c0 a4 bd 2f 1b a9 21 b0
       4.4898907e-10 6.930583e-10 3.4495962e-10 -5.881177e-10
000090 30 3f 56 ae 78 39 42 b0 b1 a6 37 b0 70 f5 d8 2e
       -4.871409e-11 -7.0658457e-10 -6.6811895e-10 9.866141e-11
0000a0 be 1b 6f 30 a2 71 c8 2e 63 a3 d5 2f 89 7e 61 2f
       8.698712e-10 9.115132e-11 3.8860568e-10 2.0508585e-10
0000b0 b2 df d3 2f ec c2 41 2f 09 e3 0c af d7 1e 87 af
       3.8539621e-10 1.7622498e-10 -1.2813585e-10 -2.457827e-10
0000c0 09 8f 12 30 b0 9c cd ad 9e cb a8 2f 66 0a 44 2f
       5.3317756e-10 -2.3375385e-11 3.07037e-10 1.782979e-10
0000d0 ae b7 b3 2d c0 85 6b 2f 2c 61 21 b0 b8 6d 89 2c
       2.0431514e-11 2.1420643e-10 -5.870955e-10 3.9059554e-12
0000e0 7e 99 71 af 61 98 6b af 4c 6e 4f 2f f8 7a ad 2d
       -2.1973354e-10 -2.1427261e-10 1.8865726e-10 1.9722432e-11
0000f0 b6 c7 f4 2e 65 ef a1 2e f1 00 ac 2f b4 92 b2 2f
       1.1131311e-10 7.3639574e-11 3.1287287e-10 3.248225e-10
