temp/pre_policy/resnet_8_policy_0/optimizer_weights.npz (npz, 725326 bytes, 38 tensors)

arr_4 f4 [16]
-0.0008239138 0.00032112483 0.00016825067 0.00024495932 -0.00043306124 0.000469775 -0.0012312607 -0.00025507313
0.00034208636 0.00033383846 0.0003183122 -0.00027402805 -0.0003762695 0.00028518404 4.028906e-05 0.0005067604
00000000: ebfb 57ba a55c a839 726c 3039 e26d 8039
00000010: 7f0c e3b9 224c f639 4162 a1ba 56bb 85b9
00000020: 0e5a b339 0a07 af39 24e3 a639 6cab 8fb9
00000030: 0a46 c5b9 c184 9539 0cfc 2838 1dd8 043a

arr_30 f4 [64]
8.7902255e-13 -1.7742441e-10 4.0529222e-10 -1.2869256e-10 -7.434187e-11 -3.580889e-10 6.6408566e-11 2.0648379e-11
1.6770245e-10 -1.7042891e-10 -6.3874836e-11 -1.7829711e-10 -1.2963625e-10 -3.1365294e-10 -4.1323556e-10 1.6826143e-10
1.2256177e-10 -1.935582e-12 -4.3995918e-11 -4.9341333e-11 -5.7514434e-11 3.3629995e-11 4.2434598e-12 5.5608223e-11
-1.7792907e-10 -1.0271901e-11 -2.8236032e-11 1.6982593e-10 -3.887327e-11 -2.771844e-10 2.333006e-10 1.4062186e-10
6.080951e-11 5.8546085e-11 8.5207663e-10 -1.15348994e-10 6.264781e-11 -4.0466887e-11 -5.2639643e-11 -1.15268255e-11
1.10220305e-11 -5.552191e-10 6.4856e-11 1.5283569e-10 -7.365131e-11 -2.1057733e-10 2.8188042e-13 -8.3947425e-11
8.298914e-11 -2.540853e-11 9.017397e-11 -8.7927304e-11 -7.623625e-11 -3.8524517e-10 -1.8155662e-10 -1.2753457e-11
-5.898349e-11 -1.01071235e-10 1.1801139e-10 -1.4185692e-10 -3.3258823e-11 9.646011e-11 1.900231e-10 -2.7037816e-10
00000000: 406c 772b 8814 43af cfcf de2f bc7f 0daf
00000010: c17a a3ae 88dc c4af b308 922e 04a0 b52d
00000020: 0b64 382f 7963 3baf 5676 8cae 2d0a 44af
00000030: 5c89 0eaf ba6e acaf bc2d e3af 6201 392f
00000040: 12c2 062f 5834 08ac 007f 41ae 6701 59ae
00000050: 7ff3 7cae 02e8 132e b04d 952c 4b91 742e
00000060: 95a2 43af 88b4 34ad e45d f8ad c0b9 3a2f
00000070: 69f7 2aae 3c62 98af 2442 802f 899d 1a2f
00000080: b6b8 852e 84be 802e 9037 6a30 b6a7 fdae
00000090: 95c3 892e aaf9 31ae f882 67ae 35c8 4aad
000000a0: d0e6 412d 129e 18b0 af9e 8e2e 6c0b 282f
000000b0: 00f6 a1ae 4088 67af 40af 9e2a 339a b8ae
000000c0: bc7e b62e ec7e dfad 6f4b c62e ac5a c1ae
000000d0: 32a5 a7ae 70ca d3af a59f 47af 775c 60ad
000000e0: c1b4 81ae 0c42 deae 41c1 012f 2cf9 1baf
000000f0: 1b46 12ae 371e d42e bfee 502f 58a4 94af

arr_23 f4 [3, 3, 32, 64]
3.4700166e-05 -4.8493785e-05 -4.8201437e-05 5.0664643e-05 -8.572283e-05 -0.00017772158 -5.2210842e-05 1.8347539e-05
2.2855951e-05 3.1749754e-05 -6.533337e-05 0.00012688235 4.0659914e-05 -1.03576895e-07 6.0992803e-05 0.00011440915
-5.9345315e-05 -5.573021e-05 0.00019028549 -2.2073767e-05 -0.0001271346 -8.7884924e-05 -0.00013328376 0.00010327802
-8.424777e-07 -0.00017626406 3.3524575e-05 0.00013332961 2.1945558e-05 -3.4341676e-05 -0.000121196856 -7.291923e-06
3.0447423e-05 0.00012341475 -5.737153e-05 -2.622609e-05 -6.5768465e-05 9.558651e-05 -9.8033175e-05 -8.4629966e-05
-8.594705e-05 2.976899e-05 1.2927301e-05 -5.5854798e-05 -2.5212756e-05 2.6455167e-05 7.539516e-05 6.0671257e-05
-1.903687e-06 7.780039e-05 -1.14061e-06 -6.1572835e-05 -1.4916476e-05 3.6675887e-05 3.3228014e-05 -7.214986e-05
-8.505259e-06 -0.0001906403 -0.0001177956 -3.719314e-05 -1.5008426e-05 7.215263e-05 0.00012094654 -0.00017089058
3.863436e-05 3.36186e-05 -8.156484e-05 -6.245078e-05 8.232516e-05 -4.0661784e-05 8.652256e-06 6.7093315e-06
-1.4049969e-05 -0.0001392051 3.815835e-05 7.615823e-05 7.2852374e-05 0.00010182545 1.753062e-06 8.2976076e-05
0.000103286206 -0.00012959588 0.00020305993 -9.660385e-05 -0.00012050357 -2.9066734e-05 -7.279702e-05 5.352748e-05
1.2319011e-05 -7.128573e-05 6.1695364e-06 1.9109752e-05 -6.603167e-05 8.492559e-06 3.5549612e-05 -0.00021504264
4.57218e-05 7.5790005e-05 -5.7767684e-05 6.593462e-05 2.6800935e-05 6.0981605e-05 -0.00021431556 6.8825466e-07
-7.904603e-05 -0.00016551073 0.00014340389 -9.1111775e-05 1.3270624e-05 2.6979025e-05 8.207427e-05 -4.430315e-05
2.3688905e-05 -5.3857206e-05 -7.081557e-05 -3.137555e-05 -0.00012758626 -5.760583e-05 0.000111904745 -9.5192256e-05
3.7832473e-05 -6.238503e-05 2.0408037e-05 0.00010117999 -0.00015436183 -3.6466023e-05 3.516669e-05 -0.00013554978
-1.6479291e-05 -0.00016041138 0.0001892369 -0.000106787986 -5.4311306e-05 -0.00020447177 0.00014177937 -5.722768e-05
3.299907e-06 0.00017775834 6.682448e-05 -8.9445544e-05 0.00012993644 1.9883984e-05 0.00014717603 -4.565718e-07
-3.7523496e-06 -9.3236704e-05 9.96303e-05 -2.9655384e-05 -5.9063015e-05 -7.3763455e-05 -7.41084e-05 3.8460414e-05
-2.5568235e-05 -4.231454e-05 8.160711e-05 0.00014848229 -2.2505681e-05 -7.849469e-05 -2.8545292e-05 2.6727546e-05
-1.1452158e-05 -0.00021323969 3.453532e-05 0.00013499559 -7.878545e-06 -7.288529e-05 -0.00024000995 1.2611987e-05
2.238412e-06 -1.385441e-05 -6.733041e-05 1.0658977e-05 -6.0125312e-05 2.4481062e-05 -0.00017398354 8.289138e-05
2.3646457e-05 0.00016779703 1.5926118e-05 -3.4642624e-05 0.00018207774 5.4462573e-05 0.00011157834 3.9584396e-05
-4.2503598e-07 -0.00015849071 -7.8651574e-05 2.7127902e-05 0.00013664874 7.3831296e-05 -8.201337e-05 7.804211e-05
1.544935e-05 -2.3156894e-05 -2.3434768e-07 -1.4722926e-05 2.8562536e-06 0.00010023669 -2.0557993e-05 -8.839797e-06
-1.2348102e-05 -0.00015558471 -7.549475e-05 0.00014870503 -7.486553e-05 -0.0001201195 3.5862162e-05 4.351323e-05
-2.6886704e-05 0.000114499366 4.040425e-05 0.00010669598 -2.5719906e-05 -5.470263e-05 5.222718e-05 0.00016290932
2.3062836e-05 -8.7091525e-05 3.331757e-05 5.1829265e-05 7.979043e-05 6.735172e-05 7.581253e-05 2.32996e-06
0.0001365254 -2.8896244e-05 -0.00014200773 1.5468046e-05 4.205336e-05 0.00021196052 -8.009554e-06 7.125902e-05
-7.7717894e-05 -6.541264e-05 2.5220335e-05 -8.56713e-05 -8.892731e-05 -0.0001601861 0.00019759555 -6.8938716e-06
-9.433906e-06 -8.576714e-05 -4.5370267e-05 -0.00014806578 5.531755e-05 5.6616165e-05 -0.0001035982 -9.885227e-05
5.8951304e-05 -4.5881774e-05 -0.00012642491 0.00015027303 -0.00019806031 4.497421e-05 0.00015362976 -2.263249e-05
00000000: 058b 1138 ce65 4bb8 e62b 4ab8 bf80 5438
00000010: 18c6 b3b8 c65a 3ab9 f7fc 5ab8 0ae9 9937
00000020: c8ba bf37 0a2b 0538 9603 89b8 b90b 0539
00000030: 408a 2a38 006e deb3 86d2 7f38 f2ee ef38
00000040: 8ce9 78b8 dbbf 69b8 5f87 4739 0e2b b9b7
00000050: 6f4f 05b9 dc4e b8b8 16c2 0bb9 f796 d838
00000060: a026 62b5 86d3 38b9 bd9c 0c38 65ce 0b39
00000070: ba17 b837 180a 10b8 112b feb8 24ad f4b6
00000080: 5869 ff37 e568 0139 36a2 70b8 1900 dcb7
00000090: 2ded 89b8 9e75 c838 2997 cdb8 5e7b b1b8
000000a0: 793e b4b8 6bb8 f937 56e2 5837 a245 6ab8
000000b0: fb7f d3b7 0aec dd37 781d 9e38 4479 7e38
000000c0: 3082 ffb5 c428 a338 1017 99b5 aa20 81b8
000000d0: c741 7ab7 6fd4 1938 4f5e 0b38 294f 97b8
000000e0: cfb1 0eb7 9ee6 47b9 0809 f7b8 d4ff 1bb8
000000f0: b3cc 7bb7 a650 9738 aea4 fd38 1731 33b9
00000100: 540b 2238 b201 0d38 ca0d abb8 02f8 82b8
00000110: fca5 ac38 428c 2ab8 2829 1137 b820 e136
00000120: 28b8 6bb7 96f7 11b9 370c 2038 23b7 9f38
00000130: 52c8 9838 1f8b d538 c04a eb35 7103 ae38
00000140: 5c9b d838 21e4 07b9 7cec 5439 cc97 cab8
00000150: ddb6 fcb8 56d4 f3b7 9aaa 98b8 b282 6038
00000160: c0ad 4e37 3c7f 95b8 ea03 cf36 e14d a037
00000170: 7c7a 8ab8 437b 0e37 1b1b 1538 127d 61b9
00000180: 69c5 3f38 73f1 9e38 944b 72b8 6146 8a38
00000190: 92d2 e037 80c6 7f38 e5b9 60b9 80c0 3835
000001a0: 84c5 a5b8 f38c 2db9 b05e 1639 4313 bfb8
000001b0: e5a4 5e37 0451 e237 4a1f ac38 25d2 39b8
000001c0: 89b7 c637 bce4 61b8 d282 94b8 3e99 03b8
000001d0: adc8 05b9 ca9d 71b8 67ae ea38 f4a1 c7b8
000001e0: 4fae 1e38 b5d4 82b8 ed31 ab37 9830 d438
000001f0: 30dc 21b9 18f3 18b8 f27f 1338 5e22 0eb9
00000200: 023d 8ab7 1a34 28b9 e56d 4639 5df3 dfb8
00000210: 52cc 63b8 7967 56b9 9caa 1439 c107 70b8
00000220: f873 5d36 a464 3a39 1f24 8c38 b694 bbb8
00000230: 8c3f 0839 88cc a637 4453 1a39 c01e f5b4
00000240: e0d0 7bb6 1388 c3b8 9cf0 d038 74c4 f8b7
00000250: 6eba 77b8 74b1 9ab8 a56a 9bb8 8e50 2138
00000260: 5e7b d6b7 e47a 31b8 7c24 ab38 e9b1 1b39
00000270: 95ca bcb7 849d a4b8 8c74 efb7 f834 e037
00000280: a522 40b7 1899 5fb9 04da 1038 9a8d 0d39
00000290: 182e 04b7 fed9 98b8 2eab 7bb9 1298 5337
000002a0: a037 1636 3d70 68b7 bd33 8db8 f5d3 3237
000002b0: 102f 7cb8 ae5c cd37 5a6f 36b9 f9d5 ad38
000002c0: 615c c637 acf2 2f39 1499 8537 3c4d 11b8
000002d0: 1fec 3e39 be6e 6438 2aff e938 6c07 2638
000002e0: 8030 e4b4 8730 26b9 bef1 a4b8 ba90 e337
000002f0: 5e49 0f39 e0d5 9a38 98fe abb8 8aaa a338
00000300: 3a99 8137 0d41 c2b7 00a1 7bb4 7c02 77b7
00000310: 10ae 3f36 2a36 d238 f473 acb7 a44e 14b7
00000320: b22a 4fb7 7424 23b9 ef52 9eb8 b4ed 1b39
00000330: 2001 9db8 aae8 fbb8 b46a 1638 fa81 3638
00000340: c28a e1b7 611f f038 bc77 2938 f8c1 df38
00000350: 14c1 d7b7 8070 65b8 820e 5b38 a3d2 2a39
00000360: 1077 c137 e8a4 b6b8 78be 0b38 4063 5938
00000370: 2955 a738 2e3f 8d38 8bfd 9e38 685c 1c36
00000380: 4228 0f39 3666 f2b7 e9e7 14b9 60c1 8137
00000390: 7462 3038 b841 5e39 c660 06b7 e570 9538
000003a0: 7afc a2b8 252e 89b8 4290 d337 6eaa b3b8
000003b0: 7c7e bab8 a1f7 27b9 a731 4f39 e851 e7b6
000003c0: 5146 1eb7 e2dd b3b8 f44b 3eb8 1b42 1bb9
000003d0: c404 6838 2577 6d38 dc42 d9b8 e94e cfb8
000003e0: 7b42 7738 2e71 40b8 ee90 04b9 9c92 1d39
000003f0: 69ae 4fb9 b1a2 3c38 ad17 2139 e7da bdb7

arr_22 f4 [32]
-5.2999796e-05 4.1061707e-05 -0.00033788753 0.00010283828 2.6436333e-05 -3.9775117e-05 0.00021301229 -2.2631224e-05
0.00010262414 -6.605769e-07 0.00012050909 0.0002181532 -0.00020522108 -0.00012108899 -3.036089e-05 -0.00010206665
5.917442e-05 5.948532e-05 4.690251e-05 7.672306e-05 -0.0002071102 2.8986826e-05 -0.00020775544 0.00017159678
-0.00024556564 -7.1163624e-05 0.00022005313 0.00013551216 0.00010832927 -0.00012661262 -0.00010702307 -0.00015748822
00000000: 194c 5eb8 ac39 2c38 7f26 b1b9 e2aa d738
00000010: 98c3 dd37 35d4 26b8 0d5c 5f39 2fd8 bdb7
00000020: ea37 d738 8052 31b5 d3b9 fc38 0ec0 6439
00000030: 9d30 57b9 28f1 fdb8 84af feb7 9e0c d6b8
00000040: 0d32 7838 e07f 7938 30b9 4438 61e6 a038
00000050: b92b 59b9 bc28 f337 edd8 59b9 a9ee 3339
00000060: 43bf 80b9 ae3d 95b8 10be 6639 4518 0e39
00000070: d52e e338 51c3 04b9 9371 e0b8 6c23 25b9

arr_38 f4 [225]
-7.209839e-05 -9.040104e-05 -7.729667e-05 -8.012343e-05 -6.708207e-05 -7.111618e-05 -3.360738e-05 -8.6522195e-05
-6.784256e-05 -8.436054e-05 -4.442493e-05 -6.75033e-05 -8.255262e-05 -9.6978765e-05 -6.067337e-05 2.194709e-06
-1.9787985e-06 2.7287979e-06 -0.00011087075 0.00012906887 -5.008942e-05 -4.4483226e-05 0.00015197293 7.830179e-05
-0.00013746538 7.3006513e-06 0.00012685212 -8.327586e-05 -5.1925468e-05 -1.2306968e-05 2.7530277e-06 -5.5624154e-05
-8.382406e-05 2.628265e-05 1.6979893e-05 -7.405295e-06 0.00034377415 0.002059787 7.090591e-05 6.812825e-05
-7.11943e-05 0.000107054686 6.6565284e-05 -0.00012196322 -8.943118e-05 2.9198145e-06 3.607302e-05 0.000102042904
-0.000105934 -0.000119108176 -9.1513066e-05 1.858682e-05 0.00010627124 -0.000141683 8.630079e-05 -5.6977377e-05
7.92729e-06 -5.487881e-05 -2.4613737e-05 8.279457e-05 -6.3531246e-05 -7.336915e-05 -0.00012305725 -0.0001385833
-8.279049e-05 -9.122799e-05 -0.00021832905 -0.0004741032 -0.0001105631 -0.00032439694 0.00011378465 -6.572027e-05
-4.061654e-05 -8.071869e-05 -2.8948729e-05 3.3719607e-07 3.8494316e-05 -0.00016778438 2.6131802e-05 -0.0004892565
9.154886e-06 -0.00018480793 -0.00027437188 -0.0002169577 -0.00022668173 0.00021219406 0.000116921176 0.00018411782
-1.5212085e-05 -5.8134032e-05 1.636237e-05 0.00010801423 -6.794582e-05 -1.4020436e-05 -0.0001737304 -0.00019194715
0.004075192 -1.731985e-05 -3.7429665e-05 4.9671587e-05 3.1006857e-05 -9.502341e-05 6.379721e-05 -6.7530666e-05
-9.1307535e-05 -0.00010118475 0.00014532598 -0.00012468791 -7.6508775e-05 -0.00015824288 -0.00024779007 -0.00011971576
-0.00014038046 -0.00024806723 -0.00037155757 -9.241367e-05 -8.2674436e-05 7.894075e-05 6.842804e-05 -3.0789437e-05
-7.984023e-06 9.8483884e-05 -2.3016117e-05 -5.1662857e-05 -0.000303722 7.9637044e-05 -0.0004810128 0.0017263754
8.178904e-05 2.931722e-05 6.2251056e-05 -0.00012849193 0.0001089186 -4.8367572e-05 -5.1072497e-05 -2.9754396e-05
-8.847206e-05 0.00016409729 -0.00016551746 0.00018230549 -0.0002249699 -0.00014694218 0.002075094 -0.00019897023
-0.00011140884 -8.174077e-05 -6.984963e-06 -6.296875e-05 -7.007804e-05 4.549871e-06 -6.1232815e-05 -2.519402e-05
4.1016254e-05 1.6518643e-05 1.5899139e-05 -0.00019649859 -0.00012930318 -0.00034353093 -3.3064185e-05 0.00015141506
5.0651564e-05 -0.00016061672 -0.0001491594 -0.0001495154 5.775142e-05 -0.00011689922 -4.5011104e-05 0.00019957694
1.4925203e-05 4.5388348e-05 -9.655861e-05 -0.00024743835 2.3734432e-05 -0.00037141208 -0.00011946578 8.806533e-05
0.00017443438 -9.36244e-05 -9.043157e-05 -0.00011993387 5.3620926e-05 -5.5281078e-05 -6.40197e-05 0.00016660358
-3.291668e-05 0.000120759345 0.00029401729 -7.2175586e-05 -7.877289e-05 -0.00012067523 0.00012175244 -1.6349934e-05
7.511564e-05 -2.1544018e-05 -5.9399954e-06 -3.935036e-05 4.2099364e-05 -8.5419095e-05 3.7386882e-05 -3.4711502e-06
6.931985e-05 -5.6552235e-05 5.0774186e-05 3.421248e-05 -6.0116807e-05 -0.00014317066 -9.479765e-05 -6.3011958e-06
-5.923239e-05 -0.00012551619 -8.005043e-05 -5.4524116e-05 -8.685399e-05 -0.00012750158 -6.0485294e-05 -4.466603e-05
-4.0443454e-05 -3.269018e-05 3.1900716e-05 -0.000116494935 -8.078303e-05 -4.243625e-05 -8.7562046e-05 -7.177541e-05
-3.2742886e-05
00000000: 8733 97b8 b095 bdb8 551a a2b8 f007 a8b8
00000010: 69ae 8cb8 3524 95b8 a6f5 0cb8 4073 b5b8
00000020: b246 8eb8 b8ea b0b8 e854 3ab8 8f90 8db8
00000030: 1a20 adb8 1461 cbb8 897b 7eb8 d048 1336
00000040: 80cb 04b6 6420 3736 4883 e8b8 a956 0739
00000050: 1b17 52b8 8093 3ab8 ec5a 1f39 f435 a438
00000060: 9524 10b9 1ef8 f436 9b03 0539 63a4 aeb8
00000070: 8cca 59b8 067a 4eb7 a8c0 3836 fb4d 69b8
00000080: b3ca afb8 9079 dc37 0b70 8e37 007b f8b6
00000090: 963c b439 7efd 063b 52b3 9438 13e0 8e38
000000a0: 264e 95b8 8c82 e038 f798 8b38 81c6 ffb8
000000b0: 008d bbb8 08f2 4336 1c4d 1738 deff d538
000000c0: e228 deb8 b7c9 f9b8 b4ea bfb8 e4ea 9b37
000000d0: f0dd de38 be90 14b9 62fc b438 fefa 6eb8
000000e0: 74ff 0437 ac2d 66b8 9979 ceb7 ffa1 ad38
000000f0: 143c 85b8 c3dd 99b8 ee08 01b9 ac50 11b9
00000100: ce9f adb8 a751 bfb8 42ef 64b9 0e91 f8b9
00000110: 1dde e7b8 d213 aab9 ab9f ee38 4dd3 89b8
00000120: ae5b 2ab8 8447 a9b8 ecd6 f2b7 e007 b534
00000130: f574 2138 47ef 2fb9 9e35 db37 7341 00ba
00000140: f097 1937 00c9 41b9 92d9 8fb9 247f 63b9
00000150: 6ab1 6db9 6980 5e39 9433 f538 c00f 4139
00000160: 6837 7fb7 f1d4 73b8 ec41 8937 b385 e238
00000170: 227e 8eb8 5039 6bb7 662b 36b9 6c45 49b9
00000180: 3089 853b 184a 91b7 ccfd 1cb8 7656 5038
00000190: 5c0d 0238 4e47 c7b8 deca 8538 409f 8db8
000001a0: 5c7c bfb8 2633 d4b8 a562 1839 a8be 02b9
000001b0: 5673 a0b8 00ee 25b9 d2e9 81b9 e90f fbb8
000001c0: 1833 13b9 050f 82b9 9dcd c2b9 36ce c1b8
000001d0: 8061 adb8 fe8c a538 0681 8f38 e823 01b8
000001e0: 1ef3 05b7 2289 ce38 bc12 c1b7 92b0 58b8
000001f0: e03c 9fb9 d002 a738 7230 fcb9 8c47 e23a
00000200: 2886 ab38 40ee f537 c88c 8238 cabb 06b9
00000210: 3a6b e438 49de 4ab8 ad36 56b8 1499 f9b7
00000220: 138a b9b8 8811 2c39 c18e 2db9 4229 3f39
00000230: e6e5 6bb9 7e14 1ab9 4dfe 073b aaa2 50b9
00000240: 2aa4 e9b8 3e6c abb8 6060 eab6 170e 84b8
00000250: dcf6 92b8 18ab 9836 1e6a 80b8 bf57 d3b7
00000260: de08 2c38 8491 8a37 245f 8537 300b 4eb9
00000270: 8f95 07b9 f11b b4b9 66ae 0ab8 2cc5 1e39
00000280: b472 5438 396b 28b9 ac67 1cb9 3cc7 1cb9
00000290: 1d3a 7238 ca27 f5b8 4eca 3cb8 8745 5139
000002a0: 4267 7a37 5e5f 3e38 827f cab8 9dba 81b9
000002b0: 4e19 c737 16ba c2b9 b489 fab8 b7af b838
000002c0: 5fe8 3639 3858 c4b8 14a6 bdb8 0285 fbb8
000002d0: 08e7 6038 9bdd 67b8 5142 86b8 4fb2 2e39
000002e0: 0410 0ab8 2e40 fd38 5526 9a39 f95c 97b8
000002f0: e032 a5b8 0513 fdb8 5855 ff38 3727 89b7
00000300: 6787 9d38 6db9 b4b7 2c50 c7b6 210c 25b8
00000310: d993 3038 0723 b3b8 dccf 1c38 e8f1 68b6
00000320: d05f 9138 8032 6db8 5ef6 5438 5f7f 0f38
00000330: ee25 7cb8 1520 16b9 1ace c6b8 dc6e d3b6
00000340: 4b70 78b8 ff9c 03b9 bfe0 a7b8 d3b0 64b8
00000350: 6125 b6b8 f2b1 05b9 97b1 7db8 c957 3bb8
00000360: d4a1 29b8 d01c 09b8 22cd 0538 be4e f4b8
00000370: 0f6a a9b8 94fd 31b8 84a1 b7b8 2186 96b8
00000380: 6855 09b8

arr_15 f4 [32]
0.0002487616 6.609699e-05 6.341973e-05 0.00022260407 0.00013109806 6.97595e-05 9.903011e-05 0.00039138115
-2.7249818e-05 -0.0002719353 7.571236e-05 -4.2002095e-05 -7.8625795e-05 -7.639723e-06 -0.00010708215 -0.00014720061
0.00029105842 -0.000328637 1.554443e-05 -2.7065504e-05 0.00012223986 -6.7103996e-05 -0.00022854333 -0.00032967492
-0.00023312704 -0.00013920185 -2.6546437e-05 -0.0001686579 9.835741e-06 0.0004847722 5.839189e-05 -0.00047497277
00000000: 376c 8239 8d9d 8a38 3500 8538 d36a 6939
00000010: 5e77 0939 d94b 9238 63ae cf38 4a32 cd39
00000020: 8a96 e4b7 8a92 8eb9 c4c7 9e38 682b 30b8
00000030: e7e3 a4b8 5c2c 00b7 4b91 e0b8 dd59 1ab9
00000040: 3399 9839 e94c acb9 6965 8237 ba0a e3b7
00000050: 832d 0039 2fba 8cb8 22a5 6fb9 38d8 acb9
00000060: 9073 74b9 b6f6 11b9 0ab0 deb7 c3d9 30b9
00000070: 3004 2537 0629 fe39 d1e9 7438 c405 f9b9

arr_7 f4 [16]
0.00021536181 0.00034392724 0.0006468055 -0.0004460413 0.0008562963 -0.00024263722 -1.08905515e-05 7.597381e-05
0.0002928272 0.00060217315 -4.481877e-05 0.00022048994 -0.0005945235 -8.368984e-05 -0.00088182965 -9.8472396e-05
00000000: bfd2 6139 2251 b439 628e 293a a6da e9b9
00000010: 1279 603a 6f6c 7eb9 90b6 36b7 2154 9f38
00000020: 9a86 9939 28db 1d3a cafb 3bb8 5133 6739
00000030: ccd9 1bba a482 afb8 962a 67ba f782 ceb8

arr_18 f4 [32]
3.7110132e-10 8.601169e-10 2.7847702e-10 -6.597384e-10 -6.143713e-12 1.046415e-09 -2.2714357e-10 7.645926e-10
4.4304344e-10 3.210801e-10 8.9868335e-10 -1.4721774e-10 2.7568534e-10 1.5044839e-10 4.4783763e-10 -1.5677641e-10
-2.6193314e-10 2.2186925e-10 -2.398804e-10 -8.576334e-10 6.45868e-10 1.8529887e-10 -2.8215438e-10 2.9438736e-11
-3.6367237e-10 -5.3932483e-11 -7.5775575e-10 3.801291e-10 1.8381316e-10 5.3505006e-10 8.572236e-11 8.2542445e-11
00000000: de03 cc2f 596d 6c30 2818 992f f658 35b0
00000010: a629 d8ac 74d1 8f30 3bbf 79af 6c2b 5230
00000020: d290 f32f 0284 b02f 3807 7730 1cde 21af
00000030: 438f 972f 756b 252f 8b33 f62f a360 2caf
00000040: d0ff 8faf a4f2 732f 2ae0 83af 96be 6bb0
00000050: ec88 3130 ffbc 4b2f b31d 9baf 1279 012e
00000060: 56ee c7af 9432 6dae 524a 50b0 6afa d02f
00000070: ce1a 4a2f cd12 1330 6681 bc2e 4483 b52e

arr_1 f4 [3, 3, 3, 16]
-0.0012315188 -0.0004102813 8.6155414e-05 4.4904256e-05 4.0934636e-05 0.00012521501 0.0003875972 0.00029030957
4.60663e-05 0.00015299796 -9.1761016e-05 0.00024507698 0.00026484873 -1.8637002e-06 0.0005108628 -0.0003489166
0.000986782 0.0003108292 -8.067781e-05 4.107316e-05 -0.00046607462 -0.00041765146 2.7792452e-05 0.0010332426
-0.00044362785 -0.0006185459 -1.2877717e-06 -0.00010595875 5.326144e-05 0.00036938497 -0.0009834273 -5.473908e-05
0.00032183153 -0.00095563056 -0.0006758617 1.5473417e-05 0.00013012554 0.00031844302 -0.001294382 -0.0016900059
0.00064133015 -0.00028160546 0.00032020122 -0.0012738623 -0.00011005225 -0.00028947677 0.00067028945 0.00072366383
-0.00048570006 -0.0002800913 9.46258e-05 0.00023868725 -0.0005032966 0.0001941392 -0.00069074315 0.00029118356
-1.6465448e-05 -0.0004212067 -0.0002134402 0.0001368644 -0.00012080865 -0.00081510615 -0.00020220022 0.00023019075
0.00026913418 0.00020846275 -4.6058347e-05 0.0004609783 -0.00032894642 -0.0002121061 0.0008526924 0.000886768
0.0004320864 -0.00013058141 0.00018300209 0.0001241157 0.00015238197 0.00048058608 -0.00017347839 -0.0001990013
0.0003903432 -0.0010884011 -1.0611087e-05 -0.00040428867 0.000917179 -0.00018420946 -0.0009608352 -0.0015323518
-0.00031241012 0.00069667393 -7.103309e-05 -0.0011969326 0.0001243874 0.0004535279 0.0005275999 0.00016323265
0.000257453 -0.0013937725 0.00014941457 0.0011050719 0.00019407854 -0.00075916684 -0.0004368532 0.0006259539
-0.0006864893 -0.0001119809 0.00022930781 -0.000113022674 -3.4638837e-05 0.00032583668 4.3292675e-07 -0.00060376397
0.00015040785 -1.9544503e-05 8.1579856e-05 -9.295621e-05 -0.00053014833 0.0008401753 -6.057889e-05 -0.0006948968
0.00045435166 -0.000324342 -0.00052334956 -0.0004888205 -0.00015738759 0.00016022346 3.291761e-05 0.00010329863
0.000306914 0.00049846416 -0.0011669793 -0.0006687608 0.0007777109 -0.00029041473 -0.0006434296 -0.00066613813
-0.0010471208 0.0009459793 0.0005372364 -0.0001130739 0.0007722174 -0.0001473499 0.00018862751 0.0017604217
0.00013704991 -0.00017281767 -0.00057301 8.837905e-05 -7.221773e-05 -0.000113567454 -0.00028565706 0.00092018384
6.911956e-05 0.00014855455 0.00019629898 -0.00034233148 -0.00019126618 -0.0006338062 0.00024992495 -0.0001205917
-0.00034178543 -0.00023853486 -0.00024100754 -0.00031683609 5.317617e-05 0.00033165183 0.00035822112 0.000261481
-0.0008197351 -0.0003325207 0.00015555395 -0.0005559062 0.00011511494 0.00066675816 0.00011765618 -3.635622e-05
0.0002402245 0.000401034 0.00019480303 0.000253287 -0.00033617468 -1.7789731e-05 -0.00040029592 -0.0012875218
0.0007230928 -0.0007862342 1.0189586e-05 0.00035855427 1.4448538e-05 1.0931926e-05 -0.00024250413 0.0002642469
0.00040349204 0.00015152097 -0.00017905206 0.00026868476 -0.000112091766 -0.00019724882 7.1083196e-05 -0.00024693483
-0.00044378763 -0.0005410295 5.700279e-05 -0.00039680043 0.00036880313 1.7911749e-05 -0.00029970426 -0.0003493756
-0.0006839823 -7.644645e-05 -0.00011302996 -2.5193582e-05 0.00016993316 -8.55203e-06 5.0695304e-05 0.00014551246
-0.00039806688 -0.00032893772 0.00041625512 0.00035831623 -0.0003286416 7.69746e-05 4.716363e-06 0.00044682127
0.00019683596 -9.48989e-05 0.00033275684 -0.00017911677 1.3808676e-07 0.00014253172 -4.4253713e-05 0.000106726875
0.0008598614 0.0008900773 -0.00045679012 -4.6468896e-05 -9.422208e-05 1.6221456e-05 0.00024425087 -0.00011600288
-2.592335e-05 -0.00025318883 -0.00018040609 3.4560377e-05 0.000299084 -0.00034948817 0.00012157055 0.0002460537
-0.0004742076 -6.897343e-05 -6.149613e-05 -0.00053477706 -0.000113632974 0.0006553463 -0.00018913223 -0.0005428428
00000000: ea6a a1ba 061b d7b9 56ae b438 9457 3c38
00000010: 3bb1 2b38 264c 0339 6a36 cb39 b134 9839
00000020: 5037 4138 146e 2039 d26f c0b8 ad7d 8039
00000030: 65db 8a39 4024 fab5 6ceb 053a cbee b6b9
00000040: e956 813a caf6 a239 9231 a9b8 f845 2c38
00000050: 7a5b f4b9 3bf8 dab9 d623 e937 de6d 873a
00000060: b996 e8b9 ea25 22ba 80d7 acb5 2c36 deb8
00000070: 0965 5f38 03aa c139 58e6 80ba a497 65b8
00000080: 7fbb a839 4883 7aba 502c 31ba e9cc 8137
00000090: 4f72 0839 b3f4 a639 41a8 a9ba 3083 ddba
000000a0: f01e 283a 72a4 93b9 aee0 a739 baf7 a6ba
000000b0: dacb e6b8 eac4 97b9 5db6 2f3a 42b4 3d3a
000000c0: 8fa5 feb9 38d9 92b9 d771 c638 1f48 7a39
000000d0: aaef 03ba d891 4b39 fd12 35ba ffa9 9839
000000e0: 481f 8ab7 68d5 dcb9 ebce 5fb9 4283 0f39
000000f0: a65a fdb8 d9ac 55ba b505 54b9 5c5f 7139
00000100: 941a 8d39 cb96 5a39 c62e 41b8 76af f139
00000110: 7176 acb9 cc68 5eb9 3887 5f3a fe75 683a
00000120: a889 e239 aeec 08b9 40e4 3f39 0e25 0239
00000130: b9c8 1f39 2cf7 fb39 c0e7 35b9 01ab 50b9
00000140: faa6 cc39 aea8 8eba 4606 32b7 b5f6 d3b9
00000150: d76e 703a 5a28 41b9 8fe0 7bba 32d9 c8ba
00000160: faca a3b9 ffa0 363a 9af7 94b8 65e2 9cba
00000170: fd6d 0239 7cc7 ed39 a14e 0a3a 6e29 2b39
00000180: c2fa 8639 3faf b6ba 2bac 1c39 0fd8 903a
00000190: 9081 4b39 d302 47ba 7209 e5b9 0e17 243a
000001a0: 84f5 33ba 4ad7 eab8 5972 7039 9606 edb8
000001b0: 2b49 11b8 0fd5 aa39 006d e834 ea45 1eba
000001c0: cdb6 1d39 80f3 a3b7 da15 ab38 7cf1 c2b8
000001d0: a7f9 0aba 363f 5c3a 1616 7eb8 bc29 36ba
000001e0: 0c36 ee39 720c aab9 6531 09ba 3024 00ba
000001f0: 6908 25b9 a801 2839 0411 0a38 08a2 d838
00000200: 4de9 a039 5dab 023a 54f5 98ba c74f 2fba
00000210: 4cdf 4b3a ce42 98b9 d4ab 28ba c69f 2eba
00000220: 8b3f 89ba 99fb 773a 53d5 0c3a 1622 edb8
00000230: a26e 4a3a f081 1ab9 50ca 4539 f3bd e63a
00000240: 0eb5 0f39 6436 35b9 0d36 16ba 2458 b938
00000250: 9973 97b8 102b eeb8 3ec4 95b9 7e38 713a
00000260: 48f4 9038 4fc5 1b39 9bd5 4d39 f47a b3b9
00000270: a08e 48b9 0426 26ba 5c08 8339 2de6 fcb8
00000280: aa31 b3b9 371f 7ab9 f8b6 7cb9 051d a6b9
00000290: 7a09 5f38 8ee1 ad39 a0cf bb39 6317 8939
000002a0: 7ee3 56ba 2c56 aeb9 321c 2339 3cba 11ba
000002b0: dd69 f138 62c9 2e3a 2ebe f638 327d 18b8
000002c0: c6e4 7b39 df41 d239 0a44 4c39 9bcb 8439
000002d0: 9a40 b0b9 283b 95b7 cfde d1b9 10c2 a8ba
000002e0: f08d 3d3a 491b 4eba f0f3 2a37 57fc bb39
000002f0: 0068 7237 4468 3737 b548 7eb9 9e8a 8a39
00000300: c98b d339 9ae1 1e39 ecbf 3bb9 42de 8c39
00000310: cf12 ebb8 94d4 4eb9 8012 9538 0877 81b9
00000320: 2bac e8b9 e0d3 0dba 4816 6f38 a709 d0b9
00000330: eb5b c139 3041 9637 a021 9db9 662c b7b9
00000340: 464d 33ba e051 a0b8 7f0a edb8 ce56 d3b7
00000350: 1630 3239 b07a 0fb7 aba1 5438 b494 1839
00000360: a2b3 d0b9 4675 acb9 d13c da39 64dc bb39
00000370: 874d acb9 6c6d a138 4041 9e36 5643 ea39
00000380: c065 4e39 7604 c7b8 de75 ae39 4bd1 3bb9
00000390: 0045 1434 9174 1539 109d 39b8 8ed2 df38
000003a0: 5268 613a 1454 693a 557d efb9 99e7 42b8
000003b0: 1899 c5b8 5013 8837 cc0e 8039 9246 f3b8
000003c0: f875 d9b7 6ebe 84b9 642b 3db9 ecf4 1038
000003d0: 60ce 9c39 823b b7b9 b1f3 fe38 c500 8139
000003e0: 119f f8b9 d4a5 90b8 7cf7 80b8 4830 0cba
000003f0: 3d4e eeb8 8ccb 2b3a cc51 46b9 904d 0eba

arr_9 f4 [3, 3, 16, 16]
-0.00054952037 1.22805795e-05 -0.0004198217 0.0004365262 -0.0005593453 -0.000997275 1.152535e-05 0.00039299135
-0.00063827034 -0.00071814173 -0.00023469373 0.00027776696 -0.00021509055 0.00016029188 0.00012446151 -7.5579585e-05
0.00019188823 -9.5031835e-05 0.00081440544 0.0002505809 -0.0002610538 4.679398e-05 -1.2588384e-05 0.00047963276
0.00027503516 -0.00025713106 0.00013659234 -0.0001422641 -0.00011676671 0.00033365205 -0.00017573939 -0.00052777963
0.00029812474 -8.60283e-06 0.00092035276 0.00020987581 2.2533462e-05 6.49002e-05 3.071784e-05 0.00042983962
0.00032562992 0.00032290843 -0.0004592332 0.00051147596 0.00024199695 0.00021228456 -0.0008772019 -0.00037317435
-0.00037107753 -0.00059050147 -0.00039345145 0.000110197376 -0.000599925 0.00011161168 0.00018842595 -0.0008433198
9.3369286e-05 0.0001810003 0.00016089593 0.00021796525 -0.00056669035 -0.00052114873 0.00010676858 0.00025551667
-3.708819e-05 -0.00032152515 -0.00023619331 -0.00015705936 0.00046723825 -3.4442994e-05 -0.00028712628 -0.0004340342
-6.148697e-06 0.000637497 0.00042218037 0.00013639977 -0.00018608155 -0.0007071763 0.00010556884 0.00031289665
-0.00011360894 -0.0005218053 0.00075252214 0.00012765339 0.00061610166 -0.00011257842 0.00027564346 0.0010448184
0.0001007847 0.00015552818 -0.0007017809 0.000116947194 -8.3631996e-05 -2.3966633e-05 7.2641706e-06 0.0005608044
0.00040967384 0.00041141247 0.00071952783 6.0204515e-05 0.0006145836 -0.00044735667 -0.00039970505 0.00021763466
-5.3388285e-05 0.00051041384 -0.00048793692 0.0007204161 0.000108338296 0.00015159333 -0.0006938539 -0.00067921734
0.000106873566 -0.00046680326 8.004814e-05 -1.8322651e-05 0.0005242084 0.0002445508 -0.0004348728 -0.0010619654
0.00016768591 -0.00017083807 -5.6772566e-05 9.477623e-05 -0.0003584465 1.126001e-05 2.874306e-05 0.00014199546
-0.00049242494 -0.0004887637 -0.00083662686 -0.00016617271 -0.00033186318 -0.00044307462 -3.533988e-05 0.00015781437
-0.00011988858 -0.00073688343 -0.00031197374 0.0002950529 0.0003533889 0.00023460218 0.00072271243 0.00025699072
0.0005558443 0.0001982854 0.00048472575 3.5216766e-05 0.00043728898 -0.00014503128 4.839947e-05 0.00026326554
-0.0001926985 -0.0003035388 -0.00030977692 0.00035669823 0.00025485147 0.00040955748 0.00032436434 0.00045930225
-8.612765e-05 0.000111461384 0.00047257164 0.00025590346 -7.2108145e-05 -0.0002847332 0.00014514964 0.0010747323
7.834116e-05 0.00029540696 -0.00040561293 -2.3542998e-05 0.0002858473 0.00051609374 -0.00046177243 -0.00021265427
-0.0003630812 -0.00014416366 0.00030234866 -0.00033610425 -1.0989854e-05 0.00017108241 0.0002326412 0.00018518296
9.337881e-05 -7.2304625e-05 -0.00056117226 0.0008441354 8.7180364e-05 -0.00027954744 0.0003110892 0.00017550937
-0.00017175465 -0.0006235813 -8.3467865e-05 -0.00041774072 0.0002660587 9.3110866e-05 -0.00055108673 -0.000873617
0.00027029403 -0.00024385986 -0.00022980073 9.920634e-06 -0.00075270276 -0.00014120896 -3.3432538e-05 0.000885552
0.00037630595 0.0005566552 2.0932639e-05 -5.180904e-05 -9.1373025e-05 -7.824715e-05 0.00041148643 0.00055399956
-0.0003030522 0.0007905718 0.00022110721 0.00038396352 0.0005587776 6.6404944e-05 -0.00034188936 -0.0005527378
-0.00023683869 -0.00058836554 -8.50542e-06 0.00011588068 0.0007412984 0.00017287437 -0.00029386723 -0.0011437719
0.00058156234 -0.00062743446 0.00022924451 0.00053797115 -0.00026459794 -0.00024293667 -0.00020002143 0.0001316499
-0.00066544476 -0.00021974706 0.00022643573 0.00023087522 -0.000114427414 -0.00019326947 -2.9266896e-05 0.00011666981
0.0002786448 -0.0011600403 -0.00062506995 -0.00013906896 -0.00024700118 -0.0001354889 -0.0005878383 -0.00042218465
00000000: b00d 10ba b008 4e37 841b dcb9 8edd e439
00000010: 07a1 12ba ffb6 82ba 005d 4137 680a ce39
00000020: 9951 27ba ad41 3cba 1e18 76b9 40a1 9139
00000030: ee89 61b9 0614 2839 e281 0239 7b80 9eb8
00000040: 9b35 4939 d44b c7b8 d37d 553a 6660 8339
00000050: 0cde 88b9 a744 4438 b332 53b7 3877 fb39
00000060: 9832 9039 8ccf 86b9 3a3a 0f39 bb2c 15b9
00000070: a6e0 f4b8 05ee ae39 af46 38b9 b15a 0aba
00000080: a04d 9c39 e054 10b7 d443 713a 1c12 5c39
00000090: 3e06 bd37 081b 8838 08d7 0038 195c e139
000000a0: 4fb9 aa39 094c a939 3dc5 f0b9 9214 063a
000000b0: 90c0 7d39 b498 5e39 06f4 65ba 9da6 c3b9
000000c0: 2f8d c2b9 e2cb 1aba 2948 ceb9 c419 e738
000000d0: 4944 1dba 1011 ea38 3594 4539 3c12 5dba
000000e0: 41cf c338 e6ca 3d39 2cb6 2839 9a8d 6439
000000f0: f28d 14ba b39d 08ba f2e8 df38 def6 8539
00000100: 248f 1bb8 6092 a8b9 a9aa 77b9 4db0 24b9
00000110: a8f7 f439 e276 10b8 7089 96b9 168f e3b9
00000120: e850 ceb6 b31d 273a 1758 dd39 8906 0f39
00000130: e31e 43b9 cc61 39ba d764 dd38 470c a439
00000140: 5641 eeb8 c3c9 08ba e844 453a b2da 0539
00000150: e281 213a 1418 ecb8 3d84 9039 4af2 883a
00000160: 605c d338 4715 2339 b8f7 37ba 8c41 f538
00000170: 9663 afb8 f40b c9b7 c0be f336 f202 133a
00000180: 7ec9 d639 d9b2 d739 b29e 3c3a 1b84 7c38
00000190: 021c 213a 328b eab9 818f d1b9 dc34 6439
000001a0: 3ced 5fb8 4bcd 053a c9d1 ffb9 4eda 3c3a
000001b0: ae33 e338 06f5 1e39 bfe3 35ba 810d 32ba
000001c0: 4f21 e038 46bd f4b9 85df a738 98b3 99b7
000001d0: 086b 093a 0e37 8039 a4ff e3b9 a531 8bba
000001e0: d8d4 2f39 ff22 33b9 141f 6eb8 9ac2 c638
000001f0: e0ed bbb9 60e9 3c37 401d f137 9ee4 1439
00000200: 1416 01ba 6020 00ba 1451 5bba a63e 2eb9
00000210: ecfd adb9 784c e8b9 e839 14b8 f97a 2539
00000220: b16c fbb8 692b 41ba 6890 a3b9 54b1 9a39
00000230: 0e47 b939 8bff 7539 6974 3d3a b6bc 8639
00000240: 14b6 113a d5ea 4f39 ca22 fe39 b7b5 1338
00000250: ef43 e539 8a13 18b9 8900 4b38 e706 8a39
00000260: 1c0f 4ab9 4a24 9fb9 8e69 a2b9 3a03 bb39
00000270: 969d 8539 e0b9 d639 720f aa39 81ce f039
00000280: 6e9f b4b8 60c0 e938 7ec3 f739 c82a 8639
00000290: c438 97b8 3e48 95b9 4f33 1839 08de 8c3a
000002a0: 174b a438 dae0 9a39 72a8 d4b9 347e c5b7
000002b0: c6dd 9539 774a 073a 0c1a f2b9 f2fb 5eb9
000002c0: ef5b beb9 a32a 17b9 8d84 9e39 2637 b0b9
000002d0: 1061 38b7 9664 3339 26f1 7339 ac2d 4239
000002e0: 5ed4 c338 40a2 97b8 a21b 13ba f848 5d3a
000002f0: 9ad4 b638 3990 92b9 b019 a339 f008 3839
00000300: 0a19 34b9 d577 23ba 780b afb8 3604 dbb9
00000310: cb7d 8b39 8444 c338 ce76 10ba 7203 65ba
00000320: 40b6 8d39 a2b4 7fb9 aaf6 70b9 cc70 2637
00000330: 0751 45ba 7e11 14b9 ea39 0cb8 6424 683a
00000340: ee4a c539 80ec 113a 8098 af37 884d 59b8
00000350: 859f bfb8 9e18 a4b8 c6bc d739 483a 113a
00000360: fae2 9eb9 603e 4f3a 04d9 6739 b64e c939
00000370: ee7a 123a e242 8b38 9d3f b3b9 9be5 10ba
00000380: e757 78b9 8b3c 1aba 80b2 0eb7 f704 f338
00000390: b253 423a 9c45 3539 3112 9ab9 9eea 95ba
000003a0: fd73 183a 6a7a 24ba 5b61 7039 a206 0d3a
000003b0: bcb9 8ab9 d1bc 7eb9 d8bc 51b9 800b 0a39
000003c0: 3e71 2eba e76b 66b9 616f 6d39 1817 7239
000003d0: c0f8 efb8 61a8 4ab9 2e82 f5b7 a1ac f438
000003e0: 1217 9239 7e0c 98ba bcdb 23ba 0ad3 11b9
000003f0: f07f 81b9 0612 0eb9 2919 1aba aa58 ddb9

arr_2 f4 [16]
1.9243918e-09 -3.0062523e-08 -3.920004e-08 4.5845564e-08 -1.0276231e-08 -1.0911689e-07 7.4267246e-09 4.1597774e-09
1.0077236e-08 -9.885272e-08 -4.008627e-09 3.5337115e-09 -8.011876e-09 -1.1489505e-09 -5.4795652e-09 1.0083414e-08
00000000: 423e 0431 181e 01b3 e65c 28b3 bbe7 4433
00000010: 588b 30b2 a553 eab3 292e ff31 caed 8e31
00000020: 2720 2d32 dc48 d4b3 42bc 89b1 b6d5 7231
00000030: 9aa4 09b2 1ae9 9db0 c446 bcb1 533b 2d32

arr_16 f4 [32]
0.00029121415 -8.8479646e-07 -0.00015625542 -2.860709e-05 5.263355e-06 0.00033512578 -4.506039e-05 0.00015283993
3.9916893e-05 -0.00019166918 0.00025585937 -4.739614e-05 0.00015529623 0.00032352566 0.0001287373 -0.00017327885
0.0003346389 -0.00035121644 0.00010440334 0.00014812467 9.836638e-05 -8.648363e-06 -0.00024112497 1.287939e-05
-0.00010872686 -2.0805592e-05 0.000115962284 -0.00010180495 0.00015659368 0.0002413014 0.00015063098 -0.00022617941
00000000: 1aae 9839 c082 6db5 7fd8 23b9 42f9 efb7
00000010: e09b b036 d2b3 af39 3aff 3cb8 a843 2039
00000020: 706c 2738 cefa 48b9 dd24 8639 38cb 46b8
00000030: 04d7 2239 e19e a939 a8fd 0639 30b2 35b9
00000040: 7972 af39 7923 b8b9 1ef3 da38 ea51 1b39
00000050: 0c4a ce38 7018 11b7 7ed6 7cb9 8f14 5837
00000060: 4a04 e4b8 ab87 aeb7 c730 f338 1e80 d5b8
00000070: 4c33 2439 da05 7d39 b2f2 1d39 932a 6db9

arr_36 f4 [2]
0.0048825485 0.0019092152
00000000: c9fd 9f3b a23e fa3a

arr_24 f4 [64]
1.6550666e-10 -4.1258238e-10 3.233663e-10 -4.908827e-12 4.6509216e-10 2.6235686e-10 -1.0914212e-10 1.6175822e-10
7.143472e-11 -2.451914e-10 -1.8630469e-11 -3.3895667e-10 -2.1721036e-10 3.8426623e-12 -1.3699225e-10 5.739662e-10
1.4167284e-10 -3.307959e-10 -3.6940404e-10 9.478093e-11 -3.0500652e-10 2.496982e-10 2.4564663e-11 1.1509779e-10
7.700097e-11 -2.4528088e-10 -2.6396074e-10 1.6605e-10 1.8090572e-10 -3.160263e-11 -9.541099e-11 -9.460603e-11
-3.5000156e-11 -1.160796e-10 1.3535273e-10 -6.050341e-11 -2.9222072e-10 2.3700535e-11 -5.324699e-10 -3.8204923e-10
-5.6397463e-11 3.623745e-10 1.1931725e-10 -7.2274575e-10 9.682165e-12 -1.4755006e-10 -1.140666e-10 -1.4427053e-10
3.6718018e-10 1.6813814e-11 2.1625889e-10 -9.333221e-11 -2.2751147e-10 -5.402283e-11 1.8397874e-10 1.0990786e-11
6.2952366e-11 3.2865038e-10 -6.799207e-11 1.0630623e-10 -4.7022297e-10 1.8086938e-10 7.1175496e-11 1.06913534e-10
00000000: fcf9 352f cfd1 e2af c3c5 b12f c8b6 acac
00000010: e7af ff2f 723b 902f 8d01 f0ae e4da 312f
00000020: 2c16 9d2e 9fcb 86af 16e0 a3ad e957 baaf
00000030: 48d3 6eaf a033 872c e49f 16af 48c5 1d30
00000040: 5cc5 1b2f 62db b5af ff14 cbaf ec6c d02e
00000050: daad a7af e645 892f b412 d82d 4c1a fd2e
00000060: b153 a92e 37d8 86af 2c1d 91af eb92 362f
00000070: 6fe8 462f 66fd 0aae 9dcf d1ae 760a d0ae
00000080: acee 19ae 0143 ffae 68d2 142f 640c 85ae
00000090: 69a6 a0af dc78 d02d 3d5d 12b0 a608 d2af
000000a0: e609 78ae ad37 c72f d230 032f b6aa 46b0
000000b0: 9854 2a2d a63b 22af cad5 faae 8ba0 1eaf
000000c0: 04dc c92f 58e5 932d 77c7 6d2f 5d3d cdae
000000d0: c926 7aaf 4d98 6dae 6949 4a2f 1a5a 412d
000000e0: 086f 8a2e 6ead b42f 2284 95ae 16c5 e92e
000000f0: 0041 01b0 34de 462f 3e84 9c2e f81a eb2e

arr_27 f4 [3, 3, 64, 64]
2.0936892e-05 -1.03415305e-05 -0.00016520741 2.5686553e-05 -2.9784052e-05 -6.7661476e-06 -1.7943641e-05 9.3092836e-05
4.5119938e-05 1.35829305e-05 -2.1832313e-05 4.6021967e-05 -2.3406004e-05 8.024725e-05 3.2632193e-05 9.672919e-06
-0.00010384814 6.082441e-06 9.750684e-06 -3.2687276e-05 4.336381e-05 1.755091e-05 -5.94833e-06 -3.920595e-06
5.1527997e-05 -4.125978e-06 -7.0508744e-05 -1.0029791e-05 8.590653e-05 7.264169e-05 -4.0014285e-05 6.61342e-05
0.0001864886 4.7070826e-06 -4.5004293e-05 -4.6574023e-05 7.113393e-05 0.000119335185 0.000109402485 7.836366e-06
-8.248328e-05 6.6909615e-07 0.00011998005 -1.0095278e-05 7.726979e-06 3.4661585e-05 -1.1932569e-05 -3.328264e-06
6.240304e-05 -3.2278997e-05 -3.106188e-05 3.6412675e-05 1.9843283e-05 5.667341e-05 4.3611115e-05 3.3246424e-06
2.602034e-05 -6.676113e-05 -1.0512582e-05 -1.415184e-05 1.7935668e-05 -5.8161917e-05 -0.00010480512 -1.0135811e-05
-1.6018014e-06 4.574649e-06 6.839626e-05 -9.481866e-05 1.8992192e-05 -4.340784e-05 0.00012969441 -0.00025212177
0.00010577537 3.3354405e-05 -8.9868554e-05 -5.3572818e-05 6.0505266e-05 -8.7992106e-05 8.263807e-05 -7.1132534e-05
0.00011106538 -1.7657287e-05 9.727728e-06 1.4990725e-05 -7.122934e-05 4.5429828e-05 -5.945935e-05 -3.9055518e-05
-0.00011868392 -2.020672e-05 -0.00010633292 -3.64613e-05 4.2739477e-05 -3.0421466e-05 0.00014336972 -5.6401977e-06
-7.872335e-05 -9.374375e-06 0.00013870231 -7.99015e-05 -2.2500468e-05 -0.00019372696 -6.298389e-05 4.9660844e-07
4.8744245e-05 -8.059036e-05 6.5929e-06 -2.2062197e-05 -0.00011362629 -1.877069e-06 -2.5582629e-05 0.00025133867
-3.1696643e-05 -1.1254722e-05 4.1206873e-05 9.3720664e-05 1.29368855e-05 3.8496437e-05 -1.9300085e-05 -4.8711747e-05
3.7361577e-05 -1.0200925e-05 5.6550172e-05 -7.071193e-05 -1.35867085e-05 4.6978763e-05 -3.121345e-05 -7.1662245e-05
-1.1909199e-05 -2.6241702e-05 -0.000107982094 2.0498619e-05 -1.2348373e-06 -7.492055e-05 -4.5637877e-05 -5.573497e-05
-6.19076e-05 -5.7838974e-05 3.4071494e-05 -2.1789783e-05 -7.687598e-05 -8.5604755e-05 -0.00014611195 3.8375554e-05
1.7379214e-05 3.0986416e-07 -7.3981582e-06 -4.217095e-05 8.314998e-05 -9.81291e-05 7.6298165e-06 -2.421042e-05
-7.188147e-05 -1.2135271e-05 0.00011070866 2.7761058e-05 -9.75914e-05 2.8582166e-05 -7.0219285e-05 0.000102669335
1.6282738e-05 -2.7856679e-05 2.3238446e-05 9.013617e-05 -9.84658e-06 -0.0001813423 -9.0932335e-05 5.825378e-06
-9.554508e-05 7.7278855e-05 1.4351928e-05 7.181889e-05 0.00011988374 -9.419975e-05 6.7413726e-05 -0.00010702395
4.5013825e-05 3.9380753e-05 -7.89157e-05 -5.7771096e-05 -5.736709e-05 0.000106320025 7.6306096e-05 2.7343383e-05
-6.608426e-05 -5.370249e-05 -0.00012176728 -5.391066e-06 4.5430927e-05 7.1763907e-06 9.389776e-05 0.00022540356
-4.82235e-06 -3.5976987e-05 3.823767e-05 3.2382104e-05 -1.1260645e-05 -5.9006517e-05 1.9695895e-05 9.382386e-05
1.670565e-05 -7.295538e-05 -6.470578e-05 6.475905e-05 -8.942051e-06 1.8880419e-05 0.000100544916 -1.8419796e-06
-4.2438776e-05 3.2887583e-06 8.0026475e-06 -2.9773437e-06 1.8016789e-06 7.9851125e-06 -0.000112928334 3.5597968e-06
-2.965045e-05 3.3048016e-06 -8.315472e-05 3.808553e-05 7.352443e-05 -7.316763e-05 -2.9922505e-05 -0.0001402256
6.209767e-05 -1.8273522e-07 4.8703158e-05 -2.2876055e-05 5.894632e-05 -6.379405e-06 8.05936e-05 -3.8256026e-06
3.700453e-05 -1.6444006e-05 2.0710235e-05 -0.00012477222 -9.765625e-05 4.6957735e-05 0.00010420168 3.169106e-05
3.2524345e-05 3.2945267e-05 -2.3256944e-05 1.1213509e-05 1.7783877e-06 0.00014497511 4.033915e-05 1.597286e-05
-2.3335693e-05 -1.6081958e-05 -0.00013576142 -3.2530246e-05 3.571777e-06 3.168712e-05 -3.5062534e-05 -0.00016903499
00000000: a2a1 af37 8980 2db7 873b 2db9 7479 d737
00000010: c4d8 f9b7 c408 e3b6 ad85 96b7 d63a c338
00000020: 2a3f 3d38 3ee2 6337 8924 b7b7 b607 4138
00000030: 0358 c4b7 6a4a a838 8dde 0838 df48 2237
00000040: 0cc9 d9b8 c517 cc36 de96 2337 b219 09b8
00000050: 89e1 3538 4b3a 9337 c497 c7b6 a88d 83b6
00000060: c41f 5838 e271 8ab6 18de 93b8 a045 28b7
00000070: b828 b438 3657 9838 03d5 27b8 87b1 8a38
00000080: 278c 4339 88f1 9d36 fec2 3cb8 7a58 43b8
00000090: bd2d 9538 9743 fa38 036f e538 f078 0337
000000a0: e0fa acb8 f09b 3335 cd9d fb38 e45e 29b7
000000b0: 1fa3 0137 9861 1138 fe31 48b7 245b 5fb6
000000c0: 61de 8238 4f63 07b8 7148 02b8 d0b9 1838
000000d0: 2075 a637 9cb4 6d38 14eb 3638 ec1c 5f36
000000e0: 4146 da37 1c02 8cb8 325f 30b7 b16d 6db7
000000f0: 8e74 9637 e2f2 73b8 d2ca dbb8 fa0c 2ab7
00000100: 7afd d6b5 f07f 9936 f66f 8f38 61d9 c6b8
00000110: 6c51 9f37 d010 36b8 94fe 0739 362f 84b9
00000120: b8d3 dd38 05e6 0b38 d077 bcb8 60b3 60b8
00000130: 09c7 7d38 6788 b8b8 fa4d ad38 fd2c 95b8
00000140: c6eb e838 bc1e 94b7 4634 2337 ac80 7b37
00000150: f660 95b8 e88b 3e38 fe63 79b8 8bcf 23b8
00000160: f2e5 f8b8 9a81 a9b7 0dff deb8 06ee 18b8
00000170: 2a43 3338 9a31 ffb7 8455 1639 ee40 bdb6
00000180: 4718 a5b8 a246 1db7 9e70 1139 cb90 a7b8
00000190: 63bf bcb7 2f23 4bb9 3816 84b8 ac4e 0535
000001a0: bc72 4c38 9f02 a9b8 9438 dd36 3512 b9b7
000001b0: a64a eeb8 9aef fbb5 479a d6b7 1bc6 8339
000001c0: 03f2 04b8 aad2 3cb7 8bd5 2c38 e68b c438
000001d0: 800b 5937 3c77 2138 9ee6 a1b7 d74f 4cb8
000001e0: b0b4 1c38 a424 2bb7 4930 6d38 2e4b 94b8
000001f0: 78f2 63b7 100b 4538 30eb 02b8 6049 96b8
00000200: 9fcd 47b7 a021 dcb7 7274 e2b8 73f4 ab37
00000210: b0bc a5b5 aa1e 9db8 4c6b 3fb8 f8c4 69b8
00000220: 64d4 81b8 2098 72b8 fde7 0e38 34c9 b6b7
00000230: 7a38 a1b8 b486 b3b8 a135 19b9 70f5 2038
00000240: 94c9 9137 685b a634 b23d f8b6 b6e0 30b8
00000250: ce60 ae38 a9ca cdb8 d001 0037 7b17 cbb7
00000260: 12bf 96b8 9898 4bb7 422c e838 6be0 e837
00000270: fca9 ccb8 bcc3 ef37 b142 93b8 2e50 d738
00000280: ea96 8837 c3ad e9b7 2ff0 c237 7d07 bd38
00000290: bd32 25b7 b426 3eb9 edb2 beb8 9e77 c336
000002a0: 605f c8b8 c510 a238 10c9 7037 799d 9638
000002b0: 186a fb38 1b8d c5b8 7860 8d38 0c72 e0b8
000002c0: 3acd 3c38 c32c 2538 8b7f a5b8 3e4f 72b8
000002d0: 729d 70b8 21f8 de38 8606 a038 785f e537
000002e0: b896 8ab8 9c3e 61b8 505d ffb8 e8e4 b4b6
000002f0: 168d 3e38 bacc f036 faea c438 4f5a 6c39
00000300: accf a1b6 ffe5 16b8 6361 2038 05d2 0738
00000310: 1aec 3cb7 c47d 77b8 9d38 a537 4dc3 c438
00000320: 1c23 8c37 9fff 98b8 a7b2 87b8 40cf 8738
00000330: d105 16b7 6461 9e37 a4db d238 f039 f7b5
00000340: 4a00 32b8 70b4 5c36 1c43 0637 60ce 47b6
00000350: 37d1 f135 ccf7 0537 f0d3 ecb8 d8e4 6e36
00000360: dbb9 f8b7 0fc8 5d36 5a63 aeb8 07be 1f38
00000370: 2131 9a38 9271 99b8 1702 fbb7 8609 13b9
00000380: 6f3a 8238 e035 44b4 9e46 4c38 f4e5 bfb7
00000390: 213d 7738 ac0e d6b6 5c04 a938 ad5d 80b6
000003a0: 5035 1b38 3cf1 89b7 e4ba ad37 4ad5 02b9
000003b0: cdcc ccb8 7cf4 4438 da86 da38 04ec 0438
000003c0: c06a 0838 b62e 0a38 e817 c3b7 a821 3c37
000003d0: f0b0 ee35 7604 1839 d531 2938 75fd 8537
000003e0: 05c1 c3b7 bee7 86b7 2e5b 0eb9 1671 08b8
000003f0: a9b2 6f36 c9e7 0438 1c10 13b8 fc3e 31b9

arr_19 f4 [1, 1, 16, 32]
-0.00013625184 0.00024080789 -2.3012357e-05 0.0003725679 0.00014729226 -0.00014455323 0.00040416836 -5.1353898e-05
0.00014754182 0.00012016412 4.944713e-05 -0.00032582413 0.00011758901 -0.00017775022 1.5612037e-05 -0.00018631144
0.00039268727 0.00017780103 0.00015497158 0.00012597506 -0.00038099426 0.00029552146 -0.00019188307 -0.00035666386
0.00020154557 -6.876266e-05 -0.00017011153 8.462797e-05 -0.00029516657 0.00021752778 7.618991e-05 -0.00015994206
0.00019185487 0.00013696244 -1.0929642e-05 -0.00012859011 -0.0001332993 0.00016654845 7.122644e-05 -5.4603694e-05
-0.00024632135 4.824305e-05 -9.734713e-05 7.372735e-05 -2.610574e-05 -0.00012991932 -0.00033675725 -6.921696e-05
9.2063914e-05 0.0003980348 9.8408476e-05 -0.00032792147 0.0002697744 3.671496e-05 4.845054e-05 0.00013967187
4.9643677e-07 -0.0003593516 -0.00015108625 0.00012988535 0.00012606215 0.00021489782 -0.00020275672 -0.00018305265
-0.00018129546 5.062886e-05 -4.8752743e-05 4.8192906e-05 2.3121866e-05 -0.00018777755 0.00043843518 0.00015567002
-9.70721e-05 8.7971726e-05 1.8347673e-05 4.0385385e-06 -4.1714804e-05 4.230399e-05 0.00010105998 8.649157e-05
0.0003583167 3.131444e-05 -0.000192228 -1.35518e-05 1.8870072e-05 4.8395974e-05 0.00011559839 -0.00019988493
0.00034345282 -0.00018119461 0.00010597323 -0.00023978362 -0.00021733198 6.825868e-05 3.3459484e-05 0.0002655913
0.00031718647 -6.68008e-05 1.1334789e-05 -0.00041175677 -9.027182e-05 0.00012874564 -0.00024464756 -5.528902e-05
-0.00034218904 -0.00020662835 -0.0002233473 0.0003747198 0.00013235703 -4.8202026e-05 0.00011405463 0.00044150348
-0.00017558012 -0.000101974794 -0.00014118073 -0.0002066292 0.00020559622 -1.3839723e-05 0.00036368147 0.00014749524
-1.2508433e-05 0.00017090244 -0.0003152113 0.00016738786 0.0003901963 6.7651374e-05 -2.0936424e-05 0.00016868403
-0.00020952494 -1.854706e-05 0.00017941474 -3.047103e-05 -0.00029192743 0.0002620626 0.00021929512 -0.0001232896
0.0001367396 0.00022614974 0.00020944192 -0.00044340524 -0.00021229254 0.00026321723 6.0134094e-05 -0.00029891852
-0.00024283952 -0.00034033717 4.6820693e-05 -4.4097564e-05 0.000121999634 0.00012945576 -0.00038194633 -0.0003743635
-4.0691593e-05 -8.184884e-05 5.5120036e-05 -0.0003821854 -0.00068208773 2.9094215e-05 -6.2426043e-06 -5.3658805e-06
-5.415542e-05 -0.00016733565 8.1670005e-06 0.00015810571 3.8317034e-05 8.350008e-05 -4.8189184e-05 5.475837e-05
-0.00014404001 0.00011924997 -8.8315675e-05 -0.00011706691 -5.895723e-05 8.768373e-05 -0.00027738436 -1.7559352e-05
5.1997402e-05 -2.2122173e-05 0.00023179367 6.5157794e-05 -3.991704e-05 3.4345998e-05 -9.366084e-05 -0.00015255714
-0.000104296916 9.135429e-05 -4.531693e-05 -7.207018e-05 -0.00012697211 0.0001740238 -9.101836e-05 -0.000286173
-3.769662e-05 0.00020804226 -0.00016878986 -4.8278467e-05 -7.405985e-05 -0.0002872197 0.00011375618 -5.9168626e-05
-0.00010141818 2.4963228e-05 -0.0002031269 -5.6783807e-05 -0.00013173156 -0.00012312148 -9.8030425e-05 -1.6749524e-05
7.717121e-05 0.00013692235 0.00032908845 0.00020861931 -0.0003188427 -0.0003713977 0.00015037184 0.00024164107
7.394517e-05 -0.00012806412 1.8630839e-05 7.9179525e-05 0.00039067314 4.5952274e-06 -4.551521e-05 -0.00024449968
-0.0004046248 6.410532e-05 -6.0733088e-05 0.00033322454 -0.0001398095 -5.781877e-05 5.6263794e-05 -0.00033132447
0.00031153733 0.0004987135 1.5441175e-05 -0.000603158 -4.9659953e-05 -0.00013878664 -0.000333603 -0.00036397995
0.00020647366 0.00017082327 0.00018019398 0.00026997324 -0.00045994195 -5.6584933e-05 -0.0003060335 -0.0002462221
-0.00019749635 -0.000112493544 0.00019813336 0.00023930738 5.4165284e-05 4.2813183e-05 0.00011034723 -0.0003821472
00000000: d3de 0eb9 6081 7c39 a90a c1b7 3855 c339
00000010: 7772 1a39 3693 17b9 8fe6 d339 d464 57b8
00000020: 75b5 1a39 9f00 fc38 7465 4f38 60d3 aab9
00000030: 1e9a f638 7662 3ab9 98f6 8237 995c 43b9
00000040: 98e1 cd39 1a70 3a39 de7f 2239 2c18 0439
00000050: 2fc0 c7b9 38f0 9a39 3834 49b9 9dfe bab9
00000060: fa55 5339 ac34 90b8 f75f 32b9 4c7a b138
00000070: 96c0 9ab9 2b18 6439 25c8 9f38 1fb6 27b9
00000080: a62c 4939 939d 0f39 745e 37b7 25d6 06b9
00000090: 42c6 0bb9 82a3 2e39 675f 9538 4506 65b8
000000a0: b124 81b9 9558 4a38 d826 ccb8 129e 9a38
000000b0: a6fd dab7 f43a 08b9 cb8e b0b9 9328 91b8
000000c0: 7012 c138 54af d039 a660 ce38 e0ec abb9
000000d0: 8270 8d39 63fe 1938 5f37 4b38 e274 1239
000000e0: e042 0535 5b67 bcb9 e86c 1eb9 d531 0839
000000f0: 8d2f 0439 3256 6139 189b 54b9 d2f1 3fb9
00000100: 211a 3eb9 535a 5438 dc7b 4cb8 bd22 4a38
00000110: d4f5 c137 27e6 44b9 c6dd e539 5a3b 2339
00000120: 3093 cbb8 767d b838 54e9 9937 c882 8736
00000130: eef6 2eb8 906f 3138 2af0 d338 cf62 b538
00000140: 74dc bb39 a057 0338 d090 49b9 8a5c 63b7
00000150: 2c4b 9e37 c8fc 4a38 6a6d f238 3498 51b9
00000160: 7511 b439 0fff 3db9 f23d de38 6d6e 7bb9
00000170: 9ce3 63b9 1a26 8f38 d956 0c38 103f 8b39
00000180: 0c4c a639 6817 8cb8 8c2a 3e37 0fe1 d7b9
00000190: 5050 bdb8 e5ff 0639 0a44 80b9 22e6 67b8
000001a0: d667 b3b9 60aa 58b9 5632 6ab9 0a76 c439
000001b0: 52c9 0a39 882c 4ab8 9d30 ef38 9879 e739
000001c0: ee1b 38b9 4ddb d5b8 ea09 14b9 9baa 58b9
000001d0: 5195 5739 2831 68b7 80ac be39 f4a8 1a39
000001e0: 50db 51b7 4634 3339 f242 a5b9 d684 2f39
000001f0: 4393 cc39 0ee0 8d38 a1a0 afb7 c6e0 3039
00000200: ecb3 5bb9 8295 9bb7 4721 3c39 0a9c ffb7
00000210: d60d 99b9 7265 8939 96f2 6539 4d47 01b9
00000220: c261 0f39 9c22 6d39 a39d 5b39 d878 e8b9
00000230: d89a 5eb9 6b00 8a39 7e38 7c38 2ab8 9cb9
00000240: bda2 7eb9 486f b2b9 5661 4438 66f5 38b8
00000250: 0eda ff38 84be 0739 f83f c8b9 3846 c4b9
00000260: 44ac 2ab8 43a6 abb8 b030 6738 0e60 c8b9
00000270: 22ce 32ba 5a0f f437 9077 d1b6 900c b4b6
00000280: f024 63b8 d276 2fb9 0005 0937 2ec9 2539
00000290: 9ab6 2038 c41c af38 be1e 4ab8 5aac 6538
000002a0: 7209 17b9 d715 fa38 1e36 b9b8 d281 f5b8
000002b0: d848 77b8 d8e2 b738 e66d 91b9 6c4c 93b7
000002c0: c917 5a38 0193 b9b7 a40d 7339 53a5 8838
000002d0: 986c 27b8 bc0e 1038 c86b c4b8 bff7 1fb9
000002e0: fbb9 dab8 7695 bf38 af12 3eb8 6224 97b8
000002f0: d123 05b9 287a 3639 1ce1 beb8 7d09 96b9
00000300: 701c 1eb8 eb25 5a39 2ffd 30b9 9c7e 4ab8
00000310: 9450 9bb8 fa95 96b9 6290 ee38 d42b 78b8
00000320: 79b0 d4b8 2068 d137 76fe 54b9 262b 6eb8
00000330: 6c21 0ab9 2c1a 01b9 af95 cdb8 5481 8cb7
00000340: fad6 a138 d092 0f39 8189 ac39 d2c0 5a39
00000350: 582a a7b9 28b8 c2b9 22ad 1d39 0861 7d39
00000360: 0313 9b38 f348 06b9 6c49 9c37 2f0d a638
00000370: 43d3 cc39 b430 9a36 96e7 3eb8 3130 80b9
00000380: d223 d4b9 4870 8638 a8bb 7eb8 a4b4 ae39
00000390: d499 12b9 6e82 72b8 cafc 6b38 9eb5 adb9
000003a0: d555 a339 19bc 023a ac87 8137 401d 1eba
000003b0: f849 50b8 4187 11b9 70e7 aeb9 90d4 beb9
000003c0: da80 5839 061f 3339 74f2 3c39 328b 8d39
000003d0: 5d24 f1b9 9c55 6db8 1f73 a0b9 5f17 81b9
000003e0: 0617 4fb9 83ea ebb8 05c2 4f39 96ee 7a39
000003f0: 882f 6338 4e92 3338 386a e738 ee5a c8b9
